{"format": "graph-model", "generatedBy": "2.6.0", "convertedBy": "TensorFlow.js Converter v3.11.0", "signature": {"inputs": {"input": {"name": "input:0", "dtype": "DT_FLOAT", "tensorShape": {"dim": [{"size": "-1"}, {"size": "256"}, {"size": "256"}, {"size": "3"}]}}}, "outputs": {"is_face": {"name": "Identity_1:0", "dtype": "DT_FLOAT", "tensorShape": {"dim": [{"size": "-1"}, {"size": "1"}]}}, "blendshapes": {"name": "Identity:0", "dtype": "DT_FLOAT", "tensorShape": {"dim": [{"size": "-1"}, {"size": "42"}]}}, "transforms": {"name": "Identity_2:0", "dtype": "DT_FLOAT", "tensorShape": {"dim": [{"size": "-1"}, {"size": "20"}]}}}}, "modelTopology": {"node": [{"name": "StatefulPartitionedCall/model_2/blendshapes/Neg", "op": "Const", "attr": {"value": {"tensor": {"dtype": "DT_FLOAT", "tensorShape": {"dim": [{"size": "42"}]}}}, "dtype": {"type": "DT_FLOAT"}}}, {"name": "StatefulPartitionedCall/model_2/bs_base_conv2_activ/Neg", "op": "Const", "attr": {"value": {"tensor": {"dtype": "DT_FLOAT", "tensorShape": {"dim": [{"size": "1"}, {"size": "1"}, {"size": "96"}]}}}, "dtype": {"type": "DT_FLOAT"}}}, {"name": "StatefulPartitionedCall/model_2/bs_base_conv4_activ/Neg", "op": "Const", "attr": {"dtype": {"type": "DT_FLOAT"}, "value": {"tensor": {"dtype": "DT_FLOAT", "tensorShape": {"dim": [{"size": "1"}, {"size": "1"}, {"size": "96"}]}}}}}, {"name": "StatefulPartitionedCall/model_2/bs_base_conv8_activ/Neg", "op": "Const", "attr": {"value": {"tensor": {"dtype": "DT_FLOAT", "tensorShape": {"dim": [{"size": "1"}, {"size": "1"}, {"size": "96"}]}}}, "dtype": {"type": "DT_FLOAT"}}}, {"name": "StatefulPartitionedCall/model_2/bs_base_conv8/Conv2D/ReadVariableOp", "op": "Const", "attr": {"value": {"tensor": {"dtype": "DT_FLOAT", "tensorShape": {"dim": [{"size": "4"}, {"size": "4"}, {"size": "96"}, {"size": "96"}]}}}, "dtype": {"type": "DT_FLOAT"}}}, {"name": "StatefulPartitionedCall/model_2/bs_base_conv8/BiasAdd/ReadVariableOp", "op": "Const", "attr": {"dtype": {"type": "DT_FLOAT"}, "value": {"tensor": {"dtype": "DT_FLOAT", "tensorShape": {"dim": [{"size": "96"}]}}}}}, {"name": "StatefulPartitionedCall/model_2/bs_base_conv4/Conv2D/ReadVariableOp", "op": "Const", "attr": {"dtype": {"type": "DT_FLOAT"}, "value": {"tensor": {"dtype": "DT_FLOAT", "tensorShape": {"dim": [{"size": "4"}, {"size": "4"}, {"size": "96"}, {"size": "96"}]}}}}}, {"name": "StatefulPartitionedCall/model_2/bs_base_conv4/BiasAdd/ReadVariableOp", "op": "Const", "attr": {"value": {"tensor": {"dtype": "DT_FLOAT", "tensorShape": {"dim": [{"size": "96"}]}}}, "dtype": {"type": "DT_FLOAT"}}}, {"name": "StatefulPartitionedCall/model_2/bs_base_flatten/Const", "op": "Const", "attr": {"dtype": {"type": "DT_INT32"}, "value": {"tensor": {"dtype": "DT_INT32", "tensorShape": {"dim": [{"size": "2"}]}}}}}, {"name": "StatefulPartitionedCall/model_2/bs/MatMul/ReadVariableOp", "op": "Const", "attr": {"value": {"tensor": {"dtype": "DT_FLOAT", "tensorShape": {"dim": [{"size": "96"}, {"size": "42"}]}}}, "dtype": {"type": "DT_FLOAT"}}}, {"name": "StatefulPartitionedCall/model_2/bs/BiasAdd/ReadVariableOp", "op": "Const", "attr": {"dtype": {"type": "DT_FLOAT"}, "value": {"tensor": {"dtype": "DT_FLOAT", "tensorShape": {"dim": [{"size": "42"}]}}}}}, {"name": "StatefulPartitionedCall/model_2/is_face_base_conv2_activ/Neg", "op": "Const", "attr": {"value": {"tensor": {"dtype": "DT_FLOAT", "tensorShape": {"dim": [{"size": "1"}, {"size": "1"}, {"size": "16"}]}}}, "dtype": {"type": "DT_FLOAT"}}}, {"name": "StatefulPartitionedCall/model_2/is_face_base_conv4_activ/Neg", "op": "Const", "attr": {"value": {"tensor": {"dtype": "DT_FLOAT", "tensorShape": {"dim": [{"size": "1"}, {"size": "1"}, {"size": "32"}]}}}, "dtype": {"type": "DT_FLOAT"}}}, {"name": "StatefulPartitionedCall/model_2/is_face_base_conv8_activ/Neg", "op": "Const", "attr": {"dtype": {"type": "DT_FLOAT"}, "value": {"tensor": {"dtype": "DT_FLOAT", "tensorShape": {"dim": [{"size": "1"}, {"size": "1"}, {"size": "48"}]}}}}}, {"name": "StatefulPartitionedCall/model_2/is_face_base_conv8/separable_conv2d/ReadVariableOp", "op": "Const", "attr": {"value": {"tensor": {"dtype": "DT_FLOAT", "tensorShape": {"dim": [{"size": "4"}, {"size": "4"}, {"size": "96"}, {"size": "1"}]}}}, "dtype": {"type": "DT_FLOAT"}}}, {"name": "StatefulPartitionedCall/model_2/is_face_base_conv8/separable_conv2d/ReadVariableOp_1", "op": "Const", "attr": {"value": {"tensor": {"dtype": "DT_FLOAT", "tensorShape": {"dim": [{"size": "1"}, {"size": "1"}, {"size": "96"}, {"size": "48"}]}}}, "dtype": {"type": "DT_FLOAT"}}}, {"name": "StatefulPartitionedCall/model_2/is_face_base_conv8/BiasAdd/ReadVariableOp", "op": "Const", "attr": {"dtype": {"type": "DT_FLOAT"}, "value": {"tensor": {"dtype": "DT_FLOAT", "tensorShape": {"dim": [{"size": "48"}]}}}}}, {"name": "StatefulPartitionedCall/model_2/is_face_base_conv4/separable_conv2d/ReadVariableOp", "op": "Const", "attr": {"value": {"tensor": {"dtype": "DT_FLOAT", "tensorShape": {"dim": [{"size": "4"}, {"size": "4"}, {"size": "48"}, {"size": "1"}]}}}, "dtype": {"type": "DT_FLOAT"}}}, {"name": "StatefulPartitionedCall/model_2/is_face_base_conv4/separable_conv2d/ReadVariableOp_1", "op": "Const", "attr": {"dtype": {"type": "DT_FLOAT"}, "value": {"tensor": {"dtype": "DT_FLOAT", "tensorShape": {"dim": [{"size": "1"}, {"size": "1"}, {"size": "48"}, {"size": "32"}]}}}}}, {"name": "StatefulPartitionedCall/model_2/is_face_base_conv4/BiasAdd/ReadVariableOp", "op": "Const", "attr": {"value": {"tensor": {"dtype": "DT_FLOAT", "tensorShape": {"dim": [{"size": "32"}]}}}, "dtype": {"type": "DT_FLOAT"}}}, {"name": "StatefulPartitionedCall/model_2/is_face_base_conv2/separable_conv2d/ReadVariableOp", "op": "Const", "attr": {"dtype": {"type": "DT_FLOAT"}, "value": {"tensor": {"dtype": "DT_FLOAT", "tensorShape": {"dim": [{"size": "2"}, {"size": "2"}, {"size": "32"}, {"size": "1"}]}}}}}, {"name": "StatefulPartitionedCall/model_2/is_face_base_flatten/Const", "op": "Const", "attr": {"dtype": {"type": "DT_INT32"}, "value": {"tensor": {"dtype": "DT_INT32", "tensorShape": {"dim": [{"size": "2"}]}}}}}, {"name": "StatefulPartitionedCall/model_2/is_face/MatMul/ReadVariableOp", "op": "Const", "attr": {"dtype": {"type": "DT_FLOAT"}, "value": {"tensor": {"dtype": "DT_FLOAT", "tensorShape": {"dim": [{"size": "16"}, {"size": "1"}]}}}}}, {"name": "StatefulPartitionedCall/model_2/is_face/BiasAdd/ReadVariableOp", "op": "Const", "attr": {"dtype": {"type": "DT_FLOAT"}, "value": {"tensor": {"dtype": "DT_FLOAT", "tensorShape": {"dim": [{"size": "1"}]}}}}}, {"name": "StatefulPartitionedCall/model_2/transforms_base_conv2_activ/Neg", "op": "Const", "attr": {"dtype": {"type": "DT_FLOAT"}, "value": {"tensor": {"dtype": "DT_FLOAT", "tensorShape": {"dim": [{"size": "1"}, {"size": "1"}, {"size": "96"}]}}}}}, {"name": "StatefulPartitionedCall/model_2/transforms_base_conv4_activ/Neg", "op": "Const", "attr": {"value": {"tensor": {"dtype": "DT_FLOAT", "tensorShape": {"dim": [{"size": "1"}, {"size": "1"}, {"size": "96"}]}}}, "dtype": {"type": "DT_FLOAT"}}}, {"name": "StatefulPartitionedCall/model_2/transforms_base_conv8_activ/Neg", "op": "Const", "attr": {"value": {"tensor": {"dtype": "DT_FLOAT", "tensorShape": {"dim": [{"size": "1"}, {"size": "1"}, {"size": "96"}]}}}, "dtype": {"type": "DT_FLOAT"}}}, {"name": "StatefulPartitionedCall/model_2/block4_c4_activ/Neg", "op": "Const", "attr": {"value": {"tensor": {"dtype": "DT_FLOAT", "tensorShape": {"dim": [{"size": "1"}, {"size": "1"}, {"size": "96"}]}}}, "dtype": {"type": "DT_FLOAT"}}}, {"name": "StatefulPartitionedCall/model_2/block4_c3_concat/concat/axis", "op": "Const", "attr": {"dtype": {"type": "DT_INT32"}, "value": {"tensor": {"dtype": "DT_INT32", "tensorShape": {}}}}}, {"name": "StatefulPartitionedCall/model_2/block4_c4_separable/separable_conv2d/ReadVariableOp", "op": "Const", "attr": {"value": {"tensor": {"dtype": "DT_FLOAT", "tensorShape": {"dim": [{"size": "3"}, {"size": "3"}, {"size": "480"}, {"size": "1"}]}}}, "dtype": {"type": "DT_FLOAT"}}}, {"name": "StatefulPartitionedCall/model_2/block4_c3_activ/Neg", "op": "Const", "attr": {"value": {"tensor": {"dtype": "DT_FLOAT", "tensorShape": {"dim": [{"size": "1"}, {"size": "1"}, {"size": "96"}]}}}, "dtype": {"type": "DT_FLOAT"}}}, {"name": "StatefulPartitionedCall/model_2/block4_c2_concat/concat/axis", "op": "Const", "attr": {"dtype": {"type": "DT_INT32"}, "value": {"tensor": {"dtype": "DT_INT32", "tensorShape": {}}}}}, {"name": "StatefulPartitionedCall/model_2/block4_c3_separable/separable_conv2d/ReadVariableOp", "op": "Const", "attr": {"value": {"tensor": {"dtype": "DT_FLOAT", "tensorShape": {"dim": [{"size": "3"}, {"size": "3"}, {"size": "384"}, {"size": "1"}]}}}, "dtype": {"type": "DT_FLOAT"}}}, {"name": "StatefulPartitionedCall/model_2/block4_c2_activ/Neg", "op": "Const", "attr": {"value": {"tensor": {"dtype": "DT_FLOAT", "tensorShape": {"dim": [{"size": "1"}, {"size": "1"}, {"size": "96"}]}}}, "dtype": {"type": "DT_FLOAT"}}}, {"name": "StatefulPartitionedCall/model_2/block4_c1_concat/concat/axis", "op": "Const", "attr": {"value": {"tensor": {"dtype": "DT_INT32", "tensorShape": {}}}, "dtype": {"type": "DT_INT32"}}}, {"name": "StatefulPartitionedCall/model_2/block4_c2_separable/separable_conv2d/ReadVariableOp", "op": "Const", "attr": {"dtype": {"type": "DT_FLOAT"}, "value": {"tensor": {"dtype": "DT_FLOAT", "tensorShape": {"dim": [{"size": "5"}, {"size": "5"}, {"size": "288"}, {"size": "1"}]}}}}}, {"name": "StatefulPartitionedCall/model_2/block4_c1_activ/Neg", "op": "Const", "attr": {"value": {"tensor": {"dtype": "DT_FLOAT", "tensorShape": {"dim": [{"size": "1"}, {"size": "1"}, {"size": "96"}]}}}, "dtype": {"type": "DT_FLOAT"}}}, {"name": "StatefulPartitionedCall/model_2/block4_c0_concat/concat/axis", "op": "Const", "attr": {"dtype": {"type": "DT_INT32"}, "value": {"tensor": {"dtype": "DT_INT32", "tensorShape": {}}}}}, {"name": "StatefulPartitionedCall/model_2/block4_c1_separable/separable_conv2d/ReadVariableOp", "op": "Const", "attr": {"dtype": {"type": "DT_FLOAT"}, "value": {"tensor": {"dtype": "DT_FLOAT", "tensorShape": {"dim": [{"size": "5"}, {"size": "5"}, {"size": "192"}, {"size": "1"}]}}}}}, {"name": "StatefulPartitionedCall/model_2/block4_c0_activ/Neg", "op": "Const", "attr": {"dtype": {"type": "DT_FLOAT"}, "value": {"tensor": {"dtype": "DT_FLOAT", "tensorShape": {"dim": [{"size": "1"}, {"size": "1"}, {"size": "96"}]}}}}}, {"name": "StatefulPartitionedCall/model_2/block4_c0_separable/separable_conv2d/ReadVariableOp", "op": "Const", "attr": {"dtype": {"type": "DT_FLOAT"}, "value": {"tensor": {"dtype": "DT_FLOAT", "tensorShape": {"dim": [{"size": "7"}, {"size": "7"}, {"size": "96"}, {"size": "1"}]}}}}}, {"name": "StatefulPartitionedCall/model_2/block4_downscale_activ/Neg", "op": "Const", "attr": {"value": {"tensor": {"dtype": "DT_FLOAT", "tensorShape": {"dim": [{"size": "1"}, {"size": "1"}, {"size": "96"}]}}}, "dtype": {"type": "DT_FLOAT"}}}, {"name": "StatefulPartitionedCall/model_2/block3_l1_activ/Neg", "op": "Const", "attr": {"value": {"tensor": {"dtype": "DT_FLOAT", "tensorShape": {"dim": [{"size": "1"}, {"size": "1"}, {"size": "48"}]}}}, "dtype": {"type": "DT_FLOAT"}}}, {"name": "StatefulPartitionedCall/model_2/block3_l0_activ/Neg", "op": "Const", "attr": {"value": {"tensor": {"dtype": "DT_FLOAT", "tensorShape": {"dim": [{"size": "1"}, {"size": "1"}, {"size": "48"}]}}}, "dtype": {"type": "DT_FLOAT"}}}, {"name": "StatefulPartitionedCall/model_2/block3_l0_concat/concat/axis", "op": "Const", "attr": {"dtype": {"type": "DT_INT32"}, "value": {"tensor": {"dtype": "DT_INT32", "tensorShape": {}}}}}, {"name": "StatefulPartitionedCall/model_2/block3_l0_separable/separable_conv2d/ReadVariableOp", "op": "Const", "attr": {"value": {"tensor": {"dtype": "DT_FLOAT", "tensorShape": {"dim": [{"size": "5"}, {"size": "5"}, {"size": "96"}, {"size": "1"}]}}}, "dtype": {"type": "DT_FLOAT"}}}, {"name": "StatefulPartitionedCall/model_2/block3_l0_downscale_activ/Neg", "op": "Const", "attr": {"dtype": {"type": "DT_FLOAT"}, "value": {"tensor": {"dtype": "DT_FLOAT", "tensorShape": {"dim": [{"size": "1"}, {"size": "1"}, {"size": "48"}]}}}}}, {"name": "StatefulPartitionedCall/model_2/block3_l0_downscale_separable/separable_conv2d/ReadVariableOp", "op": "Const", "attr": {"dtype": {"type": "DT_FLOAT"}, "value": {"tensor": {"dtype": "DT_FLOAT", "tensorShape": {"dim": [{"size": "4"}, {"size": "4"}, {"size": "64"}, {"size": "1"}]}}}}}, {"name": "StatefulPartitionedCall/model_2/block3_l0_downscale_separable/separable_conv2d/ReadVariableOp_1", "op": "Const", "attr": {"dtype": {"type": "DT_FLOAT"}, "value": {"tensor": {"dtype": "DT_FLOAT", "tensorShape": {"dim": [{"size": "1"}, {"size": "1"}, {"size": "64"}, {"size": "48"}]}}}}}, {"name": "StatefulPartitionedCall/model_2/block3_l0_downscale_separable/BiasAdd/ReadVariableOp", "op": "Const", "attr": {"value": {"tensor": {"dtype": "DT_FLOAT", "tensorShape": {"dim": [{"size": "48"}]}}}, "dtype": {"type": "DT_FLOAT"}}}, {"name": "StatefulPartitionedCall/model_2/block3_l1_concat/concat/axis", "op": "Const", "attr": {"dtype": {"type": "DT_INT32"}, "value": {"tensor": {"dtype": "DT_INT32", "tensorShape": {}}}}}, {"name": "StatefulPartitionedCall/model_2/block3_l1_separable/separable_conv2d/ReadVariableOp", "op": "Const", "attr": {"value": {"tensor": {"dtype": "DT_FLOAT", "tensorShape": {"dim": [{"size": "3"}, {"size": "3"}, {"size": "96"}, {"size": "1"}]}}}, "dtype": {"type": "DT_FLOAT"}}}, {"name": "StatefulPartitionedCall/model_2/block3_l1_downscale_activ/Neg", "op": "Const", "attr": {"dtype": {"type": "DT_FLOAT"}, "value": {"tensor": {"dtype": "DT_FLOAT", "tensorShape": {"dim": [{"size": "1"}, {"size": "1"}, {"size": "48"}]}}}}}, {"name": "StatefulPartitionedCall/model_2/block2_l1_activ/Neg", "op": "Const", "attr": {"value": {"tensor": {"dtype": "DT_FLOAT", "tensorShape": {"dim": [{"size": "1"}, {"size": "1"}, {"size": "32"}]}}}, "dtype": {"type": "DT_FLOAT"}}}, {"name": "StatefulPartitionedCall/model_2/block2_l0_activ/Neg", "op": "Const", "attr": {"value": {"tensor": {"dtype": "DT_FLOAT", "tensorShape": {"dim": [{"size": "1"}, {"size": "1"}, {"size": "32"}]}}}, "dtype": {"type": "DT_FLOAT"}}}, {"name": "StatefulPartitionedCall/model_2/block2_l0_concat/concat/axis", "op": "Const", "attr": {"value": {"tensor": {"dtype": "DT_INT32", "tensorShape": {}}}, "dtype": {"type": "DT_INT32"}}}, {"name": "StatefulPartitionedCall/model_2/block2_l0_separable/separable_conv2d/ReadVariableOp", "op": "Const", "attr": {"dtype": {"type": "DT_FLOAT"}, "value": {"tensor": {"dtype": "DT_FLOAT", "tensorShape": {"dim": [{"size": "5"}, {"size": "5"}, {"size": "64"}, {"size": "1"}]}}}}}, {"name": "StatefulPartitionedCall/model_2/block2_l0_downscale_activ/Neg", "op": "Const", "attr": {"dtype": {"type": "DT_FLOAT"}, "value": {"tensor": {"dtype": "DT_FLOAT", "tensorShape": {"dim": [{"size": "1"}, {"size": "1"}, {"size": "32"}]}}}}}, {"name": "StatefulPartitionedCall/model_2/block2_l0_downscale_separable/separable_conv2d/ReadVariableOp", "op": "Const", "attr": {"value": {"tensor": {"dtype": "DT_FLOAT", "tensorShape": {"dim": [{"size": "4"}, {"size": "4"}, {"size": "32"}, {"size": "1"}]}}}, "dtype": {"type": "DT_FLOAT"}}}, {"name": "StatefulPartitionedCall/model_2/block2_l0_downscale_separable/separable_conv2d/ReadVariableOp_1", "op": "Const", "attr": {"dtype": {"type": "DT_FLOAT"}, "value": {"tensor": {"dtype": "DT_FLOAT", "tensorShape": {"dim": [{"size": "1"}, {"size": "1"}, {"size": "32"}, {"size": "32"}]}}}}}, {"name": "StatefulPartitionedCall/model_2/block2_l0_downscale_separable/BiasAdd/ReadVariableOp", "op": "Const", "attr": {"value": {"tensor": {"dtype": "DT_FLOAT", "tensorShape": {"dim": [{"size": "32"}]}}}, "dtype": {"type": "DT_FLOAT"}}}, {"name": "StatefulPartitionedCall/model_2/block2_l1_concat/concat/axis", "op": "Const", "attr": {"dtype": {"type": "DT_INT32"}, "value": {"tensor": {"dtype": "DT_INT32", "tensorShape": {}}}}}, {"name": "StatefulPartitionedCall/model_2/block2_l1_separable/separable_conv2d/ReadVariableOp", "op": "Const", "attr": {"value": {"tensor": {"dtype": "DT_FLOAT", "tensorShape": {"dim": [{"size": "3"}, {"size": "3"}, {"size": "64"}, {"size": "1"}]}}}, "dtype": {"type": "DT_FLOAT"}}}, {"name": "StatefulPartitionedCall/model_2/block2_l1_downscale_activ/Neg", "op": "Const", "attr": {"dtype": {"type": "DT_FLOAT"}, "value": {"tensor": {"dtype": "DT_FLOAT", "tensorShape": {"dim": [{"size": "1"}, {"size": "1"}, {"size": "32"}]}}}}}, {"name": "StatefulPartitionedCall/model_2/block1_l1_activ/Neg", "op": "Const", "attr": {"value": {"tensor": {"dtype": "DT_FLOAT", "tensorShape": {"dim": [{"size": "1"}, {"size": "1"}, {"size": "16"}]}}}, "dtype": {"type": "DT_FLOAT"}}}, {"name": "StatefulPartitionedCall/model_2/block1_l0_activ/Neg", "op": "Const", "attr": {"dtype": {"type": "DT_FLOAT"}, "value": {"tensor": {"dtype": "DT_FLOAT", "tensorShape": {"dim": [{"size": "1"}, {"size": "1"}, {"size": "16"}]}}}}}, {"name": "StatefulPartitionedCall/model_2/block1_l0_concat/concat/axis", "op": "Const", "attr": {"value": {"tensor": {"dtype": "DT_INT32", "tensorShape": {}}}, "dtype": {"type": "DT_INT32"}}}, {"name": "StatefulPartitionedCall/model_2/block1_l0_separable/separable_conv2d/ReadVariableOp", "op": "Const", "attr": {"dtype": {"type": "DT_FLOAT"}, "value": {"tensor": {"dtype": "DT_FLOAT", "tensorShape": {"dim": [{"size": "3"}, {"size": "3"}, {"size": "32"}, {"size": "1"}]}}}}}, {"name": "StatefulPartitionedCall/model_2/block1_l0_downscale_activ/Neg", "op": "Const", "attr": {"value": {"tensor": {"dtype": "DT_FLOAT", "tensorShape": {"dim": [{"size": "1"}, {"size": "1"}, {"size": "16"}]}}}, "dtype": {"type": "DT_FLOAT"}}}, {"name": "StatefulPartitionedCall/model_2/block1_l0_downscale_separable/separable_conv2d/ReadVariableOp", "op": "Const", "attr": {"value": {"tensor": {"dtype": "DT_FLOAT", "tensorShape": {"dim": [{"size": "4"}, {"size": "4"}, {"size": "16"}, {"size": "1"}]}}}, "dtype": {"type": "DT_FLOAT"}}}, {"name": "StatefulPartitionedCall/model_2/block1_l0_downscale_separable/separable_conv2d/ReadVariableOp_1", "op": "Const", "attr": {"dtype": {"type": "DT_FLOAT"}, "value": {"tensor": {"dtype": "DT_FLOAT", "tensorShape": {"dim": [{"size": "1"}, {"size": "1"}, {"size": "16"}, {"size": "16"}]}}}}}, {"name": "StatefulPartitionedCall/model_2/block1_l0_downscale_separable/BiasAdd/ReadVariableOp", "op": "Const", "attr": {"value": {"tensor": {"dtype": "DT_FLOAT", "tensorShape": {"dim": [{"size": "16"}]}}}, "dtype": {"type": "DT_FLOAT"}}}, {"name": "StatefulPartitionedCall/model_2/block1_l1_concat/concat/axis", "op": "Const", "attr": {"value": {"tensor": {"dtype": "DT_INT32", "tensorShape": {}}}, "dtype": {"type": "DT_INT32"}}}, {"name": "StatefulPartitionedCall/model_2/block1_l1_separable/separable_conv2d/ReadVariableOp", "op": "Const", "attr": {"dtype": {"type": "DT_FLOAT"}, "value": {"tensor": {"dtype": "DT_FLOAT", "tensorShape": {"dim": [{"size": "3"}, {"size": "3"}, {"size": "32"}, {"size": "1"}]}}}}}, {"name": "StatefulPartitionedCall/model_2/block1_l1_downscale_activ/Neg", "op": "Const", "attr": {"value": {"tensor": {"dtype": "DT_FLOAT", "tensorShape": {"dim": [{"size": "1"}, {"size": "1"}, {"size": "16"}]}}}, "dtype": {"type": "DT_FLOAT"}}}, {"name": "StatefulPartitionedCall/model_2/block0_l0_activ/Neg", "op": "Const", "attr": {"value": {"tensor": {"dtype": "DT_FLOAT", "tensorShape": {"dim": [{"size": "1"}, {"size": "1"}, {"size": "16"}]}}}, "dtype": {"type": "DT_FLOAT"}}}, {"name": "StatefulPartitionedCall/model_2/block0_l0_separable/separable_conv2d/ReadVariableOp", "op": "Const", "attr": {"dtype": {"type": "DT_FLOAT"}, "value": {"tensor": {"dtype": "DT_FLOAT", "tensorShape": {"dim": [{"size": "3"}, {"size": "3"}, {"size": "16"}, {"size": "1"}]}}}}}, {"name": "StatefulPartitionedCall/model_2/block0_l0_downscale_activ/Neg", "op": "Const", "attr": {"dtype": {"type": "DT_FLOAT"}, "value": {"tensor": {"dtype": "DT_FLOAT", "tensorShape": {"dim": [{"size": "1"}, {"size": "1"}, {"size": "16"}]}}}}}, {"name": "StatefulPartitionedCall/model_2/block0_l0_downscale_conv/Conv2D/ReadVariableOp", "op": "Const", "attr": {"value": {"tensor": {"dtype": "DT_FLOAT", "tensorShape": {"dim": [{"size": "4"}, {"size": "4"}, {"size": "3"}, {"size": "16"}]}}}, "dtype": {"type": "DT_FLOAT"}}}, {"name": "StatefulPartitionedCall/model_2/block0_l0_downscale_conv/BiasAdd/ReadVariableOp", "op": "Const", "attr": {"dtype": {"type": "DT_FLOAT"}, "value": {"tensor": {"dtype": "DT_FLOAT", "tensorShape": {"dim": [{"size": "16"}]}}}}}, {"name": "StatefulPartitionedCall/model_2/block1_l1_downscale_separable/separable_conv2d/ReadVariableOp", "op": "Const", "attr": {"dtype": {"type": "DT_FLOAT"}, "value": {"tensor": {"dtype": "DT_FLOAT", "tensorShape": {"dim": [{"size": "4"}, {"size": "4"}, {"size": "16"}, {"size": "1"}]}}}}}, {"name": "StatefulPartitionedCall/model_2/block1_l1_downscale_separable/separable_conv2d/ReadVariableOp_1", "op": "Const", "attr": {"value": {"tensor": {"dtype": "DT_FLOAT", "tensorShape": {"dim": [{"size": "1"}, {"size": "1"}, {"size": "16"}, {"size": "16"}]}}}, "dtype": {"type": "DT_FLOAT"}}}, {"name": "StatefulPartitionedCall/model_2/block1_l1_downscale_separable/BiasAdd/ReadVariableOp", "op": "Const", "attr": {"value": {"tensor": {"dtype": "DT_FLOAT", "tensorShape": {"dim": [{"size": "16"}]}}}, "dtype": {"type": "DT_FLOAT"}}}, {"name": "StatefulPartitionedCall/model_2/block1_concat/concat/axis", "op": "Const", "attr": {"dtype": {"type": "DT_INT32"}, "value": {"tensor": {"dtype": "DT_INT32", "tensorShape": {}}}}}, {"name": "StatefulPartitionedCall/model_2/block2_l1_downscale_separable/separable_conv2d/ReadVariableOp", "op": "Const", "attr": {"dtype": {"type": "DT_FLOAT"}, "value": {"tensor": {"dtype": "DT_FLOAT", "tensorShape": {"dim": [{"size": "4"}, {"size": "4"}, {"size": "32"}, {"size": "1"}]}}}}}, {"name": "StatefulPartitionedCall/model_2/block2_l1_downscale_separable/separable_conv2d/ReadVariableOp_1", "op": "Const", "attr": {"dtype": {"type": "DT_FLOAT"}, "value": {"tensor": {"dtype": "DT_FLOAT", "tensorShape": {"dim": [{"size": "1"}, {"size": "1"}, {"size": "32"}, {"size": "32"}]}}}}}, {"name": "StatefulPartitionedCall/model_2/block2_l1_downscale_separable/BiasAdd/ReadVariableOp", "op": "Const", "attr": {"dtype": {"type": "DT_FLOAT"}, "value": {"tensor": {"dtype": "DT_FLOAT", "tensorShape": {"dim": [{"size": "32"}]}}}}}, {"name": "StatefulPartitionedCall/model_2/block2_concat/concat/axis", "op": "Const", "attr": {"value": {"tensor": {"dtype": "DT_INT32", "tensorShape": {}}}, "dtype": {"type": "DT_INT32"}}}, {"name": "StatefulPartitionedCall/model_2/block3_l1_downscale_separable/separable_conv2d/ReadVariableOp", "op": "Const", "attr": {"dtype": {"type": "DT_FLOAT"}, "value": {"tensor": {"dtype": "DT_FLOAT", "tensorShape": {"dim": [{"size": "4"}, {"size": "4"}, {"size": "64"}, {"size": "1"}]}}}}}, {"name": "StatefulPartitionedCall/model_2/block3_l1_downscale_separable/separable_conv2d/ReadVariableOp_1", "op": "Const", "attr": {"value": {"tensor": {"dtype": "DT_FLOAT", "tensorShape": {"dim": [{"size": "1"}, {"size": "1"}, {"size": "64"}, {"size": "48"}]}}}, "dtype": {"type": "DT_FLOAT"}}}, {"name": "StatefulPartitionedCall/model_2/block3_l1_downscale_separable/BiasAdd/ReadVariableOp", "op": "Const", "attr": {"value": {"tensor": {"dtype": "DT_FLOAT", "tensorShape": {"dim": [{"size": "48"}]}}}, "dtype": {"type": "DT_FLOAT"}}}, {"name": "StatefulPartitionedCall/model_2/block3_concat/concat/axis", "op": "Const", "attr": {"dtype": {"type": "DT_INT32"}, "value": {"tensor": {"dtype": "DT_INT32", "tensorShape": {}}}}}, {"name": "StatefulPartitionedCall/model_2/block4_downscale_separable/separable_conv2d/ReadVariableOp", "op": "Const", "attr": {"value": {"tensor": {"dtype": "DT_FLOAT", "tensorShape": {"dim": [{"size": "4"}, {"size": "4"}, {"size": "96"}, {"size": "1"}]}}}, "dtype": {"type": "DT_FLOAT"}}}, {"name": "StatefulPartitionedCall/model_2/block4_downscale_separable/separable_conv2d/ReadVariableOp_1", "op": "Const", "attr": {"dtype": {"type": "DT_FLOAT"}, "value": {"tensor": {"dtype": "DT_FLOAT", "tensorShape": {"dim": [{"size": "1"}, {"size": "1"}, {"size": "96"}, {"size": "96"}]}}}}}, {"name": "StatefulPartitionedCall/model_2/block4_downscale_separable/BiasAdd/ReadVariableOp", "op": "Const", "attr": {"dtype": {"type": "DT_FLOAT"}, "value": {"tensor": {"dtype": "DT_FLOAT", "tensorShape": {"dim": [{"size": "96"}]}}}}}, {"name": "StatefulPartitionedCall/model_2/transforms_base_conv8/separable_conv2d/ReadVariableOp", "op": "Const", "attr": {"value": {"tensor": {"dtype": "DT_FLOAT", "tensorShape": {"dim": [{"size": "4"}, {"size": "4"}, {"size": "96"}, {"size": "1"}]}}}, "dtype": {"type": "DT_FLOAT"}}}, {"name": "StatefulPartitionedCall/model_2/transforms_base_conv8/separable_conv2d/ReadVariableOp_1", "op": "Const", "attr": {"value": {"tensor": {"dtype": "DT_FLOAT", "tensorShape": {"dim": [{"size": "1"}, {"size": "1"}, {"size": "96"}, {"size": "96"}]}}}, "dtype": {"type": "DT_FLOAT"}}}, {"name": "StatefulPartitionedCall/model_2/transforms_base_conv8/BiasAdd/ReadVariableOp", "op": "Const", "attr": {"dtype": {"type": "DT_FLOAT"}, "value": {"tensor": {"dtype": "DT_FLOAT", "tensorShape": {"dim": [{"size": "96"}]}}}}}, {"name": "StatefulPartitionedCall/model_2/transforms_base_conv4/separable_conv2d/ReadVariableOp", "op": "Const", "attr": {"dtype": {"type": "DT_FLOAT"}, "value": {"tensor": {"dtype": "DT_FLOAT", "tensorShape": {"dim": [{"size": "4"}, {"size": "4"}, {"size": "96"}, {"size": "1"}]}}}}}, {"name": "StatefulPartitionedCall/model_2/transforms_base_conv4/separable_conv2d/ReadVariableOp_1", "op": "Const", "attr": {"value": {"tensor": {"dtype": "DT_FLOAT", "tensorShape": {"dim": [{"size": "1"}, {"size": "1"}, {"size": "96"}, {"size": "96"}]}}}, "dtype": {"type": "DT_FLOAT"}}}, {"name": "StatefulPartitionedCall/model_2/transforms_base_conv4/BiasAdd/ReadVariableOp", "op": "Const", "attr": {"value": {"tensor": {"dtype": "DT_FLOAT", "tensorShape": {"dim": [{"size": "96"}]}}}, "dtype": {"type": "DT_FLOAT"}}}, {"name": "StatefulPartitionedCall/model_2/transforms_base_conv2/separable_conv2d/ReadVariableOp", "op": "Const", "attr": {"dtype": {"type": "DT_FLOAT"}, "value": {"tensor": {"dtype": "DT_FLOAT", "tensorShape": {"dim": [{"size": "2"}, {"size": "2"}, {"size": "96"}, {"size": "1"}]}}}}}, {"name": "StatefulPartitionedCall/model_2/transforms_base_flatten/Const", "op": "Const", "attr": {"dtype": {"type": "DT_INT32"}, "value": {"tensor": {"dtype": "DT_INT32", "tensorShape": {"dim": [{"size": "2"}]}}}}}, {"name": "StatefulPartitionedCall/model_2/transforms/MatMul/ReadVariableOp", "op": "Const", "attr": {"value": {"tensor": {"dtype": "DT_FLOAT", "tensorShape": {"dim": [{"size": "96"}, {"size": "20"}]}}}, "dtype": {"type": "DT_FLOAT"}}}, {"name": "StatefulPartitionedCall/model_2/transforms/BiasAdd/ReadVariableOp", "op": "Const", "attr": {"dtype": {"type": "DT_FLOAT"}, "value": {"tensor": {"dtype": "DT_FLOAT", "tensorShape": {"dim": [{"size": "20"}]}}}}}, {"name": "input", "op": "Placeholder", "attr": {"dtype": {"type": "DT_FLOAT"}, "shape": {"shape": {"dim": [{"size": "-1"}, {"size": "256"}, {"size": "256"}, {"size": "3"}]}}}}, {"name": "StatefulPartitionedCall/model_2/block0_l0_separable/separable_conv2d_weights", "op": "Const", "attr": {"value": {"tensor": {"dtype": "DT_FLOAT", "tensorShape": {"dim": [{"size": "1"}, {"size": "1"}, {"size": "16"}, {"size": "16"}]}}}, "dtype": {"type": "DT_FLOAT"}}}, {"name": "StatefulPartitionedCall/model_2/block0_l0_separable/separable_conv2d_bn_offset", "op": "Const", "attr": {"value": {"tensor": {"dtype": "DT_FLOAT", "tensorShape": {"dim": [{"size": "16"}]}}}, "dtype": {"type": "DT_FLOAT"}}}, {"name": "StatefulPartitionedCall/model_2/block1_l0_separable/separable_conv2d_weights", "op": "Const", "attr": {"dtype": {"type": "DT_FLOAT"}, "value": {"tensor": {"dtype": "DT_FLOAT", "tensorShape": {"dim": [{"size": "1"}, {"size": "1"}, {"size": "32"}, {"size": "16"}]}}}}}, {"name": "StatefulPartitionedCall/model_2/block1_l0_separable/separable_conv2d_bn_offset", "op": "Const", "attr": {"value": {"tensor": {"dtype": "DT_FLOAT", "tensorShape": {"dim": [{"size": "16"}]}}}, "dtype": {"type": "DT_FLOAT"}}}, {"name": "StatefulPartitionedCall/model_2/block1_l1_separable/separable_conv2d_weights", "op": "Const", "attr": {"value": {"tensor": {"dtype": "DT_FLOAT", "tensorShape": {"dim": [{"size": "1"}, {"size": "1"}, {"size": "32"}, {"size": "16"}]}}}, "dtype": {"type": "DT_FLOAT"}}}, {"name": "StatefulPartitionedCall/model_2/is_face_base_conv2/separable_conv2d_weights", "op": "Const", "attr": {"dtype": {"type": "DT_FLOAT"}, "value": {"tensor": {"dtype": "DT_FLOAT", "tensorShape": {"dim": [{"size": "1"}, {"size": "1"}, {"size": "32"}, {"size": "16"}]}}}}}, {"name": "StatefulPartitionedCall/model_2/block1_l1_separable/separable_conv2d_bn_offset", "op": "Const", "attr": {"value": {"tensor": {"dtype": "DT_FLOAT", "tensorShape": {"dim": [{"size": "16"}]}}}, "dtype": {"type": "DT_FLOAT"}}}, {"name": "StatefulPartitionedCall/model_2/is_face_base_conv2/separable_conv2d_bn_offset", "op": "Const", "attr": {"dtype": {"type": "DT_FLOAT"}, "value": {"tensor": {"dtype": "DT_FLOAT", "tensorShape": {"dim": [{"size": "16"}]}}}}}, {"name": "StatefulPartitionedCall/model_2/block2_l0_separable/separable_conv2d_weights", "op": "Const", "attr": {"dtype": {"type": "DT_FLOAT"}, "value": {"tensor": {"dtype": "DT_FLOAT", "tensorShape": {"dim": [{"size": "1"}, {"size": "1"}, {"size": "64"}, {"size": "32"}]}}}}}, {"name": "StatefulPartitionedCall/model_2/block2_l0_separable/separable_conv2d_bn_offset", "op": "Const", "attr": {"value": {"tensor": {"dtype": "DT_FLOAT", "tensorShape": {"dim": [{"size": "32"}]}}}, "dtype": {"type": "DT_FLOAT"}}}, {"name": "StatefulPartitionedCall/model_2/block2_l1_separable/separable_conv2d_weights", "op": "Const", "attr": {"value": {"tensor": {"dtype": "DT_FLOAT", "tensorShape": {"dim": [{"size": "1"}, {"size": "1"}, {"size": "64"}, {"size": "32"}]}}}, "dtype": {"type": "DT_FLOAT"}}}, {"name": "StatefulPartitionedCall/model_2/block2_l1_separable/separable_conv2d_bn_offset", "op": "Const", "attr": {"value": {"tensor": {"dtype": "DT_FLOAT", "tensorShape": {"dim": [{"size": "32"}]}}}, "dtype": {"type": "DT_FLOAT"}}}, {"name": "StatefulPartitionedCall/model_2/block3_l0_separable/separable_conv2d_weights", "op": "Const", "attr": {"dtype": {"type": "DT_FLOAT"}, "value": {"tensor": {"dtype": "DT_FLOAT", "tensorShape": {"dim": [{"size": "1"}, {"size": "1"}, {"size": "96"}, {"size": "48"}]}}}}}, {"name": "StatefulPartitionedCall/model_2/block3_l0_separable/separable_conv2d_bn_offset", "op": "Const", "attr": {"dtype": {"type": "DT_FLOAT"}, "value": {"tensor": {"dtype": "DT_FLOAT", "tensorShape": {"dim": [{"size": "48"}]}}}}}, {"name": "StatefulPartitionedCall/model_2/block3_l1_separable/separable_conv2d_weights", "op": "Const", "attr": {"dtype": {"type": "DT_FLOAT"}, "value": {"tensor": {"dtype": "DT_FLOAT", "tensorShape": {"dim": [{"size": "1"}, {"size": "1"}, {"size": "96"}, {"size": "48"}]}}}}}, {"name": "StatefulPartitionedCall/model_2/block3_l1_separable/separable_conv2d_bn_offset", "op": "Const", "attr": {"value": {"tensor": {"dtype": "DT_FLOAT", "tensorShape": {"dim": [{"size": "48"}]}}}, "dtype": {"type": "DT_FLOAT"}}}, {"name": "StatefulPartitionedCall/model_2/block4_c0_separable/separable_conv2d_weights", "op": "Const", "attr": {"value": {"tensor": {"dtype": "DT_FLOAT", "tensorShape": {"dim": [{"size": "1"}, {"size": "1"}, {"size": "96"}, {"size": "96"}]}}}, "dtype": {"type": "DT_FLOAT"}}}, {"name": "StatefulPartitionedCall/model_2/block4_c0_separable/separable_conv2d_bn_offset", "op": "Const", "attr": {"value": {"tensor": {"dtype": "DT_FLOAT", "tensorShape": {"dim": [{"size": "96"}]}}}, "dtype": {"type": "DT_FLOAT"}}}, {"name": "StatefulPartitionedCall/model_2/block4_c1_separable/separable_conv2d_weights", "op": "Const", "attr": {"dtype": {"type": "DT_FLOAT"}, "value": {"tensor": {"dtype": "DT_FLOAT", "tensorShape": {"dim": [{"size": "1"}, {"size": "1"}, {"size": "192"}, {"size": "96"}]}}}}}, {"name": "StatefulPartitionedCall/model_2/block4_c1_separable/separable_conv2d_bn_offset", "op": "Const", "attr": {"value": {"tensor": {"dtype": "DT_FLOAT", "tensorShape": {"dim": [{"size": "96"}]}}}, "dtype": {"type": "DT_FLOAT"}}}, {"name": "StatefulPartitionedCall/model_2/block4_c2_separable/separable_conv2d_weights", "op": "Const", "attr": {"value": {"tensor": {"dtype": "DT_FLOAT", "tensorShape": {"dim": [{"size": "1"}, {"size": "1"}, {"size": "288"}, {"size": "96"}]}}}, "dtype": {"type": "DT_FLOAT"}}}, {"name": "StatefulPartitionedCall/model_2/block4_c2_separable/separable_conv2d_bn_offset", "op": "Const", "attr": {"value": {"tensor": {"dtype": "DT_FLOAT", "tensorShape": {"dim": [{"size": "96"}]}}}, "dtype": {"type": "DT_FLOAT"}}}, {"name": "StatefulPartitionedCall/model_2/block4_c3_separable/separable_conv2d_weights", "op": "Const", "attr": {"dtype": {"type": "DT_FLOAT"}, "value": {"tensor": {"dtype": "DT_FLOAT", "tensorShape": {"dim": [{"size": "1"}, {"size": "1"}, {"size": "384"}, {"size": "96"}]}}}}}, {"name": "StatefulPartitionedCall/model_2/block4_c3_separable/separable_conv2d_bn_offset", "op": "Const", "attr": {"dtype": {"type": "DT_FLOAT"}, "value": {"tensor": {"dtype": "DT_FLOAT", "tensorShape": {"dim": [{"size": "96"}]}}}}}, {"name": "StatefulPartitionedCall/model_2/block4_c4_separable/separable_conv2d_weights", "op": "Const", "attr": {"dtype": {"type": "DT_FLOAT"}, "value": {"tensor": {"dtype": "DT_FLOAT", "tensorShape": {"dim": [{"size": "1"}, {"size": "1"}, {"size": "480"}, {"size": "96"}]}}}}}, {"name": "StatefulPartitionedCall/model_2/transforms_base_conv2/separable_conv2d_weights", "op": "Const", "attr": {"value": {"tensor": {"dtype": "DT_FLOAT", "tensorShape": {"dim": [{"size": "1"}, {"size": "1"}, {"size": "96"}, {"size": "96"}]}}}, "dtype": {"type": "DT_FLOAT"}}}, {"name": "StatefulPartitionedCall/model_2/block4_c4_separable/separable_conv2d_bn_offset", "op": "Const", "attr": {"value": {"tensor": {"dtype": "DT_FLOAT", "tensorShape": {"dim": [{"size": "96"}]}}}, "dtype": {"type": "DT_FLOAT"}}}, {"name": "StatefulPartitionedCall/model_2/transforms_base_conv2/separable_conv2d_bn_offset", "op": "Const", "attr": {"dtype": {"type": "DT_FLOAT"}, "value": {"tensor": {"dtype": "DT_FLOAT", "tensorShape": {"dim": [{"size": "96"}]}}}}}, {"name": "StatefulPartitionedCall/model_2/bs_base_conv2/Conv2D_weights", "op": "Const", "attr": {"value": {"tensor": {"dtype": "DT_FLOAT", "tensorShape": {"dim": [{"size": "2"}, {"size": "2"}, {"size": "96"}, {"size": "96"}]}}}, "dtype": {"type": "DT_FLOAT"}}}, {"name": "StatefulPartitionedCall/model_2/bs_base_conv2/Conv2D_bn_offset", "op": "Const", "attr": {"value": {"tensor": {"dtype": "DT_FLOAT", "tensorShape": {"dim": [{"size": "96"}]}}}, "dtype": {"type": "DT_FLOAT"}}}, {"name": "StatefulPartitionedCall/model_2/block0_l0_downscale_conv/BiasAdd", "op": "_FusedConv2D", "input": ["input", "StatefulPartitionedCall/model_2/block0_l0_downscale_conv/Conv2D/ReadVariableOp", "StatefulPartitionedCall/model_2/block0_l0_downscale_conv/BiasAdd/ReadVariableOp", "StatefulPartitionedCall/model_2/block0_l0_downscale_activ/Neg"], "device": "/device:CPU:0", "attr": {"data_format": {"s": "TkhXQw=="}, "explicit_paddings": {"list": {}}, "T": {"type": "DT_FLOAT"}, "use_cudnn_on_gpu": {"b": true}, "fused_ops": {"list": {"s": ["Qmlhc0FkZA==", "UHJlbHU="]}}, "num_args": {"i": "2"}, "dilations": {"list": {"i": ["1", "1", "1", "1"]}}, "epsilon": {"f": 0.0}, "strides": {"list": {"i": ["1", "2", "2", "1"]}}, "padding": {"s": "U0FNRQ=="}}}, {"name": "StatefulPartitionedCall/model_2/block0_l0_separable/separable_conv2d/depthwise", "op": "DepthwiseConv2dNative", "input": ["StatefulPartitionedCall/model_2/block0_l0_downscale_conv/BiasAdd", "StatefulPartitionedCall/model_2/block0_l0_separable/separable_conv2d/ReadVariableOp"], "attr": {"padding": {"s": "U0FNRQ=="}, "T": {"type": "DT_FLOAT"}, "dilations": {"list": {"i": ["1", "1", "1", "1"]}}, "strides": {"list": {"i": ["1", "1", "1", "1"]}}, "explicit_paddings": {"list": {}}, "data_format": {"s": "TkhXQw=="}}}, {"name": "StatefulPartitionedCall/model_2/block0_l0_bn/FusedBatchNormV3", "op": "_FusedConv2D", "input": ["StatefulPartitionedCall/model_2/block0_l0_separable/separable_conv2d/depthwise", "StatefulPartitionedCall/model_2/block0_l0_separable/separable_conv2d_weights", "StatefulPartitionedCall/model_2/block0_l0_separable/separable_conv2d_bn_offset", "StatefulPartitionedCall/model_2/block0_l0_activ/Neg"], "device": "/device:CPU:0", "attr": {"num_args": {"i": "2"}, "epsilon": {"f": 0.0}, "T": {"type": "DT_FLOAT"}, "fused_ops": {"list": {"s": ["Qmlhc0FkZA==", "UHJlbHU="]}}, "strides": {"list": {"i": ["1", "1", "1", "1"]}}, "data_format": {"s": "TkhXQw=="}, "use_cudnn_on_gpu": {"b": true}, "dilations": {"list": {"i": ["1", "1", "1", "1"]}}, "explicit_paddings": {"list": {}}, "padding": {"s": "VkFMSUQ="}}}, {"name": "StatefulPartitionedCall/model_2/block0_l0_add/add", "op": "AddV2", "input": ["StatefulPartitionedCall/model_2/block0_l0_bn/FusedBatchNormV3", "StatefulPartitionedCall/model_2/block0_l0_downscale_conv/BiasAdd"], "attr": {"T": {"type": "DT_FLOAT"}}}, {"name": "StatefulPartitionedCall/model_2/block1_l0_downscale_separable/separable_conv2d/depthwise", "op": "DepthwiseConv2dNative", "input": ["StatefulPartitionedCall/model_2/block0_l0_add/add", "StatefulPartitionedCall/model_2/block1_l0_downscale_separable/separable_conv2d/ReadVariableOp"], "attr": {"data_format": {"s": "TkhXQw=="}, "padding": {"s": "U0FNRQ=="}, "explicit_paddings": {"list": {}}, "T": {"type": "DT_FLOAT"}, "dilations": {"list": {"i": ["1", "1", "1", "1"]}}, "strides": {"list": {"i": ["1", "2", "2", "1"]}}}}, {"name": "StatefulPartitionedCall/model_2/block1_l1_downscale_separable/separable_conv2d/depthwise", "op": "DepthwiseConv2dNative", "input": ["StatefulPartitionedCall/model_2/block0_l0_add/add", "StatefulPartitionedCall/model_2/block1_l1_downscale_separable/separable_conv2d/ReadVariableOp"], "attr": {"T": {"type": "DT_FLOAT"}, "strides": {"list": {"i": ["1", "2", "2", "1"]}}, "dilations": {"list": {"i": ["1", "1", "1", "1"]}}, "explicit_paddings": {"list": {}}, "padding": {"s": "U0FNRQ=="}, "data_format": {"s": "TkhXQw=="}}}, {"name": "StatefulPartitionedCall/model_2/block1_l0_downscale_separable/BiasAdd", "op": "_FusedConv2D", "input": ["StatefulPartitionedCall/model_2/block1_l0_downscale_separable/separable_conv2d/depthwise", "StatefulPartitionedCall/model_2/block1_l0_downscale_separable/separable_conv2d/ReadVariableOp_1", "StatefulPartitionedCall/model_2/block1_l0_downscale_separable/BiasAdd/ReadVariableOp", "StatefulPartitionedCall/model_2/block1_l0_downscale_activ/Neg"], "device": "/device:CPU:0", "attr": {"T": {"type": "DT_FLOAT"}, "dilations": {"list": {"i": ["1", "1", "1", "1"]}}, "fused_ops": {"list": {"s": ["Qmlhc0FkZA==", "UHJlbHU="]}}, "strides": {"list": {"i": ["1", "1", "1", "1"]}}, "epsilon": {"f": 0.0}, "data_format": {"s": "TkhXQw=="}, "use_cudnn_on_gpu": {"b": true}, "padding": {"s": "VkFMSUQ="}, "num_args": {"i": "2"}, "explicit_paddings": {"list": {}}}}, {"name": "StatefulPartitionedCall/model_2/block1_l1_downscale_separable/BiasAdd", "op": "_FusedConv2D", "input": ["StatefulPartitionedCall/model_2/block1_l1_downscale_separable/separable_conv2d/depthwise", "StatefulPartitionedCall/model_2/block1_l1_downscale_separable/separable_conv2d/ReadVariableOp_1", "StatefulPartitionedCall/model_2/block1_l1_downscale_separable/BiasAdd/ReadVariableOp", "StatefulPartitionedCall/model_2/block1_l1_downscale_activ/Neg"], "device": "/device:CPU:0", "attr": {"fused_ops": {"list": {"s": ["Qmlhc0FkZA==", "UHJlbHU="]}}, "dilations": {"list": {"i": ["1", "1", "1", "1"]}}, "use_cudnn_on_gpu": {"b": true}, "explicit_paddings": {"list": {}}, "T": {"type": "DT_FLOAT"}, "num_args": {"i": "2"}, "data_format": {"s": "TkhXQw=="}, "padding": {"s": "VkFMSUQ="}, "epsilon": {"f": 0.0}, "strides": {"list": {"i": ["1", "1", "1", "1"]}}}}, {"name": "StatefulPartitionedCall/model_2/block1_l0_concat/concat", "op": "ConcatV2", "input": ["StatefulPartitionedCall/model_2/block1_l0_downscale_separable/BiasAdd", "StatefulPartitionedCall/model_2/block1_l1_downscale_separable/BiasAdd", "StatefulPartitionedCall/model_2/block1_l0_concat/concat/axis"], "attr": {"Tidx": {"type": "DT_INT32"}, "N": {"i": "2"}, "T": {"type": "DT_FLOAT"}}}, {"name": "StatefulPartitionedCall/model_2/block1_l0_separable/separable_conv2d/depthwise", "op": "DepthwiseConv2dNative", "input": ["StatefulPartitionedCall/model_2/block1_l0_concat/concat", "StatefulPartitionedCall/model_2/block1_l0_separable/separable_conv2d/ReadVariableOp"], "attr": {"T": {"type": "DT_FLOAT"}, "data_format": {"s": "TkhXQw=="}, "explicit_paddings": {"list": {}}, "strides": {"list": {"i": ["1", "1", "1", "1"]}}, "padding": {"s": "U0FNRQ=="}, "dilations": {"list": {"i": ["1", "1", "1", "1"]}}}}, {"name": "StatefulPartitionedCall/model_2/block1_l0_bn/FusedBatchNormV3", "op": "_FusedConv2D", "input": ["StatefulPartitionedCall/model_2/block1_l0_separable/separable_conv2d/depthwise", "StatefulPartitionedCall/model_2/block1_l0_separable/separable_conv2d_weights", "StatefulPartitionedCall/model_2/block1_l0_separable/separable_conv2d_bn_offset", "StatefulPartitionedCall/model_2/block1_l0_activ/Neg"], "device": "/device:CPU:0", "attr": {"dilations": {"list": {"i": ["1", "1", "1", "1"]}}, "num_args": {"i": "2"}, "strides": {"list": {"i": ["1", "1", "1", "1"]}}, "explicit_paddings": {"list": {}}, "T": {"type": "DT_FLOAT"}, "padding": {"s": "VkFMSUQ="}, "data_format": {"s": "TkhXQw=="}, "use_cudnn_on_gpu": {"b": true}, "epsilon": {"f": 0.0}, "fused_ops": {"list": {"s": ["Qmlhc0FkZA==", "UHJlbHU="]}}}}, {"name": "StatefulPartitionedCall/model_2/block1_l0_mul/mul", "op": "Mul", "input": ["StatefulPartitionedCall/model_2/block1_l0_bn/FusedBatchNormV3", "StatefulPartitionedCall/model_2/block1_l0_downscale_separable/BiasAdd"], "attr": {"T": {"type": "DT_FLOAT"}}}, {"name": "StatefulPartitionedCall/model_2/block1_l1_concat/concat", "op": "ConcatV2", "input": ["StatefulPartitionedCall/model_2/block1_l0_mul/mul", "StatefulPartitionedCall/model_2/block1_l1_downscale_separable/BiasAdd", "StatefulPartitionedCall/model_2/block1_l1_concat/concat/axis"], "attr": {"Tidx": {"type": "DT_INT32"}, "N": {"i": "2"}, "T": {"type": "DT_FLOAT"}}}, {"name": "StatefulPartitionedCall/model_2/block1_l1_separable/separable_conv2d/depthwise", "op": "DepthwiseConv2dNative", "input": ["StatefulPartitionedCall/model_2/block1_l1_concat/concat", "StatefulPartitionedCall/model_2/block1_l1_separable/separable_conv2d/ReadVariableOp"], "attr": {"dilations": {"list": {"i": ["1", "1", "1", "1"]}}, "padding": {"s": "U0FNRQ=="}, "explicit_paddings": {"list": {}}, "data_format": {"s": "TkhXQw=="}, "strides": {"list": {"i": ["1", "1", "1", "1"]}}, "T": {"type": "DT_FLOAT"}}}, {"name": "StatefulPartitionedCall/model_2/block1_l1_bn/FusedBatchNormV3", "op": "_FusedConv2D", "input": ["StatefulPartitionedCall/model_2/block1_l1_separable/separable_conv2d/depthwise", "StatefulPartitionedCall/model_2/block1_l1_separable/separable_conv2d_weights", "StatefulPartitionedCall/model_2/block1_l1_separable/separable_conv2d_bn_offset", "StatefulPartitionedCall/model_2/block1_l1_activ/Neg"], "device": "/device:CPU:0", "attr": {"use_cudnn_on_gpu": {"b": true}, "fused_ops": {"list": {"s": ["Qmlhc0FkZA==", "UHJlbHU="]}}, "explicit_paddings": {"list": {}}, "num_args": {"i": "2"}, "T": {"type": "DT_FLOAT"}, "data_format": {"s": "TkhXQw=="}, "dilations": {"list": {"i": ["1", "1", "1", "1"]}}, "strides": {"list": {"i": ["1", "1", "1", "1"]}}, "epsilon": {"f": 0.0}, "padding": {"s": "VkFMSUQ="}}}, {"name": "StatefulPartitionedCall/model_2/block1_l1_add/add", "op": "AddV2", "input": ["StatefulPartitionedCall/model_2/block1_l1_bn/FusedBatchNormV3", "StatefulPartitionedCall/model_2/block1_l1_downscale_separable/BiasAdd"], "attr": {"T": {"type": "DT_FLOAT"}}}, {"name": "StatefulPartitionedCall/model_2/block1_concat/concat", "op": "ConcatV2", "input": ["StatefulPartitionedCall/model_2/block1_l0_mul/mul", "StatefulPartitionedCall/model_2/block1_l1_add/add", "StatefulPartitionedCall/model_2/block1_concat/concat/axis"], "attr": {"Tidx": {"type": "DT_INT32"}, "T": {"type": "DT_FLOAT"}, "N": {"i": "2"}}}, {"name": "StatefulPartitionedCall/model_2/block2_l0_downscale_separable/separable_conv2d/depthwise", "op": "DepthwiseConv2dNative", "input": ["StatefulPartitionedCall/model_2/block1_concat/concat", "StatefulPartitionedCall/model_2/block2_l0_downscale_separable/separable_conv2d/ReadVariableOp"], "attr": {"T": {"type": "DT_FLOAT"}, "padding": {"s": "U0FNRQ=="}, "explicit_paddings": {"list": {}}, "dilations": {"list": {"i": ["1", "1", "1", "1"]}}, "strides": {"list": {"i": ["1", "2", "2", "1"]}}, "data_format": {"s": "TkhXQw=="}}}, {"name": "StatefulPartitionedCall/model_2/block2_l1_downscale_separable/separable_conv2d/depthwise", "op": "DepthwiseConv2dNative", "input": ["StatefulPartitionedCall/model_2/block1_concat/concat", "StatefulPartitionedCall/model_2/block2_l1_downscale_separable/separable_conv2d/ReadVariableOp"], "attr": {"explicit_paddings": {"list": {}}, "strides": {"list": {"i": ["1", "2", "2", "1"]}}, "padding": {"s": "U0FNRQ=="}, "T": {"type": "DT_FLOAT"}, "data_format": {"s": "TkhXQw=="}, "dilations": {"list": {"i": ["1", "1", "1", "1"]}}}}, {"name": "StatefulPartitionedCall/model_2/block2_l0_downscale_separable/BiasAdd", "op": "_FusedConv2D", "input": ["StatefulPartitionedCall/model_2/block2_l0_downscale_separable/separable_conv2d/depthwise", "StatefulPartitionedCall/model_2/block2_l0_downscale_separable/separable_conv2d/ReadVariableOp_1", "StatefulPartitionedCall/model_2/block2_l0_downscale_separable/BiasAdd/ReadVariableOp", "StatefulPartitionedCall/model_2/block2_l0_downscale_activ/Neg"], "device": "/device:CPU:0", "attr": {"num_args": {"i": "2"}, "explicit_paddings": {"list": {}}, "strides": {"list": {"i": ["1", "1", "1", "1"]}}, "T": {"type": "DT_FLOAT"}, "epsilon": {"f": 0.0}, "data_format": {"s": "TkhXQw=="}, "padding": {"s": "VkFMSUQ="}, "dilations": {"list": {"i": ["1", "1", "1", "1"]}}, "fused_ops": {"list": {"s": ["Qmlhc0FkZA==", "UHJlbHU="]}}, "use_cudnn_on_gpu": {"b": true}}}, {"name": "StatefulPartitionedCall/model_2/block2_l1_downscale_separable/BiasAdd", "op": "_FusedConv2D", "input": ["StatefulPartitionedCall/model_2/block2_l1_downscale_separable/separable_conv2d/depthwise", "StatefulPartitionedCall/model_2/block2_l1_downscale_separable/separable_conv2d/ReadVariableOp_1", "StatefulPartitionedCall/model_2/block2_l1_downscale_separable/BiasAdd/ReadVariableOp", "StatefulPartitionedCall/model_2/block2_l1_downscale_activ/Neg"], "device": "/device:CPU:0", "attr": {"epsilon": {"f": 0.0}, "fused_ops": {"list": {"s": ["Qmlhc0FkZA==", "UHJlbHU="]}}, "dilations": {"list": {"i": ["1", "1", "1", "1"]}}, "data_format": {"s": "TkhXQw=="}, "strides": {"list": {"i": ["1", "1", "1", "1"]}}, "explicit_paddings": {"list": {}}, "padding": {"s": "VkFMSUQ="}, "use_cudnn_on_gpu": {"b": true}, "num_args": {"i": "2"}, "T": {"type": "DT_FLOAT"}}}, {"name": "StatefulPartitionedCall/model_2/block2_l0_concat/concat", "op": "ConcatV2", "input": ["StatefulPartitionedCall/model_2/block2_l0_downscale_separable/BiasAdd", "StatefulPartitionedCall/model_2/block2_l1_downscale_separable/BiasAdd", "StatefulPartitionedCall/model_2/block2_l0_concat/concat/axis"], "attr": {"N": {"i": "2"}, "T": {"type": "DT_FLOAT"}, "Tidx": {"type": "DT_INT32"}}}, {"name": "StatefulPartitionedCall/model_2/block2_l0_separable/separable_conv2d/depthwise", "op": "DepthwiseConv2dNative", "input": ["StatefulPartitionedCall/model_2/block2_l0_concat/concat", "StatefulPartitionedCall/model_2/block2_l0_separable/separable_conv2d/ReadVariableOp"], "attr": {"strides": {"list": {"i": ["1", "1", "1", "1"]}}, "data_format": {"s": "TkhXQw=="}, "T": {"type": "DT_FLOAT"}, "dilations": {"list": {"i": ["1", "1", "1", "1"]}}, "explicit_paddings": {"list": {}}, "padding": {"s": "U0FNRQ=="}}}, {"name": "StatefulPartitionedCall/model_2/block2_l0_bn/FusedBatchNormV3", "op": "_FusedConv2D", "input": ["StatefulPartitionedCall/model_2/block2_l0_separable/separable_conv2d/depthwise", "StatefulPartitionedCall/model_2/block2_l0_separable/separable_conv2d_weights", "StatefulPartitionedCall/model_2/block2_l0_separable/separable_conv2d_bn_offset", "StatefulPartitionedCall/model_2/block2_l0_activ/Neg"], "device": "/device:CPU:0", "attr": {"dilations": {"list": {"i": ["1", "1", "1", "1"]}}, "fused_ops": {"list": {"s": ["Qmlhc0FkZA==", "UHJlbHU="]}}, "explicit_paddings": {"list": {}}, "padding": {"s": "VkFMSUQ="}, "data_format": {"s": "TkhXQw=="}, "use_cudnn_on_gpu": {"b": true}, "num_args": {"i": "2"}, "strides": {"list": {"i": ["1", "1", "1", "1"]}}, "epsilon": {"f": 0.0}, "T": {"type": "DT_FLOAT"}}}, {"name": "StatefulPartitionedCall/model_2/block2_l0_mul/mul", "op": "Mul", "input": ["StatefulPartitionedCall/model_2/block2_l0_bn/FusedBatchNormV3", "StatefulPartitionedCall/model_2/block2_l0_downscale_separable/BiasAdd"], "attr": {"T": {"type": "DT_FLOAT"}}}, {"name": "StatefulPartitionedCall/model_2/block2_l1_concat/concat", "op": "ConcatV2", "input": ["StatefulPartitionedCall/model_2/block2_l0_mul/mul", "StatefulPartitionedCall/model_2/block2_l1_downscale_separable/BiasAdd", "StatefulPartitionedCall/model_2/block2_l1_concat/concat/axis"], "attr": {"Tidx": {"type": "DT_INT32"}, "T": {"type": "DT_FLOAT"}, "N": {"i": "2"}}}, {"name": "StatefulPartitionedCall/model_2/block2_l1_separable/separable_conv2d/depthwise", "op": "DepthwiseConv2dNative", "input": ["StatefulPartitionedCall/model_2/block2_l1_concat/concat", "StatefulPartitionedCall/model_2/block2_l1_separable/separable_conv2d/ReadVariableOp"], "attr": {"strides": {"list": {"i": ["1", "1", "1", "1"]}}, "T": {"type": "DT_FLOAT"}, "padding": {"s": "U0FNRQ=="}, "explicit_paddings": {"list": {}}, "data_format": {"s": "TkhXQw=="}, "dilations": {"list": {"i": ["1", "1", "1", "1"]}}}}, {"name": "StatefulPartitionedCall/model_2/block2_l1_bn/FusedBatchNormV3", "op": "_FusedConv2D", "input": ["StatefulPartitionedCall/model_2/block2_l1_separable/separable_conv2d/depthwise", "StatefulPartitionedCall/model_2/block2_l1_separable/separable_conv2d_weights", "StatefulPartitionedCall/model_2/block2_l1_separable/separable_conv2d_bn_offset", "StatefulPartitionedCall/model_2/block2_l1_activ/Neg"], "device": "/device:CPU:0", "attr": {"padding": {"s": "VkFMSUQ="}, "num_args": {"i": "2"}, "strides": {"list": {"i": ["1", "1", "1", "1"]}}, "epsilon": {"f": 0.0}, "T": {"type": "DT_FLOAT"}, "data_format": {"s": "TkhXQw=="}, "explicit_paddings": {"list": {}}, "use_cudnn_on_gpu": {"b": true}, "fused_ops": {"list": {"s": ["Qmlhc0FkZA==", "UHJlbHU="]}}, "dilations": {"list": {"i": ["1", "1", "1", "1"]}}}}, {"name": "StatefulPartitionedCall/model_2/block2_l1_add/add", "op": "AddV2", "input": ["StatefulPartitionedCall/model_2/block2_l1_bn/FusedBatchNormV3", "StatefulPartitionedCall/model_2/block2_l1_downscale_separable/BiasAdd"], "attr": {"T": {"type": "DT_FLOAT"}}}, {"name": "StatefulPartitionedCall/model_2/block2_concat/concat", "op": "ConcatV2", "input": ["StatefulPartitionedCall/model_2/block2_l0_mul/mul", "StatefulPartitionedCall/model_2/block2_l1_add/add", "StatefulPartitionedCall/model_2/block2_concat/concat/axis"], "attr": {"Tidx": {"type": "DT_INT32"}, "T": {"type": "DT_FLOAT"}, "N": {"i": "2"}}}, {"name": "StatefulPartitionedCall/model_2/block3_l0_downscale_separable/separable_conv2d/depthwise", "op": "DepthwiseConv2dNative", "input": ["StatefulPartitionedCall/model_2/block2_concat/concat", "StatefulPartitionedCall/model_2/block3_l0_downscale_separable/separable_conv2d/ReadVariableOp"], "attr": {"data_format": {"s": "TkhXQw=="}, "explicit_paddings": {"list": {}}, "strides": {"list": {"i": ["1", "2", "2", "1"]}}, "padding": {"s": "U0FNRQ=="}, "dilations": {"list": {"i": ["1", "1", "1", "1"]}}, "T": {"type": "DT_FLOAT"}}}, {"name": "StatefulPartitionedCall/model_2/block3_l1_downscale_separable/separable_conv2d/depthwise", "op": "DepthwiseConv2dNative", "input": ["StatefulPartitionedCall/model_2/block2_concat/concat", "StatefulPartitionedCall/model_2/block3_l1_downscale_separable/separable_conv2d/ReadVariableOp"], "attr": {"data_format": {"s": "TkhXQw=="}, "explicit_paddings": {"list": {}}, "strides": {"list": {"i": ["1", "2", "2", "1"]}}, "dilations": {"list": {"i": ["1", "1", "1", "1"]}}, "T": {"type": "DT_FLOAT"}, "padding": {"s": "U0FNRQ=="}}}, {"name": "StatefulPartitionedCall/model_2/block3_l0_downscale_separable/BiasAdd", "op": "_FusedConv2D", "input": ["StatefulPartitionedCall/model_2/block3_l0_downscale_separable/separable_conv2d/depthwise", "StatefulPartitionedCall/model_2/block3_l0_downscale_separable/separable_conv2d/ReadVariableOp_1", "StatefulPartitionedCall/model_2/block3_l0_downscale_separable/BiasAdd/ReadVariableOp", "StatefulPartitionedCall/model_2/block3_l0_downscale_activ/Neg"], "device": "/device:CPU:0", "attr": {"explicit_paddings": {"list": {}}, "num_args": {"i": "2"}, "use_cudnn_on_gpu": {"b": true}, "T": {"type": "DT_FLOAT"}, "padding": {"s": "VkFMSUQ="}, "strides": {"list": {"i": ["1", "1", "1", "1"]}}, "data_format": {"s": "TkhXQw=="}, "dilations": {"list": {"i": ["1", "1", "1", "1"]}}, "fused_ops": {"list": {"s": ["Qmlhc0FkZA==", "UHJlbHU="]}}, "epsilon": {"f": 0.0}}}, {"name": "StatefulPartitionedCall/model_2/block3_l1_downscale_separable/BiasAdd", "op": "_FusedConv2D", "input": ["StatefulPartitionedCall/model_2/block3_l1_downscale_separable/separable_conv2d/depthwise", "StatefulPartitionedCall/model_2/block3_l1_downscale_separable/separable_conv2d/ReadVariableOp_1", "StatefulPartitionedCall/model_2/block3_l1_downscale_separable/BiasAdd/ReadVariableOp", "StatefulPartitionedCall/model_2/block3_l1_downscale_activ/Neg"], "device": "/device:CPU:0", "attr": {"explicit_paddings": {"list": {}}, "epsilon": {"f": 0.0}, "strides": {"list": {"i": ["1", "1", "1", "1"]}}, "data_format": {"s": "TkhXQw=="}, "num_args": {"i": "2"}, "padding": {"s": "VkFMSUQ="}, "dilations": {"list": {"i": ["1", "1", "1", "1"]}}, "T": {"type": "DT_FLOAT"}, "fused_ops": {"list": {"s": ["Qmlhc0FkZA==", "UHJlbHU="]}}, "use_cudnn_on_gpu": {"b": true}}}, {"name": "StatefulPartitionedCall/model_2/block3_l0_concat/concat", "op": "ConcatV2", "input": ["StatefulPartitionedCall/model_2/block3_l0_downscale_separable/BiasAdd", "StatefulPartitionedCall/model_2/block3_l1_downscale_separable/BiasAdd", "StatefulPartitionedCall/model_2/block3_l0_concat/concat/axis"], "attr": {"Tidx": {"type": "DT_INT32"}, "N": {"i": "2"}, "T": {"type": "DT_FLOAT"}}}, {"name": "StatefulPartitionedCall/model_2/block3_l0_separable/separable_conv2d/depthwise", "op": "DepthwiseConv2dNative", "input": ["StatefulPartitionedCall/model_2/block3_l0_concat/concat", "StatefulPartitionedCall/model_2/block3_l0_separable/separable_conv2d/ReadVariableOp"], "attr": {"T": {"type": "DT_FLOAT"}, "dilations": {"list": {"i": ["1", "1", "1", "1"]}}, "explicit_paddings": {"list": {}}, "padding": {"s": "U0FNRQ=="}, "strides": {"list": {"i": ["1", "1", "1", "1"]}}, "data_format": {"s": "TkhXQw=="}}}, {"name": "StatefulPartitionedCall/model_2/block3_l0_bn/FusedBatchNormV3", "op": "_FusedConv2D", "input": ["StatefulPartitionedCall/model_2/block3_l0_separable/separable_conv2d/depthwise", "StatefulPartitionedCall/model_2/block3_l0_separable/separable_conv2d_weights", "StatefulPartitionedCall/model_2/block3_l0_separable/separable_conv2d_bn_offset", "StatefulPartitionedCall/model_2/block3_l0_activ/Neg"], "device": "/device:CPU:0", "attr": {"strides": {"list": {"i": ["1", "1", "1", "1"]}}, "use_cudnn_on_gpu": {"b": true}, "num_args": {"i": "2"}, "data_format": {"s": "TkhXQw=="}, "fused_ops": {"list": {"s": ["Qmlhc0FkZA==", "UHJlbHU="]}}, "dilations": {"list": {"i": ["1", "1", "1", "1"]}}, "epsilon": {"f": 0.0}, "T": {"type": "DT_FLOAT"}, "padding": {"s": "VkFMSUQ="}, "explicit_paddings": {"list": {}}}}, {"name": "StatefulPartitionedCall/model_2/block3_l0_mul/mul", "op": "Mul", "input": ["StatefulPartitionedCall/model_2/block3_l0_bn/FusedBatchNormV3", "StatefulPartitionedCall/model_2/block3_l0_downscale_separable/BiasAdd"], "attr": {"T": {"type": "DT_FLOAT"}}}, {"name": "StatefulPartitionedCall/model_2/block3_l1_concat/concat", "op": "ConcatV2", "input": ["StatefulPartitionedCall/model_2/block3_l0_mul/mul", "StatefulPartitionedCall/model_2/block3_l1_downscale_separable/BiasAdd", "StatefulPartitionedCall/model_2/block3_l1_concat/concat/axis"], "attr": {"T": {"type": "DT_FLOAT"}, "N": {"i": "2"}, "Tidx": {"type": "DT_INT32"}}}, {"name": "StatefulPartitionedCall/model_2/block3_l1_separable/separable_conv2d/depthwise", "op": "DepthwiseConv2dNative", "input": ["StatefulPartitionedCall/model_2/block3_l1_concat/concat", "StatefulPartitionedCall/model_2/block3_l1_separable/separable_conv2d/ReadVariableOp"], "attr": {"T": {"type": "DT_FLOAT"}, "dilations": {"list": {"i": ["1", "1", "1", "1"]}}, "padding": {"s": "U0FNRQ=="}, "data_format": {"s": "TkhXQw=="}, "strides": {"list": {"i": ["1", "1", "1", "1"]}}, "explicit_paddings": {"list": {}}}}, {"name": "StatefulPartitionedCall/model_2/block3_l1_bn/FusedBatchNormV3", "op": "_FusedConv2D", "input": ["StatefulPartitionedCall/model_2/block3_l1_separable/separable_conv2d/depthwise", "StatefulPartitionedCall/model_2/block3_l1_separable/separable_conv2d_weights", "StatefulPartitionedCall/model_2/block3_l1_separable/separable_conv2d_bn_offset", "StatefulPartitionedCall/model_2/block3_l1_activ/Neg"], "device": "/device:CPU:0", "attr": {"explicit_paddings": {"list": {}}, "epsilon": {"f": 0.0}, "num_args": {"i": "2"}, "fused_ops": {"list": {"s": ["Qmlhc0FkZA==", "UHJlbHU="]}}, "use_cudnn_on_gpu": {"b": true}, "padding": {"s": "VkFMSUQ="}, "data_format": {"s": "TkhXQw=="}, "strides": {"list": {"i": ["1", "1", "1", "1"]}}, "dilations": {"list": {"i": ["1", "1", "1", "1"]}}, "T": {"type": "DT_FLOAT"}}}, {"name": "StatefulPartitionedCall/model_2/block3_l1_add/add", "op": "AddV2", "input": ["StatefulPartitionedCall/model_2/block3_l1_bn/FusedBatchNormV3", "StatefulPartitionedCall/model_2/block3_l1_downscale_separable/BiasAdd"], "attr": {"T": {"type": "DT_FLOAT"}}}, {"name": "StatefulPartitionedCall/model_2/block3_concat/concat", "op": "ConcatV2", "input": ["StatefulPartitionedCall/model_2/block3_l0_mul/mul", "StatefulPartitionedCall/model_2/block3_l1_add/add", "StatefulPartitionedCall/model_2/block3_concat/concat/axis"], "attr": {"Tidx": {"type": "DT_INT32"}, "T": {"type": "DT_FLOAT"}, "N": {"i": "2"}}}, {"name": "StatefulPartitionedCall/model_2/block4_downscale_separable/separable_conv2d/depthwise", "op": "DepthwiseConv2dNative", "input": ["StatefulPartitionedCall/model_2/block3_concat/concat", "StatefulPartitionedCall/model_2/block4_downscale_separable/separable_conv2d/ReadVariableOp"], "attr": {"data_format": {"s": "TkhXQw=="}, "strides": {"list": {"i": ["1", "2", "2", "1"]}}, "T": {"type": "DT_FLOAT"}, "dilations": {"list": {"i": ["1", "1", "1", "1"]}}, "padding": {"s": "U0FNRQ=="}, "explicit_paddings": {"list": {}}}}, {"name": "StatefulPartitionedCall/model_2/block4_downscale_separable/BiasAdd", "op": "_FusedConv2D", "input": ["StatefulPartitionedCall/model_2/block4_downscale_separable/separable_conv2d/depthwise", "StatefulPartitionedCall/model_2/block4_downscale_separable/separable_conv2d/ReadVariableOp_1", "StatefulPartitionedCall/model_2/block4_downscale_separable/BiasAdd/ReadVariableOp", "StatefulPartitionedCall/model_2/block4_downscale_activ/Neg"], "device": "/device:CPU:0", "attr": {"explicit_paddings": {"list": {}}, "num_args": {"i": "2"}, "T": {"type": "DT_FLOAT"}, "strides": {"list": {"i": ["1", "1", "1", "1"]}}, "dilations": {"list": {"i": ["1", "1", "1", "1"]}}, "fused_ops": {"list": {"s": ["Qmlhc0FkZA==", "UHJlbHU="]}}, "padding": {"s": "VkFMSUQ="}, "data_format": {"s": "TkhXQw=="}, "epsilon": {"f": 0.0}, "use_cudnn_on_gpu": {"b": true}}}, {"name": "StatefulPartitionedCall/model_2/block4_c0_separable/separable_conv2d/depthwise", "op": "DepthwiseConv2dNative", "input": ["StatefulPartitionedCall/model_2/block4_downscale_separable/BiasAdd", "StatefulPartitionedCall/model_2/block4_c0_separable/separable_conv2d/ReadVariableOp"], "attr": {"strides": {"list": {"i": ["1", "1", "1", "1"]}}, "padding": {"s": "U0FNRQ=="}, "T": {"type": "DT_FLOAT"}, "dilations": {"list": {"i": ["1", "1", "1", "1"]}}, "data_format": {"s": "TkhXQw=="}, "explicit_paddings": {"list": {}}}}, {"name": "StatefulPartitionedCall/model_2/block4_c0_bn/FusedBatchNormV3", "op": "_FusedConv2D", "input": ["StatefulPartitionedCall/model_2/block4_c0_separable/separable_conv2d/depthwise", "StatefulPartitionedCall/model_2/block4_c0_separable/separable_conv2d_weights", "StatefulPartitionedCall/model_2/block4_c0_separable/separable_conv2d_bn_offset", "StatefulPartitionedCall/model_2/block4_c0_activ/Neg"], "device": "/device:CPU:0", "attr": {"strides": {"list": {"i": ["1", "1", "1", "1"]}}, "data_format": {"s": "TkhXQw=="}, "padding": {"s": "VkFMSUQ="}, "use_cudnn_on_gpu": {"b": true}, "epsilon": {"f": 0.0}, "explicit_paddings": {"list": {}}, "fused_ops": {"list": {"s": ["Qmlhc0FkZA==", "UHJlbHU="]}}, "dilations": {"list": {"i": ["1", "1", "1", "1"]}}, "T": {"type": "DT_FLOAT"}, "num_args": {"i": "2"}}}, {"name": "StatefulPartitionedCall/model_2/block4_c0_mul/mul", "op": "Mul", "input": ["StatefulPartitionedCall/model_2/block4_c0_bn/FusedBatchNormV3", "StatefulPartitionedCall/model_2/block4_downscale_separable/BiasAdd"], "attr": {"T": {"type": "DT_FLOAT"}}}, {"name": "StatefulPartitionedCall/model_2/block4_c0_concat/concat", "op": "ConcatV2", "input": ["StatefulPartitionedCall/model_2/block4_downscale_separable/BiasAdd", "StatefulPartitionedCall/model_2/block4_c0_mul/mul", "StatefulPartitionedCall/model_2/block4_c0_concat/concat/axis"], "attr": {"T": {"type": "DT_FLOAT"}, "Tidx": {"type": "DT_INT32"}, "N": {"i": "2"}}}, {"name": "StatefulPartitionedCall/model_2/block4_c1_separable/separable_conv2d/depthwise", "op": "DepthwiseConv2dNative", "input": ["StatefulPartitionedCall/model_2/block4_c0_concat/concat", "StatefulPartitionedCall/model_2/block4_c1_separable/separable_conv2d/ReadVariableOp"], "attr": {"T": {"type": "DT_FLOAT"}, "padding": {"s": "U0FNRQ=="}, "dilations": {"list": {"i": ["1", "1", "1", "1"]}}, "explicit_paddings": {"list": {}}, "strides": {"list": {"i": ["1", "1", "1", "1"]}}, "data_format": {"s": "TkhXQw=="}}}, {"name": "StatefulPartitionedCall/model_2/block4_c1_bn/FusedBatchNormV3", "op": "_FusedConv2D", "input": ["StatefulPartitionedCall/model_2/block4_c1_separable/separable_conv2d/depthwise", "StatefulPartitionedCall/model_2/block4_c1_separable/separable_conv2d_weights", "StatefulPartitionedCall/model_2/block4_c1_separable/separable_conv2d_bn_offset", "StatefulPartitionedCall/model_2/block4_c1_activ/Neg"], "device": "/device:CPU:0", "attr": {"data_format": {"s": "TkhXQw=="}, "explicit_paddings": {"list": {}}, "T": {"type": "DT_FLOAT"}, "strides": {"list": {"i": ["1", "1", "1", "1"]}}, "epsilon": {"f": 0.0}, "use_cudnn_on_gpu": {"b": true}, "dilations": {"list": {"i": ["1", "1", "1", "1"]}}, "padding": {"s": "VkFMSUQ="}, "num_args": {"i": "2"}, "fused_ops": {"list": {"s": ["Qmlhc0FkZA==", "UHJlbHU="]}}}}, {"name": "StatefulPartitionedCall/model_2/block4_c1_add/add", "op": "AddV2", "input": ["StatefulPartitionedCall/model_2/block4_c1_bn/FusedBatchNormV3", "StatefulPartitionedCall/model_2/block4_c0_mul/mul"], "attr": {"T": {"type": "DT_FLOAT"}}}, {"name": "StatefulPartitionedCall/model_2/block4_c1_concat/concat", "op": "ConcatV2", "input": ["StatefulPartitionedCall/model_2/block4_c0_concat/concat", "StatefulPartitionedCall/model_2/block4_c1_add/add", "StatefulPartitionedCall/model_2/block4_c1_concat/concat/axis"], "attr": {"T": {"type": "DT_FLOAT"}, "Tidx": {"type": "DT_INT32"}, "N": {"i": "2"}}}, {"name": "StatefulPartitionedCall/model_2/block4_c2_separable/separable_conv2d/depthwise", "op": "DepthwiseConv2dNative", "input": ["StatefulPartitionedCall/model_2/block4_c1_concat/concat", "StatefulPartitionedCall/model_2/block4_c2_separable/separable_conv2d/ReadVariableOp"], "attr": {"data_format": {"s": "TkhXQw=="}, "dilations": {"list": {"i": ["1", "1", "1", "1"]}}, "padding": {"s": "U0FNRQ=="}, "T": {"type": "DT_FLOAT"}, "strides": {"list": {"i": ["1", "1", "1", "1"]}}, "explicit_paddings": {"list": {}}}}, {"name": "StatefulPartitionedCall/model_2/block4_c2_bn/FusedBatchNormV3", "op": "_FusedConv2D", "input": ["StatefulPartitionedCall/model_2/block4_c2_separable/separable_conv2d/depthwise", "StatefulPartitionedCall/model_2/block4_c2_separable/separable_conv2d_weights", "StatefulPartitionedCall/model_2/block4_c2_separable/separable_conv2d_bn_offset", "StatefulPartitionedCall/model_2/block4_c2_activ/Neg"], "device": "/device:CPU:0", "attr": {"dilations": {"list": {"i": ["1", "1", "1", "1"]}}, "fused_ops": {"list": {"s": ["Qmlhc0FkZA==", "UHJlbHU="]}}, "data_format": {"s": "TkhXQw=="}, "strides": {"list": {"i": ["1", "1", "1", "1"]}}, "use_cudnn_on_gpu": {"b": true}, "epsilon": {"f": 0.0}, "explicit_paddings": {"list": {}}, "T": {"type": "DT_FLOAT"}, "padding": {"s": "VkFMSUQ="}, "num_args": {"i": "2"}}}, {"name": "StatefulPartitionedCall/model_2/block4_c2_add/add", "op": "AddV2", "input": ["StatefulPartitionedCall/model_2/block4_c2_bn/FusedBatchNormV3", "StatefulPartitionedCall/model_2/block4_c1_add/add"], "attr": {"T": {"type": "DT_FLOAT"}}}, {"name": "StatefulPartitionedCall/model_2/block4_c2_concat/concat", "op": "ConcatV2", "input": ["StatefulPartitionedCall/model_2/block4_c1_concat/concat", "StatefulPartitionedCall/model_2/block4_c2_add/add", "StatefulPartitionedCall/model_2/block4_c2_concat/concat/axis"], "attr": {"Tidx": {"type": "DT_INT32"}, "N": {"i": "2"}, "T": {"type": "DT_FLOAT"}}}, {"name": "StatefulPartitionedCall/model_2/block4_c3_separable/separable_conv2d/depthwise", "op": "DepthwiseConv2dNative", "input": ["StatefulPartitionedCall/model_2/block4_c2_concat/concat", "StatefulPartitionedCall/model_2/block4_c3_separable/separable_conv2d/ReadVariableOp"], "attr": {"padding": {"s": "U0FNRQ=="}, "explicit_paddings": {"list": {}}, "dilations": {"list": {"i": ["1", "1", "1", "1"]}}, "data_format": {"s": "TkhXQw=="}, "T": {"type": "DT_FLOAT"}, "strides": {"list": {"i": ["1", "1", "1", "1"]}}}}, {"name": "StatefulPartitionedCall/model_2/block4_c3_bn/FusedBatchNormV3", "op": "_FusedConv2D", "input": ["StatefulPartitionedCall/model_2/block4_c3_separable/separable_conv2d/depthwise", "StatefulPartitionedCall/model_2/block4_c3_separable/separable_conv2d_weights", "StatefulPartitionedCall/model_2/block4_c3_separable/separable_conv2d_bn_offset", "StatefulPartitionedCall/model_2/block4_c3_activ/Neg"], "device": "/device:CPU:0", "attr": {"use_cudnn_on_gpu": {"b": true}, "epsilon": {"f": 0.0}, "strides": {"list": {"i": ["1", "1", "1", "1"]}}, "padding": {"s": "VkFMSUQ="}, "num_args": {"i": "2"}, "explicit_paddings": {"list": {}}, "T": {"type": "DT_FLOAT"}, "data_format": {"s": "TkhXQw=="}, "dilations": {"list": {"i": ["1", "1", "1", "1"]}}, "fused_ops": {"list": {"s": ["Qmlhc0FkZA==", "UHJlbHU="]}}}}, {"name": "StatefulPartitionedCall/model_2/block4_c3_add/add", "op": "AddV2", "input": ["StatefulPartitionedCall/model_2/block4_c3_bn/FusedBatchNormV3", "StatefulPartitionedCall/model_2/block4_c2_add/add"], "attr": {"T": {"type": "DT_FLOAT"}}}, {"name": "StatefulPartitionedCall/model_2/block4_c3_concat/concat", "op": "ConcatV2", "input": ["StatefulPartitionedCall/model_2/block4_c2_concat/concat", "StatefulPartitionedCall/model_2/block4_c3_add/add", "StatefulPartitionedCall/model_2/block4_c3_concat/concat/axis"], "attr": {"N": {"i": "2"}, "Tidx": {"type": "DT_INT32"}, "T": {"type": "DT_FLOAT"}}}, {"name": "StatefulPartitionedCall/model_2/block4_c4_separable/separable_conv2d/depthwise", "op": "DepthwiseConv2dNative", "input": ["StatefulPartitionedCall/model_2/block4_c3_concat/concat", "StatefulPartitionedCall/model_2/block4_c4_separable/separable_conv2d/ReadVariableOp"], "attr": {"T": {"type": "DT_FLOAT"}, "padding": {"s": "U0FNRQ=="}, "data_format": {"s": "TkhXQw=="}, "strides": {"list": {"i": ["1", "1", "1", "1"]}}, "dilations": {"list": {"i": ["1", "1", "1", "1"]}}, "explicit_paddings": {"list": {}}}}, {"name": "StatefulPartitionedCall/model_2/block4_c4_bn/FusedBatchNormV3", "op": "_FusedConv2D", "input": ["StatefulPartitionedCall/model_2/block4_c4_separable/separable_conv2d/depthwise", "StatefulPartitionedCall/model_2/block4_c4_separable/separable_conv2d_weights", "StatefulPartitionedCall/model_2/block4_c4_separable/separable_conv2d_bn_offset", "StatefulPartitionedCall/model_2/block4_c4_activ/Neg"], "device": "/device:CPU:0", "attr": {"padding": {"s": "VkFMSUQ="}, "num_args": {"i": "2"}, "strides": {"list": {"i": ["1", "1", "1", "1"]}}, "T": {"type": "DT_FLOAT"}, "fused_ops": {"list": {"s": ["Qmlhc0FkZA==", "UHJlbHU="]}}, "dilations": {"list": {"i": ["1", "1", "1", "1"]}}, "use_cudnn_on_gpu": {"b": true}, "explicit_paddings": {"list": {}}, "data_format": {"s": "TkhXQw=="}, "epsilon": {"f": 0.0}}}, {"name": "StatefulPartitionedCall/model_2/block4_c4_add/add", "op": "AddV2", "input": ["StatefulPartitionedCall/model_2/block4_c4_bn/FusedBatchNormV3", "StatefulPartitionedCall/model_2/block4_c3_add/add"], "attr": {"T": {"type": "DT_FLOAT"}}}, {"name": "StatefulPartitionedCall/model_2/bs_base_conv8/BiasAdd", "op": "_FusedConv2D", "input": ["StatefulPartitionedCall/model_2/block4_c4_add/add", "StatefulPartitionedCall/model_2/bs_base_conv8/Conv2D/ReadVariableOp", "StatefulPartitionedCall/model_2/bs_base_conv8/BiasAdd/ReadVariableOp", "StatefulPartitionedCall/model_2/bs_base_conv8_activ/Neg"], "device": "/device:CPU:0", "attr": {"padding": {"s": "U0FNRQ=="}, "explicit_paddings": {"list": {}}, "num_args": {"i": "2"}, "dilations": {"list": {"i": ["1", "1", "1", "1"]}}, "use_cudnn_on_gpu": {"b": true}, "epsilon": {"f": 0.0}, "data_format": {"s": "TkhXQw=="}, "T": {"type": "DT_FLOAT"}, "strides": {"list": {"i": ["1", "2", "2", "1"]}}, "fused_ops": {"list": {"s": ["Qmlhc0FkZA==", "UHJlbHU="]}}}}, {"name": "StatefulPartitionedCall/model_2/is_face_base_conv8/separable_conv2d/depthwise", "op": "DepthwiseConv2dNative", "input": ["StatefulPartitionedCall/model_2/block4_c4_add/add", "StatefulPartitionedCall/model_2/is_face_base_conv8/separable_conv2d/ReadVariableOp"], "attr": {"strides": {"list": {"i": ["1", "2", "2", "1"]}}, "explicit_paddings": {"list": {}}, "dilations": {"list": {"i": ["1", "1", "1", "1"]}}, "data_format": {"s": "TkhXQw=="}, "T": {"type": "DT_FLOAT"}, "padding": {"s": "U0FNRQ=="}}}, {"name": "StatefulPartitionedCall/model_2/transforms_base_conv8/separable_conv2d/depthwise", "op": "DepthwiseConv2dNative", "input": ["StatefulPartitionedCall/model_2/block4_c4_add/add", "StatefulPartitionedCall/model_2/transforms_base_conv8/separable_conv2d/ReadVariableOp"], "attr": {"dilations": {"list": {"i": ["1", "1", "1", "1"]}}, "strides": {"list": {"i": ["1", "2", "2", "1"]}}, "T": {"type": "DT_FLOAT"}, "data_format": {"s": "TkhXQw=="}, "padding": {"s": "U0FNRQ=="}, "explicit_paddings": {"list": {}}}}, {"name": "StatefulPartitionedCall/model_2/is_face_base_conv8/BiasAdd", "op": "_FusedConv2D", "input": ["StatefulPartitionedCall/model_2/is_face_base_conv8/separable_conv2d/depthwise", "StatefulPartitionedCall/model_2/is_face_base_conv8/separable_conv2d/ReadVariableOp_1", "StatefulPartitionedCall/model_2/is_face_base_conv8/BiasAdd/ReadVariableOp", "StatefulPartitionedCall/model_2/is_face_base_conv8_activ/Neg"], "device": "/device:CPU:0", "attr": {"use_cudnn_on_gpu": {"b": true}, "padding": {"s": "VkFMSUQ="}, "num_args": {"i": "2"}, "data_format": {"s": "TkhXQw=="}, "dilations": {"list": {"i": ["1", "1", "1", "1"]}}, "strides": {"list": {"i": ["1", "1", "1", "1"]}}, "fused_ops": {"list": {"s": ["Qmlhc0FkZA==", "UHJlbHU="]}}, "epsilon": {"f": 0.0}, "T": {"type": "DT_FLOAT"}, "explicit_paddings": {"list": {}}}}, {"name": "StatefulPartitionedCall/model_2/transforms_base_conv8/BiasAdd", "op": "_FusedConv2D", "input": ["StatefulPartitionedCall/model_2/transforms_base_conv8/separable_conv2d/depthwise", "StatefulPartitionedCall/model_2/transforms_base_conv8/separable_conv2d/ReadVariableOp_1", "StatefulPartitionedCall/model_2/transforms_base_conv8/BiasAdd/ReadVariableOp", "StatefulPartitionedCall/model_2/transforms_base_conv8_activ/Neg"], "device": "/device:CPU:0", "attr": {"use_cudnn_on_gpu": {"b": true}, "padding": {"s": "VkFMSUQ="}, "epsilon": {"f": 0.0}, "fused_ops": {"list": {"s": ["Qmlhc0FkZA==", "UHJlbHU="]}}, "T": {"type": "DT_FLOAT"}, "data_format": {"s": "TkhXQw=="}, "explicit_paddings": {"list": {}}, "dilations": {"list": {"i": ["1", "1", "1", "1"]}}, "num_args": {"i": "2"}, "strides": {"list": {"i": ["1", "1", "1", "1"]}}}}, {"name": "StatefulPartitionedCall/model_2/bs_base_conv4/BiasAdd", "op": "_FusedConv2D", "input": ["StatefulPartitionedCall/model_2/bs_base_conv8/BiasAdd", "StatefulPartitionedCall/model_2/bs_base_conv4/Conv2D/ReadVariableOp", "StatefulPartitionedCall/model_2/bs_base_conv4/BiasAdd/ReadVariableOp", "StatefulPartitionedCall/model_2/bs_base_conv4_activ/Neg"], "device": "/device:CPU:0", "attr": {"dilations": {"list": {"i": ["1", "1", "1", "1"]}}, "data_format": {"s": "TkhXQw=="}, "T": {"type": "DT_FLOAT"}, "use_cudnn_on_gpu": {"b": true}, "strides": {"list": {"i": ["1", "2", "2", "1"]}}, "padding": {"s": "U0FNRQ=="}, "explicit_paddings": {"list": {}}, "fused_ops": {"list": {"s": ["Qmlhc0FkZA==", "UHJlbHU="]}}, "epsilon": {"f": 0.0}, "num_args": {"i": "2"}}}, {"name": "StatefulPartitionedCall/model_2/is_face_base_conv4/separable_conv2d/depthwise", "op": "DepthwiseConv2dNative", "input": ["StatefulPartitionedCall/model_2/is_face_base_conv8/BiasAdd", "StatefulPartitionedCall/model_2/is_face_base_conv4/separable_conv2d/ReadVariableOp"], "attr": {"data_format": {"s": "TkhXQw=="}, "padding": {"s": "U0FNRQ=="}, "dilations": {"list": {"i": ["1", "1", "1", "1"]}}, "explicit_paddings": {"list": {}}, "T": {"type": "DT_FLOAT"}, "strides": {"list": {"i": ["1", "2", "2", "1"]}}}}, {"name": "StatefulPartitionedCall/model_2/transforms_base_conv4/separable_conv2d/depthwise", "op": "DepthwiseConv2dNative", "input": ["StatefulPartitionedCall/model_2/transforms_base_conv8/BiasAdd", "StatefulPartitionedCall/model_2/transforms_base_conv4/separable_conv2d/ReadVariableOp"], "attr": {"explicit_paddings": {"list": {}}, "data_format": {"s": "TkhXQw=="}, "strides": {"list": {"i": ["1", "2", "2", "1"]}}, "padding": {"s": "U0FNRQ=="}, "T": {"type": "DT_FLOAT"}, "dilations": {"list": {"i": ["1", "1", "1", "1"]}}}}, {"name": "StatefulPartitionedCall/model_2/is_face_base_conv4/BiasAdd", "op": "_FusedConv2D", "input": ["StatefulPartitionedCall/model_2/is_face_base_conv4/separable_conv2d/depthwise", "StatefulPartitionedCall/model_2/is_face_base_conv4/separable_conv2d/ReadVariableOp_1", "StatefulPartitionedCall/model_2/is_face_base_conv4/BiasAdd/ReadVariableOp", "StatefulPartitionedCall/model_2/is_face_base_conv4_activ/Neg"], "device": "/device:CPU:0", "attr": {"T": {"type": "DT_FLOAT"}, "dilations": {"list": {"i": ["1", "1", "1", "1"]}}, "epsilon": {"f": 0.0}, "padding": {"s": "VkFMSUQ="}, "strides": {"list": {"i": ["1", "1", "1", "1"]}}, "fused_ops": {"list": {"s": ["Qmlhc0FkZA==", "UHJlbHU="]}}, "data_format": {"s": "TkhXQw=="}, "num_args": {"i": "2"}, "use_cudnn_on_gpu": {"b": true}, "explicit_paddings": {"list": {}}}}, {"name": "StatefulPartitionedCall/model_2/transforms_base_conv4/BiasAdd", "op": "_FusedConv2D", "input": ["StatefulPartitionedCall/model_2/transforms_base_conv4/separable_conv2d/depthwise", "StatefulPartitionedCall/model_2/transforms_base_conv4/separable_conv2d/ReadVariableOp_1", "StatefulPartitionedCall/model_2/transforms_base_conv4/BiasAdd/ReadVariableOp", "StatefulPartitionedCall/model_2/transforms_base_conv4_activ/Neg"], "device": "/device:CPU:0", "attr": {"strides": {"list": {"i": ["1", "1", "1", "1"]}}, "fused_ops": {"list": {"s": ["Qmlhc0FkZA==", "UHJlbHU="]}}, "data_format": {"s": "TkhXQw=="}, "dilations": {"list": {"i": ["1", "1", "1", "1"]}}, "T": {"type": "DT_FLOAT"}, "explicit_paddings": {"list": {}}, "padding": {"s": "VkFMSUQ="}, "num_args": {"i": "2"}, "use_cudnn_on_gpu": {"b": true}, "epsilon": {"f": 0.0}}}, {"name": "StatefulPartitionedCall/model_2/bs_base_conv2_bn/FusedBatchNormV3", "op": "_FusedConv2D", "input": ["StatefulPartitionedCall/model_2/bs_base_conv4/BiasAdd", "StatefulPartitionedCall/model_2/bs_base_conv2/Conv2D_weights", "StatefulPartitionedCall/model_2/bs_base_conv2/Conv2D_bn_offset", "StatefulPartitionedCall/model_2/bs_base_conv2_activ/Neg"], "device": "/device:CPU:0", "attr": {"strides": {"list": {"i": ["1", "2", "2", "1"]}}, "padding": {"s": "U0FNRQ=="}, "dilations": {"list": {"i": ["1", "1", "1", "1"]}}, "num_args": {"i": "2"}, "epsilon": {"f": 0.0}, "fused_ops": {"list": {"s": ["Qmlhc0FkZA==", "UHJlbHU="]}}, "use_cudnn_on_gpu": {"b": true}, "explicit_paddings": {"list": {}}, "T": {"type": "DT_FLOAT"}, "data_format": {"s": "TkhXQw=="}}}, {"name": "StatefulPartitionedCall/model_2/is_face_base_conv2/separable_conv2d/depthwise", "op": "DepthwiseConv2dNative", "input": ["StatefulPartitionedCall/model_2/is_face_base_conv4/BiasAdd", "StatefulPartitionedCall/model_2/is_face_base_conv2/separable_conv2d/ReadVariableOp"], "attr": {"padding": {"s": "U0FNRQ=="}, "data_format": {"s": "TkhXQw=="}, "T": {"type": "DT_FLOAT"}, "explicit_paddings": {"list": {}}, "dilations": {"list": {"i": ["1", "1", "1", "1"]}}, "strides": {"list": {"i": ["1", "2", "2", "1"]}}}}, {"name": "StatefulPartitionedCall/model_2/transforms_base_conv2/separable_conv2d/depthwise", "op": "DepthwiseConv2dNative", "input": ["StatefulPartitionedCall/model_2/transforms_base_conv4/BiasAdd", "StatefulPartitionedCall/model_2/transforms_base_conv2/separable_conv2d/ReadVariableOp"], "attr": {"explicit_paddings": {"list": {}}, "strides": {"list": {"i": ["1", "2", "2", "1"]}}, "T": {"type": "DT_FLOAT"}, "data_format": {"s": "TkhXQw=="}, "padding": {"s": "U0FNRQ=="}, "dilations": {"list": {"i": ["1", "1", "1", "1"]}}}}, {"name": "StatefulPartitionedCall/model_2/is_face_base_conv2_bn/FusedBatchNormV3", "op": "_FusedConv2D", "input": ["StatefulPartitionedCall/model_2/is_face_base_conv2/separable_conv2d/depthwise", "StatefulPartitionedCall/model_2/is_face_base_conv2/separable_conv2d_weights", "StatefulPartitionedCall/model_2/is_face_base_conv2/separable_conv2d_bn_offset", "StatefulPartitionedCall/model_2/is_face_base_conv2_activ/Neg"], "device": "/device:CPU:0", "attr": {"explicit_paddings": {"list": {}}, "epsilon": {"f": 0.0}, "num_args": {"i": "2"}, "fused_ops": {"list": {"s": ["Qmlhc0FkZA==", "UHJlbHU="]}}, "strides": {"list": {"i": ["1", "1", "1", "1"]}}, "dilations": {"list": {"i": ["1", "1", "1", "1"]}}, "T": {"type": "DT_FLOAT"}, "data_format": {"s": "TkhXQw=="}, "use_cudnn_on_gpu": {"b": true}, "padding": {"s": "VkFMSUQ="}}}, {"name": "StatefulPartitionedCall/model_2/transforms_base_conv2_bn/FusedBatchNormV3", "op": "_FusedConv2D", "input": ["StatefulPartitionedCall/model_2/transforms_base_conv2/separable_conv2d/depthwise", "StatefulPartitionedCall/model_2/transforms_base_conv2/separable_conv2d_weights", "StatefulPartitionedCall/model_2/transforms_base_conv2/separable_conv2d_bn_offset", "StatefulPartitionedCall/model_2/transforms_base_conv2_activ/Neg"], "device": "/device:CPU:0", "attr": {"padding": {"s": "VkFMSUQ="}, "data_format": {"s": "TkhXQw=="}, "T": {"type": "DT_FLOAT"}, "epsilon": {"f": 0.0}, "num_args": {"i": "2"}, "dilations": {"list": {"i": ["1", "1", "1", "1"]}}, "strides": {"list": {"i": ["1", "1", "1", "1"]}}, "use_cudnn_on_gpu": {"b": true}, "fused_ops": {"list": {"s": ["Qmlhc0FkZA==", "UHJlbHU="]}}, "explicit_paddings": {"list": {}}}}, {"name": "StatefulPartitionedCall/model_2/bs_base_flatten/Reshape", "op": "Reshape", "input": ["StatefulPartitionedCall/model_2/bs_base_conv2_bn/FusedBatchNormV3", "StatefulPartitionedCall/model_2/bs_base_flatten/Const"], "attr": {"T": {"type": "DT_FLOAT"}, "Tshape": {"type": "DT_INT32"}}}, {"name": "StatefulPartitionedCall/model_2/bs/BiasAdd", "op": "_FusedMatMul", "input": ["StatefulPartitionedCall/model_2/bs_base_flatten/Reshape", "StatefulPartitionedCall/model_2/bs/MatMul/ReadVariableOp", "StatefulPartitionedCall/model_2/bs/BiasAdd/ReadVariableOp", "StatefulPartitionedCall/model_2/blendshapes/Neg"], "device": "/device:CPU:0", "attr": {"transpose_b": {"b": false}, "T": {"type": "DT_FLOAT"}, "epsilon": {"f": 0.0}, "num_args": {"i": "2"}, "fused_ops": {"list": {"s": ["Qmlhc0FkZA==", "UHJlbHU="]}}, "transpose_a": {"b": false}}}, {"name": "StatefulPartitionedCall/model_2/is_face_base_flatten/Reshape", "op": "Reshape", "input": ["StatefulPartitionedCall/model_2/is_face_base_conv2_bn/FusedBatchNormV3", "StatefulPartitionedCall/model_2/is_face_base_flatten/Const"], "attr": {"T": {"type": "DT_FLOAT"}, "Tshape": {"type": "DT_INT32"}}}, {"name": "StatefulPartitionedCall/model_2/transforms_base_flatten/Reshape", "op": "Reshape", "input": ["StatefulPartitionedCall/model_2/transforms_base_conv2_bn/FusedBatchNormV3", "StatefulPartitionedCall/model_2/transforms_base_flatten/Const"], "attr": {"T": {"type": "DT_FLOAT"}, "Tshape": {"type": "DT_INT32"}}}, {"name": "StatefulPartitionedCall/model_2/is_face/BiasAdd", "op": "_FusedMatMul", "input": ["StatefulPartitionedCall/model_2/is_face_base_flatten/Reshape", "StatefulPartitionedCall/model_2/is_face/MatMul/ReadVariableOp", "StatefulPartitionedCall/model_2/is_face/BiasAdd/ReadVariableOp"], "device": "/device:CPU:0", "attr": {"epsilon": {"f": 0.0}, "transpose_a": {"b": false}, "num_args": {"i": "1"}, "transpose_b": {"b": false}, "fused_ops": {"list": {"s": ["Qmlhc0FkZA=="]}}, "T": {"type": "DT_FLOAT"}}}, {"name": "StatefulPartitionedCall/model_2/transforms/BiasAdd", "op": "_FusedMatMul", "input": ["StatefulPartitionedCall/model_2/transforms_base_flatten/Reshape", "StatefulPartitionedCall/model_2/transforms/MatMul/ReadVariableOp", "StatefulPartitionedCall/model_2/transforms/BiasAdd/ReadVariableOp"], "device": "/device:CPU:0", "attr": {"T": {"type": "DT_FLOAT"}, "transpose_a": {"b": false}, "num_args": {"i": "1"}, "fused_ops": {"list": {"s": ["Qmlhc0FkZA=="]}}, "transpose_b": {"b": false}, "epsilon": {"f": 0.0}}}, {"name": "StatefulPartitionedCall/model_2/is_face/Sigmoid", "op": "Sigmoid", "input": ["StatefulPartitionedCall/model_2/is_face/BiasAdd"], "attr": {"T": {"type": "DT_FLOAT"}}}, {"name": "Identity_2", "op": "Identity", "input": ["StatefulPartitionedCall/model_2/transforms/BiasAdd"], "attr": {"T": {"type": "DT_FLOAT"}}}, {"name": "Identity", "op": "Identity", "input": ["StatefulPartitionedCall/model_2/bs/BiasAdd"], "attr": {"T": {"type": "DT_FLOAT"}}}, {"name": "Identity_1", "op": "Identity", "input": ["StatefulPartitionedCall/model_2/is_face/Sigmoid"], "attr": {"T": {"type": "DT_FLOAT"}}}], "library": {}, "versions": {"producer": 808}}, "weightsManifest": [{"paths": ["group1-shard1of1.bin"], "weights": [{"name": "StatefulPartitionedCall/model_2/blendshapes/Neg", "shape": [42], "dtype": "float32"}, {"name": "StatefulPartitionedCall/model_2/bs_base_conv2_activ/Neg", "shape": [1, 1, 96], "dtype": "float32"}, {"name": "StatefulPartitionedCall/model_2/bs_base_conv4_activ/Neg", "shape": [1, 1, 96], "dtype": "float32"}, {"name": "StatefulPartitionedCall/model_2/bs_base_conv8_activ/Neg", "shape": [1, 1, 96], "dtype": "float32"}, {"name": "StatefulPartitionedCall/model_2/bs_base_conv8/Conv2D/ReadVariableOp", "shape": [4, 4, 96, 96], "dtype": "float32"}, {"name": "StatefulPartitionedCall/model_2/bs_base_conv8/BiasAdd/ReadVariableOp", "shape": [96], "dtype": "float32"}, {"name": "StatefulPartitionedCall/model_2/bs_base_conv4/Conv2D/ReadVariableOp", "shape": [4, 4, 96, 96], "dtype": "float32"}, {"name": "StatefulPartitionedCall/model_2/bs_base_conv4/BiasAdd/ReadVariableOp", "shape": [96], "dtype": "float32"}, {"name": "StatefulPartitionedCall/model_2/bs_base_flatten/Const", "shape": [2], "dtype": "int32"}, {"name": "StatefulPartitionedCall/model_2/bs/MatMul/ReadVariableOp", "shape": [96, 42], "dtype": "float32"}, {"name": "StatefulPartitionedCall/model_2/bs/BiasAdd/ReadVariableOp", "shape": [42], "dtype": "float32"}, {"name": "StatefulPartitionedCall/model_2/is_face_base_conv2_activ/Neg", "shape": [1, 1, 16], "dtype": "float32"}, {"name": "StatefulPartitionedCall/model_2/is_face_base_conv4_activ/Neg", "shape": [1, 1, 32], "dtype": "float32"}, {"name": "StatefulPartitionedCall/model_2/is_face_base_conv8_activ/Neg", "shape": [1, 1, 48], "dtype": "float32"}, {"name": "StatefulPartitionedCall/model_2/is_face_base_conv8/separable_conv2d/ReadVariableOp", "shape": [4, 4, 96, 1], "dtype": "float32"}, {"name": "StatefulPartitionedCall/model_2/is_face_base_conv8/separable_conv2d/ReadVariableOp_1", "shape": [1, 1, 96, 48], "dtype": "float32"}, {"name": "StatefulPartitionedCall/model_2/is_face_base_conv8/BiasAdd/ReadVariableOp", "shape": [48], "dtype": "float32"}, {"name": "StatefulPartitionedCall/model_2/is_face_base_conv4/separable_conv2d/ReadVariableOp", "shape": [4, 4, 48, 1], "dtype": "float32"}, {"name": "StatefulPartitionedCall/model_2/is_face_base_conv4/separable_conv2d/ReadVariableOp_1", "shape": [1, 1, 48, 32], "dtype": "float32"}, {"name": "StatefulPartitionedCall/model_2/is_face_base_conv4/BiasAdd/ReadVariableOp", "shape": [32], "dtype": "float32"}, {"name": "StatefulPartitionedCall/model_2/is_face_base_conv2/separable_conv2d/ReadVariableOp", "shape": [2, 2, 32, 1], "dtype": "float32"}, {"name": "StatefulPartitionedCall/model_2/is_face_base_flatten/Const", "shape": [2], "dtype": "int32"}, {"name": "StatefulPartitionedCall/model_2/is_face/MatMul/ReadVariableOp", "shape": [16, 1], "dtype": "float32"}, {"name": "StatefulPartitionedCall/model_2/is_face/BiasAdd/ReadVariableOp", "shape": [1], "dtype": "float32"}, {"name": "StatefulPartitionedCall/model_2/transforms_base_conv2_activ/Neg", "shape": [1, 1, 96], "dtype": "float32"}, {"name": "StatefulPartitionedCall/model_2/transforms_base_conv4_activ/Neg", "shape": [1, 1, 96], "dtype": "float32"}, {"name": "StatefulPartitionedCall/model_2/transforms_base_conv8_activ/Neg", "shape": [1, 1, 96], "dtype": "float32"}, {"name": "StatefulPartitionedCall/model_2/block4_c4_activ/Neg", "shape": [1, 1, 96], "dtype": "float32"}, {"name": "StatefulPartitionedCall/model_2/block4_c3_concat/concat/axis", "shape": [], "dtype": "int32"}, {"name": "StatefulPartitionedCall/model_2/block4_c4_separable/separable_conv2d/ReadVariableOp", "shape": [3, 3, 480, 1], "dtype": "float32"}, {"name": "StatefulPartitionedCall/model_2/block4_c3_activ/Neg", "shape": [1, 1, 96], "dtype": "float32"}, {"name": "StatefulPartitionedCall/model_2/block4_c2_concat/concat/axis", "shape": [], "dtype": "int32"}, {"name": "StatefulPartitionedCall/model_2/block4_c3_separable/separable_conv2d/ReadVariableOp", "shape": [3, 3, 384, 1], "dtype": "float32"}, {"name": "StatefulPartitionedCall/model_2/block4_c2_activ/Neg", "shape": [1, 1, 96], "dtype": "float32"}, {"name": "StatefulPartitionedCall/model_2/block4_c1_concat/concat/axis", "shape": [], "dtype": "int32"}, {"name": "StatefulPartitionedCall/model_2/block4_c2_separable/separable_conv2d/ReadVariableOp", "shape": [5, 5, 288, 1], "dtype": "float32"}, {"name": "StatefulPartitionedCall/model_2/block4_c1_activ/Neg", "shape": [1, 1, 96], "dtype": "float32"}, {"name": "StatefulPartitionedCall/model_2/block4_c0_concat/concat/axis", "shape": [], "dtype": "int32"}, {"name": "StatefulPartitionedCall/model_2/block4_c1_separable/separable_conv2d/ReadVariableOp", "shape": [5, 5, 192, 1], "dtype": "float32"}, {"name": "StatefulPartitionedCall/model_2/block4_c0_activ/Neg", "shape": [1, 1, 96], "dtype": "float32"}, {"name": "StatefulPartitionedCall/model_2/block4_c0_separable/separable_conv2d/ReadVariableOp", "shape": [7, 7, 96, 1], "dtype": "float32"}, {"name": "StatefulPartitionedCall/model_2/block4_downscale_activ/Neg", "shape": [1, 1, 96], "dtype": "float32"}, {"name": "StatefulPartitionedCall/model_2/block3_l1_activ/Neg", "shape": [1, 1, 48], "dtype": "float32"}, {"name": "StatefulPartitionedCall/model_2/block3_l0_activ/Neg", "shape": [1, 1, 48], "dtype": "float32"}, {"name": "StatefulPartitionedCall/model_2/block3_l0_concat/concat/axis", "shape": [], "dtype": "int32"}, {"name": "StatefulPartitionedCall/model_2/block3_l0_separable/separable_conv2d/ReadVariableOp", "shape": [5, 5, 96, 1], "dtype": "float32"}, {"name": "StatefulPartitionedCall/model_2/block3_l0_downscale_activ/Neg", "shape": [1, 1, 48], "dtype": "float32"}, {"name": "StatefulPartitionedCall/model_2/block3_l0_downscale_separable/separable_conv2d/ReadVariableOp", "shape": [4, 4, 64, 1], "dtype": "float32"}, {"name": "StatefulPartitionedCall/model_2/block3_l0_downscale_separable/separable_conv2d/ReadVariableOp_1", "shape": [1, 1, 64, 48], "dtype": "float32"}, {"name": "StatefulPartitionedCall/model_2/block3_l0_downscale_separable/BiasAdd/ReadVariableOp", "shape": [48], "dtype": "float32"}, {"name": "StatefulPartitionedCall/model_2/block3_l1_concat/concat/axis", "shape": [], "dtype": "int32"}, {"name": "StatefulPartitionedCall/model_2/block3_l1_separable/separable_conv2d/ReadVariableOp", "shape": [3, 3, 96, 1], "dtype": "float32"}, {"name": "StatefulPartitionedCall/model_2/block3_l1_downscale_activ/Neg", "shape": [1, 1, 48], "dtype": "float32"}, {"name": "StatefulPartitionedCall/model_2/block2_l1_activ/Neg", "shape": [1, 1, 32], "dtype": "float32"}, {"name": "StatefulPartitionedCall/model_2/block2_l0_activ/Neg", "shape": [1, 1, 32], "dtype": "float32"}, {"name": "StatefulPartitionedCall/model_2/block2_l0_concat/concat/axis", "shape": [], "dtype": "int32"}, {"name": "StatefulPartitionedCall/model_2/block2_l0_separable/separable_conv2d/ReadVariableOp", "shape": [5, 5, 64, 1], "dtype": "float32"}, {"name": "StatefulPartitionedCall/model_2/block2_l0_downscale_activ/Neg", "shape": [1, 1, 32], "dtype": "float32"}, {"name": "StatefulPartitionedCall/model_2/block2_l0_downscale_separable/separable_conv2d/ReadVariableOp", "shape": [4, 4, 32, 1], "dtype": "float32"}, {"name": "StatefulPartitionedCall/model_2/block2_l0_downscale_separable/separable_conv2d/ReadVariableOp_1", "shape": [1, 1, 32, 32], "dtype": "float32"}, {"name": "StatefulPartitionedCall/model_2/block2_l0_downscale_separable/BiasAdd/ReadVariableOp", "shape": [32], "dtype": "float32"}, {"name": "StatefulPartitionedCall/model_2/block2_l1_concat/concat/axis", "shape": [], "dtype": "int32"}, {"name": "StatefulPartitionedCall/model_2/block2_l1_separable/separable_conv2d/ReadVariableOp", "shape": [3, 3, 64, 1], "dtype": "float32"}, {"name": "StatefulPartitionedCall/model_2/block2_l1_downscale_activ/Neg", "shape": [1, 1, 32], "dtype": "float32"}, {"name": "StatefulPartitionedCall/model_2/block1_l1_activ/Neg", "shape": [1, 1, 16], "dtype": "float32"}, {"name": "StatefulPartitionedCall/model_2/block1_l0_activ/Neg", "shape": [1, 1, 16], "dtype": "float32"}, {"name": "StatefulPartitionedCall/model_2/block1_l0_concat/concat/axis", "shape": [], "dtype": "int32"}, {"name": "StatefulPartitionedCall/model_2/block1_l0_separable/separable_conv2d/ReadVariableOp", "shape": [3, 3, 32, 1], "dtype": "float32"}, {"name": "StatefulPartitionedCall/model_2/block1_l0_downscale_activ/Neg", "shape": [1, 1, 16], "dtype": "float32"}, {"name": "StatefulPartitionedCall/model_2/block1_l0_downscale_separable/separable_conv2d/ReadVariableOp", "shape": [4, 4, 16, 1], "dtype": "float32"}, {"name": "StatefulPartitionedCall/model_2/block1_l0_downscale_separable/separable_conv2d/ReadVariableOp_1", "shape": [1, 1, 16, 16], "dtype": "float32"}, {"name": "StatefulPartitionedCall/model_2/block1_l0_downscale_separable/BiasAdd/ReadVariableOp", "shape": [16], "dtype": "float32"}, {"name": "StatefulPartitionedCall/model_2/block1_l1_concat/concat/axis", "shape": [], "dtype": "int32"}, {"name": "StatefulPartitionedCall/model_2/block1_l1_separable/separable_conv2d/ReadVariableOp", "shape": [3, 3, 32, 1], "dtype": "float32"}, {"name": "StatefulPartitionedCall/model_2/block1_l1_downscale_activ/Neg", "shape": [1, 1, 16], "dtype": "float32"}, {"name": "StatefulPartitionedCall/model_2/block0_l0_activ/Neg", "shape": [1, 1, 16], "dtype": "float32"}, {"name": "StatefulPartitionedCall/model_2/block0_l0_separable/separable_conv2d/ReadVariableOp", "shape": [3, 3, 16, 1], "dtype": "float32"}, {"name": "StatefulPartitionedCall/model_2/block0_l0_downscale_activ/Neg", "shape": [1, 1, 16], "dtype": "float32"}, {"name": "StatefulPartitionedCall/model_2/block0_l0_downscale_conv/Conv2D/ReadVariableOp", "shape": [4, 4, 3, 16], "dtype": "float32"}, {"name": "StatefulPartitionedCall/model_2/block0_l0_downscale_conv/BiasAdd/ReadVariableOp", "shape": [16], "dtype": "float32"}, {"name": "StatefulPartitionedCall/model_2/block1_l1_downscale_separable/separable_conv2d/ReadVariableOp", "shape": [4, 4, 16, 1], "dtype": "float32"}, {"name": "StatefulPartitionedCall/model_2/block1_l1_downscale_separable/separable_conv2d/ReadVariableOp_1", "shape": [1, 1, 16, 16], "dtype": "float32"}, {"name": "StatefulPartitionedCall/model_2/block1_l1_downscale_separable/BiasAdd/ReadVariableOp", "shape": [16], "dtype": "float32"}, {"name": "StatefulPartitionedCall/model_2/block1_concat/concat/axis", "shape": [], "dtype": "int32"}, {"name": "StatefulPartitionedCall/model_2/block2_l1_downscale_separable/separable_conv2d/ReadVariableOp", "shape": [4, 4, 32, 1], "dtype": "float32"}, {"name": "StatefulPartitionedCall/model_2/block2_l1_downscale_separable/separable_conv2d/ReadVariableOp_1", "shape": [1, 1, 32, 32], "dtype": "float32"}, {"name": "StatefulPartitionedCall/model_2/block2_l1_downscale_separable/BiasAdd/ReadVariableOp", "shape": [32], "dtype": "float32"}, {"name": "StatefulPartitionedCall/model_2/block2_concat/concat/axis", "shape": [], "dtype": "int32"}, {"name": "StatefulPartitionedCall/model_2/block3_l1_downscale_separable/separable_conv2d/ReadVariableOp", "shape": [4, 4, 64, 1], "dtype": "float32"}, {"name": "StatefulPartitionedCall/model_2/block3_l1_downscale_separable/separable_conv2d/ReadVariableOp_1", "shape": [1, 1, 64, 48], "dtype": "float32"}, {"name": "StatefulPartitionedCall/model_2/block3_l1_downscale_separable/BiasAdd/ReadVariableOp", "shape": [48], "dtype": "float32"}, {"name": "StatefulPartitionedCall/model_2/block3_concat/concat/axis", "shape": [], "dtype": "int32"}, {"name": "StatefulPartitionedCall/model_2/block4_downscale_separable/separable_conv2d/ReadVariableOp", "shape": [4, 4, 96, 1], "dtype": "float32"}, {"name": "StatefulPartitionedCall/model_2/block4_downscale_separable/separable_conv2d/ReadVariableOp_1", "shape": [1, 1, 96, 96], "dtype": "float32"}, {"name": "StatefulPartitionedCall/model_2/block4_downscale_separable/BiasAdd/ReadVariableOp", "shape": [96], "dtype": "float32"}, {"name": "StatefulPartitionedCall/model_2/transforms_base_conv8/separable_conv2d/ReadVariableOp", "shape": [4, 4, 96, 1], "dtype": "float32"}, {"name": "StatefulPartitionedCall/model_2/transforms_base_conv8/separable_conv2d/ReadVariableOp_1", "shape": [1, 1, 96, 96], "dtype": "float32"}, {"name": "StatefulPartitionedCall/model_2/transforms_base_conv8/BiasAdd/ReadVariableOp", "shape": [96], "dtype": "float32"}, {"name": "StatefulPartitionedCall/model_2/transforms_base_conv4/separable_conv2d/ReadVariableOp", "shape": [4, 4, 96, 1], "dtype": "float32"}, {"name": "StatefulPartitionedCall/model_2/transforms_base_conv4/separable_conv2d/ReadVariableOp_1", "shape": [1, 1, 96, 96], "dtype": "float32"}, {"name": "StatefulPartitionedCall/model_2/transforms_base_conv4/BiasAdd/ReadVariableOp", "shape": [96], "dtype": "float32"}, {"name": "StatefulPartitionedCall/model_2/transforms_base_conv2/separable_conv2d/ReadVariableOp", "shape": [2, 2, 96, 1], "dtype": "float32"}, {"name": "StatefulPartitionedCall/model_2/transforms_base_flatten/Const", "shape": [2], "dtype": "int32"}, {"name": "StatefulPartitionedCall/model_2/transforms/MatMul/ReadVariableOp", "shape": [96, 20], "dtype": "float32"}, {"name": "StatefulPartitionedCall/model_2/transforms/BiasAdd/ReadVariableOp", "shape": [20], "dtype": "float32"}, {"name": "StatefulPartitionedCall/model_2/block0_l0_separable/separable_conv2d_weights", "shape": [1, 1, 16, 16], "dtype": "float32"}, {"name": "StatefulPartitionedCall/model_2/block0_l0_separable/separable_conv2d_bn_offset", "shape": [16], "dtype": "float32"}, {"name": "StatefulPartitionedCall/model_2/block1_l0_separable/separable_conv2d_weights", "shape": [1, 1, 32, 16], "dtype": "float32"}, {"name": "StatefulPartitionedCall/model_2/block1_l0_separable/separable_conv2d_bn_offset", "shape": [16], "dtype": "float32"}, {"name": "StatefulPartitionedCall/model_2/block1_l1_separable/separable_conv2d_weights", "shape": [1, 1, 32, 16], "dtype": "float32"}, {"name": "StatefulPartitionedCall/model_2/is_face_base_conv2/separable_conv2d_weights", "shape": [1, 1, 32, 16], "dtype": "float32"}, {"name": "StatefulPartitionedCall/model_2/block1_l1_separable/separable_conv2d_bn_offset", "shape": [16], "dtype": "float32"}, {"name": "StatefulPartitionedCall/model_2/is_face_base_conv2/separable_conv2d_bn_offset", "shape": [16], "dtype": "float32"}, {"name": "StatefulPartitionedCall/model_2/block2_l0_separable/separable_conv2d_weights", "shape": [1, 1, 64, 32], "dtype": "float32"}, {"name": "StatefulPartitionedCall/model_2/block2_l0_separable/separable_conv2d_bn_offset", "shape": [32], "dtype": "float32"}, {"name": "StatefulPartitionedCall/model_2/block2_l1_separable/separable_conv2d_weights", "shape": [1, 1, 64, 32], "dtype": "float32"}, {"name": "StatefulPartitionedCall/model_2/block2_l1_separable/separable_conv2d_bn_offset", "shape": [32], "dtype": "float32"}, {"name": "StatefulPartitionedCall/model_2/block3_l0_separable/separable_conv2d_weights", "shape": [1, 1, 96, 48], "dtype": "float32"}, {"name": "StatefulPartitionedCall/model_2/block3_l0_separable/separable_conv2d_bn_offset", "shape": [48], "dtype": "float32"}, {"name": "StatefulPartitionedCall/model_2/block3_l1_separable/separable_conv2d_weights", "shape": [1, 1, 96, 48], "dtype": "float32"}, {"name": "StatefulPartitionedCall/model_2/block3_l1_separable/separable_conv2d_bn_offset", "shape": [48], "dtype": "float32"}, {"name": "StatefulPartitionedCall/model_2/block4_c0_separable/separable_conv2d_weights", "shape": [1, 1, 96, 96], "dtype": "float32"}, {"name": "StatefulPartitionedCall/model_2/block4_c0_separable/separable_conv2d_bn_offset", "shape": [96], "dtype": "float32"}, {"name": "StatefulPartitionedCall/model_2/block4_c1_separable/separable_conv2d_weights", "shape": [1, 1, 192, 96], "dtype": "float32"}, {"name": "StatefulPartitionedCall/model_2/block4_c1_separable/separable_conv2d_bn_offset", "shape": [96], "dtype": "float32"}, {"name": "StatefulPartitionedCall/model_2/block4_c2_separable/separable_conv2d_weights", "shape": [1, 1, 288, 96], "dtype": "float32"}, {"name": "StatefulPartitionedCall/model_2/block4_c2_separable/separable_conv2d_bn_offset", "shape": [96], "dtype": "float32"}, {"name": "StatefulPartitionedCall/model_2/block4_c3_separable/separable_conv2d_weights", "shape": [1, 1, 384, 96], "dtype": "float32"}, {"name": "StatefulPartitionedCall/model_2/block4_c3_separable/separable_conv2d_bn_offset", "shape": [96], "dtype": "float32"}, {"name": "StatefulPartitionedCall/model_2/block4_c4_separable/separable_conv2d_weights", "shape": [1, 1, 480, 96], "dtype": "float32"}, {"name": "StatefulPartitionedCall/model_2/transforms_base_conv2/separable_conv2d_weights", "shape": [1, 1, 96, 96], "dtype": "float32"}, {"name": "StatefulPartitionedCall/model_2/block4_c4_separable/separable_conv2d_bn_offset", "shape": [96], "dtype": "float32"}, {"name": "StatefulPartitionedCall/model_2/transforms_base_conv2/separable_conv2d_bn_offset", "shape": [96], "dtype": "float32"}, {"name": "StatefulPartitionedCall/model_2/bs_base_conv2/Conv2D_weights", "shape": [2, 2, 96, 96], "dtype": "float32"}, {"name": "StatefulPartitionedCall/model_2/bs_base_conv2/Conv2D_bn_offset", "shape": [96], "dtype": "float32"}]}]}