{"format": "graph-model", "generatedBy": "2.10.0", "convertedBy": "TensorFlow.js Converter v4.0.0", "signature": {"inputs": {"input": {"name": "input:0", "dtype": "DT_FLOAT", "tensorShape": {"dim": [{"size": "1"}, {"size": "256"}, {"size": "256"}, {"size": "3"}]}}}, "outputs": {"blendshapes": {"name": "Identity:0", "dtype": "DT_FLOAT", "tensorShape": {"dim": [{"size": "1"}, {"size": "42"}]}}, "is_face": {"name": "Identity_1:0", "dtype": "DT_FLOAT", "tensorShape": {"dim": [{"size": "1"}, {"size": "1"}]}}, "transforms": {"name": "Identity_2:0", "dtype": "DT_FLOAT", "tensorShape": {"dim": [{"size": "1"}, {"size": "20"}]}}}}, "modelTopology": {"node": [{"name": "StatefulPartitionedCall/model_105/merged_blendshapes/StridedSlice/begin", "op": "Const", "attr": {"dtype": {"type": "DT_INT32"}, "value": {"tensor": {"dtype": "DT_INT32", "tensorShape": {"dim": [{"size": "3"}]}}}}}, {"name": "StatefulPartitionedCall/model_105/merged_blendshapes/StridedSlice/end", "op": "Const", "attr": {"dtype": {"type": "DT_INT32"}, "value": {"tensor": {"dtype": "DT_INT32", "tensorShape": {"dim": [{"size": "3"}]}}}}}, {"name": "StatefulPartitionedCall/model_105/merged_blendshapes/ones_like", "op": "Const", "attr": {"value": {"tensor": {"dtype": "DT_INT32", "tensorShape": {"dim": [{"size": "3"}]}}}, "dtype": {"type": "DT_INT32"}}}, {"name": "StatefulPartitionedCall/model_105/mouth_nose_align/PartitionedCall_1/strided_slice_1/stack", "op": "Const", "attr": {"value": {"tensor": {"dtype": "DT_INT32", "tensorShape": {"dim": [{"size": "2"}]}}}, "dtype": {"type": "DT_INT32"}}}, {"name": "StatefulPartitionedCall/model_105/mouth_nose_align/PartitionedCall_1/strided_slice_1/stack_1", "op": "Const", "attr": {"dtype": {"type": "DT_INT32"}, "value": {"tensor": {"dtype": "DT_INT32", "tensorShape": {"dim": [{"size": "2"}]}}}}}, {"name": "StatefulPartitionedCall/model_105/mouth_nose_align/PartitionedCall_1/strided_slice_1/stack_2", "op": "Const", "attr": {"dtype": {"type": "DT_INT32"}, "value": {"tensor": {"dtype": "DT_INT32", "tensorShape": {"dim": [{"size": "2"}]}}}}}, {"name": "StatefulPartitionedCall/model_105/mouth_nose_align/PartitionedCall_1/strided_slice_2/stack", "op": "Const", "attr": {"value": {"tensor": {"dtype": "DT_INT32", "tensorShape": {"dim": [{"size": "2"}]}}}, "dtype": {"type": "DT_INT32"}}}, {"name": "StatefulPartitionedCall/model_105/mouth_nose_align/PartitionedCall_1/strided_slice_2/stack_1", "op": "Const", "attr": {"value": {"tensor": {"dtype": "DT_INT32", "tensorShape": {"dim": [{"size": "2"}]}}}, "dtype": {"type": "DT_INT32"}}}, {"name": "StatefulPartitionedCall/model_105/mouth_nose_align/PartitionedCall_1/strided_slice_2/stack_2", "op": "Const", "attr": {"value": {"tensor": {"dtype": "DT_INT32", "tensorShape": {"dim": [{"size": "2"}]}}}, "dtype": {"type": "DT_INT32"}}}, {"name": "StatefulPartitionedCall/model_105/mouth_nose_align/PartitionedCall_1/strided_slice_3/stack", "op": "Const", "attr": {"value": {"tensor": {"dtype": "DT_INT32", "tensorShape": {"dim": [{"size": "2"}]}}}, "dtype": {"type": "DT_INT32"}}}, {"name": "StatefulPartitionedCall/model_105/mouth_nose_align/PartitionedCall_1/strided_slice_3/stack_1", "op": "Const", "attr": {"dtype": {"type": "DT_INT32"}, "value": {"tensor": {"dtype": "DT_INT32", "tensorShape": {"dim": [{"size": "2"}]}}}}}, {"name": "StatefulPartitionedCall/model_105/mouth_nose_align/PartitionedCall_1/strided_slice_3/stack_2", "op": "Const", "attr": {"dtype": {"type": "DT_INT32"}, "value": {"tensor": {"dtype": "DT_INT32", "tensorShape": {"dim": [{"size": "2"}]}}}}}, {"name": "StatefulPartitionedCall/model_105/mouth_nose_align/PartitionedCall/zeros", "op": "Const", "attr": {"value": {"tensor": {"dtype": "DT_FLOAT", "tensorShape": {"dim": [{"size": "1"}, {"size": "1"}, {"size": "2"}]}}}, "dtype": {"type": "DT_FLOAT"}}}, {"name": "StatefulPartitionedCall/model_105/mouth_nose_align/PartitionedCall/Const_1", "op": "Const", "attr": {"value": {"tensor": {"dtype": "DT_FLOAT", "tensorShape": {}}}, "dtype": {"type": "DT_FLOAT"}}}, {"name": "StatefulPartitionedCall/model_105/mouth_nose_align/PartitionedCall/strided_slice_5/stack", "op": "Const", "attr": {"value": {"tensor": {"dtype": "DT_INT32", "tensorShape": {"dim": [{"size": "3"}]}}}, "dtype": {"type": "DT_INT32"}}}, {"name": "StatefulPartitionedCall/model_105/mouth_nose_align/PartitionedCall/strided_slice_5/stack_1", "op": "Const", "attr": {"dtype": {"type": "DT_INT32"}, "value": {"tensor": {"dtype": "DT_INT32", "tensorShape": {"dim": [{"size": "3"}]}}}}}, {"name": "StatefulPartitionedCall/model_105/mouth_nose_align/PartitionedCall/strided_slice_5/stack_2", "op": "Const", "attr": {"value": {"tensor": {"dtype": "DT_INT32", "tensorShape": {"dim": [{"size": "3"}]}}}, "dtype": {"type": "DT_INT32"}}}, {"name": "StatefulPartitionedCall/model_105/mouth_nose_align/PartitionedCall/Mul_4/y", "op": "Const", "attr": {"dtype": {"type": "DT_FLOAT"}, "value": {"tensor": {"dtype": "DT_FLOAT", "tensorShape": {}}}}}, {"name": "StatefulPartitionedCall/model_105/mouth_nose_align/PartitionedCall/Const_2", "op": "Const", "attr": {"dtype": {"type": "DT_FLOAT"}, "value": {"tensor": {"dtype": "DT_FLOAT", "tensorShape": {"dim": [{"size": "1"}, {"size": "2"}]}}}}}, {"name": "StatefulPartitionedCall/model_105/mouth_nose_align/PartitionedCall/Max/reduction_indices", "op": "Const", "attr": {"dtype": {"type": "DT_INT32"}, "value": {"tensor": {"dtype": "DT_INT32", "tensorShape": {}}}}}, {"name": "StatefulPartitionedCall/model_105/mouth_nose_align/PartitionedCall/GatherV2/indices", "op": "Const", "attr": {"value": {"tensor": {"dtype": "DT_INT32", "tensorShape": {"dim": [{"size": "26"}]}}}, "dtype": {"type": "DT_INT32"}}}, {"name": "StatefulPartitionedCall/model_105/mouth_nose_align/PartitionedCall/GatherV2/axis", "op": "Const", "attr": {"dtype": {"type": "DT_INT32"}, "value": {"tensor": {"dtype": "DT_INT32", "tensorShape": {}}}}}, {"name": "StatefulPartitionedCall/model_105/mouth_nose_align/PartitionedCall/strided_slice_4/stack", "op": "Const", "attr": {"value": {"tensor": {"dtype": "DT_INT32", "tensorShape": {"dim": [{"size": "3"}]}}}, "dtype": {"type": "DT_INT32"}}}, {"name": "StatefulPartitionedCall/model_105/mouth_nose_align/PartitionedCall/strided_slice_4/stack_1", "op": "Const", "attr": {"dtype": {"type": "DT_INT32"}, "value": {"tensor": {"dtype": "DT_INT32", "tensorShape": {"dim": [{"size": "3"}]}}}}}, {"name": "StatefulPartitionedCall/model_105/mouth_nose_align/PartitionedCall/strided_slice_4/stack_2", "op": "Const", "attr": {"dtype": {"type": "DT_INT32"}, "value": {"tensor": {"dtype": "DT_INT32", "tensorShape": {"dim": [{"size": "3"}]}}}}}, {"name": "StatefulPartitionedCall/model_105/mouth_nose_align/Reshape/shape", "op": "Const", "attr": {"dtype": {"type": "DT_INT32"}, "value": {"tensor": {"dtype": "DT_INT32", "tensorShape": {"dim": [{"size": "4"}]}}}}}, {"name": "StatefulPartitionedCall/model_105/mouth_nose_align/mul/y", "op": "Const", "attr": {"value": {"tensor": {"dtype": "DT_FLOAT", "tensorShape": {}}}, "dtype": {"type": "DT_FLOAT"}}}, {"name": "StatefulPartitionedCall/model_105/mouth_nose_align/zeros", "op": "Const", "attr": {"value": {"tensor": {"dtype": "DT_FLOAT", "tensorShape": {"dim": [{"size": "1"}, {"size": "1"}, {"size": "68"}, {"size": "1"}]}}}, "dtype": {"type": "DT_FLOAT"}}}, {"name": "StatefulPartitionedCall/model_105/mouth_nose_align/concat/axis", "op": "Const", "attr": {"dtype": {"type": "DT_INT32"}, "value": {"tensor": {"dtype": "DT_INT32", "tensorShape": {}}}}}, {"name": "StatefulPartitionedCall/model_105/mouth_nose_align/PartitionedCall/Reshape/shape", "op": "Const", "attr": {"dtype": {"type": "DT_INT32"}, "value": {"tensor": {"dtype": "DT_INT32", "tensorShape": {"dim": [{"size": "3"}]}}}}}, {"name": "StatefulPartitionedCall/model_105/mouth_nose_align/PartitionedCall/strided_slice_2/stack", "op": "Const", "attr": {"dtype": {"type": "DT_INT32"}, "value": {"tensor": {"dtype": "DT_INT32", "tensorShape": {"dim": [{"size": "3"}]}}}}}, {"name": "StatefulPartitionedCall/model_105/mouth_nose_align/PartitionedCall/strided_slice_2/stack_1", "op": "Const", "attr": {"value": {"tensor": {"dtype": "DT_INT32", "tensorShape": {"dim": [{"size": "3"}]}}}, "dtype": {"type": "DT_INT32"}}}, {"name": "StatefulPartitionedCall/model_105/mouth_nose_align/PartitionedCall/strided_slice_2/stack_2", "op": "Const", "attr": {"dtype": {"type": "DT_INT32"}, "value": {"tensor": {"dtype": "DT_INT32", "tensorShape": {"dim": [{"size": "3"}]}}}}}, {"name": "StatefulPartitionedCall/model_105/mouth_nose_align/PartitionedCall/strided_slice_3/stack", "op": "Const", "attr": {"value": {"tensor": {"dtype": "DT_INT32", "tensorShape": {"dim": [{"size": "3"}]}}}, "dtype": {"type": "DT_INT32"}}}, {"name": "StatefulPartitionedCall/model_105/mouth_nose_align/PartitionedCall/strided_slice_3/stack_1", "op": "Const", "attr": {"value": {"tensor": {"dtype": "DT_INT32", "tensorShape": {"dim": [{"size": "3"}]}}}, "dtype": {"type": "DT_INT32"}}}, {"name": "StatefulPartitionedCall/model_105/mouth_nose_align/PartitionedCall/strided_slice_3/stack_2", "op": "Const", "attr": {"value": {"tensor": {"dtype": "DT_INT32", "tensorShape": {"dim": [{"size": "3"}]}}}, "dtype": {"type": "DT_INT32"}}}, {"name": "StatefulPartitionedCall/model_105/mouth_nose_align/PartitionedCall/norm/Sum/reduction_indices", "op": "Const", "attr": {"dtype": {"type": "DT_INT32"}, "value": {"tensor": {"dtype": "DT_INT32", "tensorShape": {"dim": [{"size": "1"}]}}}}}, {"name": "StatefulPartitionedCall/model_105/mouth_nose_align/PartitionedCall/Const", "op": "Const", "attr": {"dtype": {"type": "DT_FLOAT"}, "value": {"tensor": {"dtype": "DT_FLOAT", "tensorShape": {"dim": [{"size": "2"}, {"size": "2"}]}}}}}, {"name": "StatefulPartitionedCall/model_105/mouth_nose_align/PartitionedCall/concat/axis", "op": "Const", "attr": {"dtype": {"type": "DT_INT32"}, "value": {"tensor": {"dtype": "DT_INT32", "tensorShape": {}}}}}, {"name": "StatefulPartitionedCall/model_105/mouth_nose_align/PartitionedCall/Min/reduction_indices", "op": "Const", "attr": {"value": {"tensor": {"dtype": "DT_INT32", "tensorShape": {}}}, "dtype": {"type": "DT_INT32"}}}, {"name": "StatefulPartitionedCall/model_105/mouth_nose_align/PartitionedCall/strided_slice_6/stack", "op": "Const", "attr": {"value": {"tensor": {"dtype": "DT_INT32", "tensorShape": {"dim": [{"size": "3"}]}}}, "dtype": {"type": "DT_INT32"}}}, {"name": "StatefulPartitionedCall/model_105/mouth_nose_align/PartitionedCall/strided_slice_6/stack_1", "op": "Const", "attr": {"dtype": {"type": "DT_INT32"}, "value": {"tensor": {"dtype": "DT_INT32", "tensorShape": {"dim": [{"size": "3"}]}}}}}, {"name": "StatefulPartitionedCall/model_105/mouth_nose_align/PartitionedCall/strided_slice_6/stack_2", "op": "Const", "attr": {"dtype": {"type": "DT_INT32"}, "value": {"tensor": {"dtype": "DT_INT32", "tensorShape": {"dim": [{"size": "3"}]}}}}}, {"name": "StatefulPartitionedCall/model_105/mouth_nose_align/PartitionedCall/Mul_5/y", "op": "Const", "attr": {"dtype": {"type": "DT_FLOAT"}, "value": {"tensor": {"dtype": "DT_FLOAT", "tensorShape": {}}}}}, {"name": "StatefulPartitionedCall/model_105/mouth_nose_align/PartitionedCall/concat_1/axis", "op": "Const", "attr": {"value": {"tensor": {"dtype": "DT_INT32", "tensorShape": {}}}, "dtype": {"type": "DT_INT32"}}}, {"name": "StatefulPartitionedCall/model_105/mouth_nose_align/PartitionedCall/transpose_1/perm", "op": "Const", "attr": {"dtype": {"type": "DT_INT32"}, "value": {"tensor": {"dtype": "DT_INT32", "tensorShape": {"dim": [{"size": "3"}]}}}}}, {"name": "StatefulPartitionedCall/model_105/mouth_nose_align/PartitionedCall/Tile", "op": "Const", "attr": {"dtype": {"type": "DT_FLOAT"}, "value": {"tensor": {"dtype": "DT_FLOAT", "tensorShape": {"dim": [{"size": "1"}, {"size": "2"}, {"size": "4"}]}}}}}, {"name": "StatefulPartitionedCall/model_105/mouth_nose_align/PartitionedCall/concat_2/axis", "op": "Const", "attr": {"value": {"tensor": {"dtype": "DT_INT32", "tensorShape": {}}}, "dtype": {"type": "DT_INT32"}}}, {"name": "StatefulPartitionedCall/model_105/mouth_nose_align/PartitionedCall_1/Reshape/shape", "op": "Const", "attr": {"value": {"tensor": {"dtype": "DT_INT32", "tensorShape": {"dim": [{"size": "2"}]}}}, "dtype": {"type": "DT_INT32"}}}, {"name": "StatefulPartitionedCall/model_105/mouth_nose_align/PartitionedCall_1/strided_slice_4/stack", "op": "Const", "attr": {"value": {"tensor": {"dtype": "DT_INT32", "tensorShape": {"dim": [{"size": "2"}]}}}, "dtype": {"type": "DT_INT32"}}}, {"name": "StatefulPartitionedCall/model_105/mouth_nose_align/PartitionedCall_1/strided_slice_4/stack_1", "op": "Const", "attr": {"value": {"tensor": {"dtype": "DT_INT32", "tensorShape": {"dim": [{"size": "2"}]}}}, "dtype": {"type": "DT_INT32"}}}, {"name": "StatefulPartitionedCall/model_105/mouth_nose_align/PartitionedCall_1/strided_slice_4/stack_2", "op": "Const", "attr": {"dtype": {"type": "DT_INT32"}, "value": {"tensor": {"dtype": "DT_INT32", "tensorShape": {"dim": [{"size": "2"}]}}}}}, {"name": "StatefulPartitionedCall/model_105/mouth_nose_align/PartitionedCall_1/concat/axis", "op": "Const", "attr": {"value": {"tensor": {"dtype": "DT_INT32", "tensorShape": {}}}, "dtype": {"type": "DT_INT32"}}}, {"name": "StatefulPartitionedCall/model_105/mouth_nose_align/PartitionedCall_1/transform/output_shape", "op": "Const", "attr": {"dtype": {"type": "DT_INT32"}, "value": {"tensor": {"dtype": "DT_INT32", "tensorShape": {"dim": [{"size": "2"}]}}}}}, {"name": "StatefulPartitionedCall/model_105/mouth_nose_align/PartitionedCall_1/transform/fill_value", "op": "Const", "attr": {"value": {"tensor": {"dtype": "DT_FLOAT", "tensorShape": {}}}, "dtype": {"type": "DT_FLOAT"}}}, {"name": "StatefulPartitionedCall/model_105/mn_expanded_conv_expanded_conv_1_depthwise_pad/Pad/paddings", "op": "Const", "attr": {"dtype": {"type": "DT_INT32"}, "value": {"tensor": {"dtype": "DT_INT32", "tensorShape": {"dim": [{"size": "4"}, {"size": "2"}]}}}}}, {"name": "StatefulPartitionedCall/model_105/mn_expanded_conv_expanded_conv_3_depthwise_pad/Pad/paddings", "op": "Const", "attr": {"value": {"tensor": {"dtype": "DT_INT32", "tensorShape": {"dim": [{"size": "4"}, {"size": "2"}]}}}, "dtype": {"type": "DT_INT32"}}}, {"name": "StatefulPartitionedCall/model_105/mn_expanded_conv_expanded_conv_6_depthwise_pad/Pad/paddings", "op": "Const", "attr": {"dtype": {"type": "DT_INT32"}, "value": {"tensor": {"dtype": "DT_INT32", "tensorShape": {"dim": [{"size": "4"}, {"size": "2"}]}}}}}, {"name": "StatefulPartitionedCall/model_105/mn_avg_pool/Mean/reduction_indices", "op": "Const", "attr": {"value": {"tensor": {"dtype": "DT_INT32", "tensorShape": {"dim": [{"size": "2"}]}}}, "dtype": {"type": "DT_INT32"}}}, {"name": "StatefulPartitionedCall/model_105/mn_dense/MatMul/ReadVariableOp", "op": "Const", "attr": {"value": {"tensor": {"dtype": "DT_FLOAT", "tensorShape": {"dim": [{"size": "384"}, {"size": "512"}]}}}, "dtype": {"type": "DT_FLOAT"}}}, {"name": "StatefulPartitionedCall/model_105/mn_dense/BiasAdd/ReadVariableOp", "op": "Const", "attr": {"value": {"tensor": {"dtype": "DT_FLOAT", "tensorShape": {"dim": [{"size": "512"}]}}}, "dtype": {"type": "DT_FLOAT"}}}, {"name": "StatefulPartitionedCall/model_105/mouth_nose/MatMul/ReadVariableOp", "op": "Const", "attr": {"dtype": {"type": "DT_FLOAT"}, "value": {"tensor": {"dtype": "DT_FLOAT", "tensorShape": {"dim": [{"size": "512"}, {"size": "22"}]}}}}}, {"name": "StatefulPartitionedCall/model_105/mouth_nose/BiasAdd/ReadVariableOp", "op": "Const", "attr": {"dtype": {"type": "DT_FLOAT"}, "value": {"tensor": {"dtype": "DT_FLOAT", "tensorShape": {"dim": [{"size": "22"}]}}}}}, {"name": "StatefulPartitionedCall/model_105/merged_blendshapes/ExpandDims_1/dim", "op": "Const", "attr": {"value": {"tensor": {"dtype": "DT_INT32", "tensorShape": {}}}, "dtype": {"type": "DT_INT32"}}}, {"name": "StatefulPartitionedCall/model_105/merged_blendshapes/StridedSlice_1/begin", "op": "Const", "attr": {"dtype": {"type": "DT_INT32"}, "value": {"tensor": {"dtype": "DT_INT32", "tensorShape": {"dim": [{"size": "3"}]}}}}}, {"name": "StatefulPartitionedCall/model_105/merged_blendshapes/StridedSlice_1/end", "op": "Const", "attr": {"value": {"tensor": {"dtype": "DT_INT32", "tensorShape": {"dim": [{"size": "3"}]}}}, "dtype": {"type": "DT_INT32"}}}, {"name": "StatefulPartitionedCall/model_105/merged_blendshapes/ones_like_1", "op": "Const", "attr": {"value": {"tensor": {"dtype": "DT_INT32", "tensorShape": {"dim": [{"size": "3"}]}}}, "dtype": {"type": "DT_INT32"}}}, {"name": "StatefulPartitionedCall/model_105/gaze_eyes_brows_align/PartitionedCall_1/strided_slice_1/stack", "op": "Const", "attr": {"value": {"tensor": {"dtype": "DT_INT32", "tensorShape": {"dim": [{"size": "2"}]}}}, "dtype": {"type": "DT_INT32"}}}, {"name": "StatefulPartitionedCall/model_105/gaze_eyes_brows_align/PartitionedCall_1/strided_slice_1/stack_1", "op": "Const", "attr": {"value": {"tensor": {"dtype": "DT_INT32", "tensorShape": {"dim": [{"size": "2"}]}}}, "dtype": {"type": "DT_INT32"}}}, {"name": "StatefulPartitionedCall/model_105/gaze_eyes_brows_align/PartitionedCall_1/strided_slice_1/stack_2", "op": "Const", "attr": {"dtype": {"type": "DT_INT32"}, "value": {"tensor": {"dtype": "DT_INT32", "tensorShape": {"dim": [{"size": "2"}]}}}}}, {"name": "StatefulPartitionedCall/model_105/gaze_eyes_brows_align/PartitionedCall_1/strided_slice_2/stack", "op": "Const", "attr": {"value": {"tensor": {"dtype": "DT_INT32", "tensorShape": {"dim": [{"size": "2"}]}}}, "dtype": {"type": "DT_INT32"}}}, {"name": "StatefulPartitionedCall/model_105/gaze_eyes_brows_align/PartitionedCall_1/strided_slice_2/stack_1", "op": "Const", "attr": {"dtype": {"type": "DT_INT32"}, "value": {"tensor": {"dtype": "DT_INT32", "tensorShape": {"dim": [{"size": "2"}]}}}}}, {"name": "StatefulPartitionedCall/model_105/gaze_eyes_brows_align/PartitionedCall_1/strided_slice_2/stack_2", "op": "Const", "attr": {"value": {"tensor": {"dtype": "DT_INT32", "tensorShape": {"dim": [{"size": "2"}]}}}, "dtype": {"type": "DT_INT32"}}}, {"name": "StatefulPartitionedCall/model_105/gaze_eyes_brows_align/PartitionedCall_1/strided_slice_3/stack", "op": "Const", "attr": {"value": {"tensor": {"dtype": "DT_INT32", "tensorShape": {"dim": [{"size": "2"}]}}}, "dtype": {"type": "DT_INT32"}}}, {"name": "StatefulPartitionedCall/model_105/gaze_eyes_brows_align/PartitionedCall_1/strided_slice_3/stack_1", "op": "Const", "attr": {"dtype": {"type": "DT_INT32"}, "value": {"tensor": {"dtype": "DT_INT32", "tensorShape": {"dim": [{"size": "2"}]}}}}}, {"name": "StatefulPartitionedCall/model_105/gaze_eyes_brows_align/PartitionedCall_1/strided_slice_3/stack_2", "op": "Const", "attr": {"value": {"tensor": {"dtype": "DT_INT32", "tensorShape": {"dim": [{"size": "2"}]}}}, "dtype": {"type": "DT_INT32"}}}, {"name": "StatefulPartitionedCall/model_105/gaze_eyes_brows_align/PartitionedCall/zeros", "op": "Const", "attr": {"value": {"tensor": {"dtype": "DT_FLOAT", "tensorShape": {"dim": [{"size": "1"}, {"size": "1"}, {"size": "2"}]}}}, "dtype": {"type": "DT_FLOAT"}}}, {"name": "StatefulPartitionedCall/model_105/gaze_eyes_brows_align/PartitionedCall/Const_1", "op": "Const", "attr": {"value": {"tensor": {"dtype": "DT_FLOAT", "tensorShape": {}}}, "dtype": {"type": "DT_FLOAT"}}}, {"name": "StatefulPartitionedCall/model_105/gaze_eyes_brows_align/PartitionedCall/strided_slice_5/stack", "op": "Const", "attr": {"value": {"tensor": {"dtype": "DT_INT32", "tensorShape": {"dim": [{"size": "3"}]}}}, "dtype": {"type": "DT_INT32"}}}, {"name": "StatefulPartitionedCall/model_105/gaze_eyes_brows_align/PartitionedCall/strided_slice_5/stack_1", "op": "Const", "attr": {"value": {"tensor": {"dtype": "DT_INT32", "tensorShape": {"dim": [{"size": "3"}]}}}, "dtype": {"type": "DT_INT32"}}}, {"name": "StatefulPartitionedCall/model_105/gaze_eyes_brows_align/PartitionedCall/strided_slice_5/stack_2", "op": "Const", "attr": {"dtype": {"type": "DT_INT32"}, "value": {"tensor": {"dtype": "DT_INT32", "tensorShape": {"dim": [{"size": "3"}]}}}}}, {"name": "StatefulPartitionedCall/model_105/gaze_eyes_brows_align/PartitionedCall/Mul_4/y", "op": "Const", "attr": {"dtype": {"type": "DT_FLOAT"}, "value": {"tensor": {"dtype": "DT_FLOAT", "tensorShape": {}}}}}, {"name": "StatefulPartitionedCall/model_105/gaze_eyes_brows_align/PartitionedCall/Const_2", "op": "Const", "attr": {"dtype": {"type": "DT_FLOAT"}, "value": {"tensor": {"dtype": "DT_FLOAT", "tensorShape": {"dim": [{"size": "1"}, {"size": "2"}]}}}}}, {"name": "StatefulPartitionedCall/model_105/gaze_eyes_brows_align/PartitionedCall/Max/reduction_indices", "op": "Const", "attr": {"dtype": {"type": "DT_INT32"}, "value": {"tensor": {"dtype": "DT_INT32", "tensorShape": {}}}}}, {"name": "StatefulPartitionedCall/model_105/gaze_eyes_brows_align/PartitionedCall/GatherV2/indices", "op": "Const", "attr": {"dtype": {"type": "DT_INT32"}, "value": {"tensor": {"dtype": "DT_INT32", "tensorShape": {"dim": [{"size": "12"}]}}}}}, {"name": "StatefulPartitionedCall/model_105/gaze_eyes_brows_align/PartitionedCall/GatherV2/axis", "op": "Const", "attr": {"value": {"tensor": {"dtype": "DT_INT32", "tensorShape": {}}}, "dtype": {"type": "DT_INT32"}}}, {"name": "StatefulPartitionedCall/model_105/gaze_eyes_brows_align/PartitionedCall/strided_slice_4/stack", "op": "Const", "attr": {"value": {"tensor": {"dtype": "DT_INT32", "tensorShape": {"dim": [{"size": "3"}]}}}, "dtype": {"type": "DT_INT32"}}}, {"name": "StatefulPartitionedCall/model_105/gaze_eyes_brows_align/PartitionedCall/strided_slice_4/stack_1", "op": "Const", "attr": {"dtype": {"type": "DT_INT32"}, "value": {"tensor": {"dtype": "DT_INT32", "tensorShape": {"dim": [{"size": "3"}]}}}}}, {"name": "StatefulPartitionedCall/model_105/gaze_eyes_brows_align/PartitionedCall/strided_slice_4/stack_2", "op": "Const", "attr": {"dtype": {"type": "DT_INT32"}, "value": {"tensor": {"dtype": "DT_INT32", "tensorShape": {"dim": [{"size": "3"}]}}}}}, {"name": "StatefulPartitionedCall/model_105/keypoints_activation_base_dense_mobilenetv3_Dense/MatMul/ReadVariableOp", "op": "Const", "attr": {"dtype": {"type": "DT_FLOAT"}, "value": {"tensor": {"dtype": "DT_FLOAT", "tensorShape": {"dim": [{"size": "528"}, {"size": "768"}]}}}}}, {"name": "StatefulPartitionedCall/model_105/keypoints_activation_base_dense_mobilenetv3_Dense/BiasAdd/ReadVariableOp", "op": "Const", "attr": {"dtype": {"type": "DT_FLOAT"}, "value": {"tensor": {"dtype": "DT_FLOAT", "tensorShape": {"dim": [{"size": "768"}]}}}}}, {"name": "StatefulPartitionedCall/model_105/keypoints_activation/MatMul/ReadVariableOp", "op": "Const", "attr": {"dtype": {"type": "DT_FLOAT"}, "value": {"tensor": {"dtype": "DT_FLOAT", "tensorShape": {"dim": [{"size": "768"}, {"size": "136"}]}}}}}, {"name": "StatefulPartitionedCall/model_105/keypoints_activation/BiasAdd/ReadVariableOp", "op": "Const", "attr": {"dtype": {"type": "DT_FLOAT"}, "value": {"tensor": {"dtype": "DT_FLOAT", "tensorShape": {"dim": [{"size": "136"}]}}}}}, {"name": "StatefulPartitionedCall/model_105/gaze_eyes_brows_align/Reshape/shape", "op": "Const", "attr": {"dtype": {"type": "DT_INT32"}, "value": {"tensor": {"dtype": "DT_INT32", "tensorShape": {"dim": [{"size": "4"}]}}}}}, {"name": "StatefulPartitionedCall/model_105/gaze_eyes_brows_align/mul/y", "op": "Const", "attr": {"dtype": {"type": "DT_FLOAT"}, "value": {"tensor": {"dtype": "DT_FLOAT", "tensorShape": {}}}}}, {"name": "StatefulPartitionedCall/model_105/gaze_eyes_brows_align/zeros", "op": "Const", "attr": {"dtype": {"type": "DT_FLOAT"}, "value": {"tensor": {"dtype": "DT_FLOAT", "tensorShape": {"dim": [{"size": "1"}, {"size": "1"}, {"size": "68"}, {"size": "1"}]}}}}}, {"name": "StatefulPartitionedCall/model_105/gaze_eyes_brows_align/concat/axis", "op": "Const", "attr": {"dtype": {"type": "DT_INT32"}, "value": {"tensor": {"dtype": "DT_INT32", "tensorShape": {}}}}}, {"name": "StatefulPartitionedCall/model_105/gaze_eyes_brows_align/PartitionedCall/Reshape/shape", "op": "Const", "attr": {"dtype": {"type": "DT_INT32"}, "value": {"tensor": {"dtype": "DT_INT32", "tensorShape": {"dim": [{"size": "3"}]}}}}}, {"name": "StatefulPartitionedCall/model_105/gaze_eyes_brows_align/PartitionedCall/strided_slice_2/stack", "op": "Const", "attr": {"value": {"tensor": {"dtype": "DT_INT32", "tensorShape": {"dim": [{"size": "3"}]}}}, "dtype": {"type": "DT_INT32"}}}, {"name": "StatefulPartitionedCall/model_105/gaze_eyes_brows_align/PartitionedCall/strided_slice_2/stack_1", "op": "Const", "attr": {"value": {"tensor": {"dtype": "DT_INT32", "tensorShape": {"dim": [{"size": "3"}]}}}, "dtype": {"type": "DT_INT32"}}}, {"name": "StatefulPartitionedCall/model_105/gaze_eyes_brows_align/PartitionedCall/strided_slice_2/stack_2", "op": "Const", "attr": {"dtype": {"type": "DT_INT32"}, "value": {"tensor": {"dtype": "DT_INT32", "tensorShape": {"dim": [{"size": "3"}]}}}}}, {"name": "StatefulPartitionedCall/model_105/gaze_eyes_brows_align/PartitionedCall/strided_slice_3/stack", "op": "Const", "attr": {"value": {"tensor": {"dtype": "DT_INT32", "tensorShape": {"dim": [{"size": "3"}]}}}, "dtype": {"type": "DT_INT32"}}}, {"name": "StatefulPartitionedCall/model_105/gaze_eyes_brows_align/PartitionedCall/strided_slice_3/stack_1", "op": "Const", "attr": {"value": {"tensor": {"dtype": "DT_INT32", "tensorShape": {"dim": [{"size": "3"}]}}}, "dtype": {"type": "DT_INT32"}}}, {"name": "StatefulPartitionedCall/model_105/gaze_eyes_brows_align/PartitionedCall/strided_slice_3/stack_2", "op": "Const", "attr": {"value": {"tensor": {"dtype": "DT_INT32", "tensorShape": {"dim": [{"size": "3"}]}}}, "dtype": {"type": "DT_INT32"}}}, {"name": "StatefulPartitionedCall/model_105/gaze_eyes_brows_align/PartitionedCall/norm/Sum/reduction_indices", "op": "Const", "attr": {"dtype": {"type": "DT_INT32"}, "value": {"tensor": {"dtype": "DT_INT32", "tensorShape": {"dim": [{"size": "1"}]}}}}}, {"name": "StatefulPartitionedCall/model_105/gaze_eyes_brows_align/PartitionedCall/Const", "op": "Const", "attr": {"value": {"tensor": {"dtype": "DT_FLOAT", "tensorShape": {"dim": [{"size": "2"}, {"size": "2"}]}}}, "dtype": {"type": "DT_FLOAT"}}}, {"name": "StatefulPartitionedCall/model_105/gaze_eyes_brows_align/PartitionedCall/concat/axis", "op": "Const", "attr": {"dtype": {"type": "DT_INT32"}, "value": {"tensor": {"dtype": "DT_INT32", "tensorShape": {}}}}}, {"name": "StatefulPartitionedCall/model_105/gaze_eyes_brows_align/PartitionedCall/Min/reduction_indices", "op": "Const", "attr": {"dtype": {"type": "DT_INT32"}, "value": {"tensor": {"dtype": "DT_INT32", "tensorShape": {}}}}}, {"name": "StatefulPartitionedCall/model_105/gaze_eyes_brows_align/PartitionedCall/strided_slice_6/stack", "op": "Const", "attr": {"dtype": {"type": "DT_INT32"}, "value": {"tensor": {"dtype": "DT_INT32", "tensorShape": {"dim": [{"size": "3"}]}}}}}, {"name": "StatefulPartitionedCall/model_105/gaze_eyes_brows_align/PartitionedCall/strided_slice_6/stack_1", "op": "Const", "attr": {"value": {"tensor": {"dtype": "DT_INT32", "tensorShape": {"dim": [{"size": "3"}]}}}, "dtype": {"type": "DT_INT32"}}}, {"name": "StatefulPartitionedCall/model_105/gaze_eyes_brows_align/PartitionedCall/strided_slice_6/stack_2", "op": "Const", "attr": {"value": {"tensor": {"dtype": "DT_INT32", "tensorShape": {"dim": [{"size": "3"}]}}}, "dtype": {"type": "DT_INT32"}}}, {"name": "StatefulPartitionedCall/model_105/gaze_eyes_brows_align/PartitionedCall/Mul_5/y", "op": "Const", "attr": {"value": {"tensor": {"dtype": "DT_FLOAT", "tensorShape": {}}}, "dtype": {"type": "DT_FLOAT"}}}, {"name": "StatefulPartitionedCall/model_105/gaze_eyes_brows_align/PartitionedCall/concat_1/axis", "op": "Const", "attr": {"value": {"tensor": {"dtype": "DT_INT32", "tensorShape": {}}}, "dtype": {"type": "DT_INT32"}}}, {"name": "StatefulPartitionedCall/model_105/gaze_eyes_brows_align/PartitionedCall/transpose_1/perm", "op": "Const", "attr": {"dtype": {"type": "DT_INT32"}, "value": {"tensor": {"dtype": "DT_INT32", "tensorShape": {"dim": [{"size": "3"}]}}}}}, {"name": "StatefulPartitionedCall/model_105/gaze_eyes_brows_align/PartitionedCall/Tile", "op": "Const", "attr": {"value": {"tensor": {"dtype": "DT_FLOAT", "tensorShape": {"dim": [{"size": "1"}, {"size": "2"}, {"size": "4"}]}}}, "dtype": {"type": "DT_FLOAT"}}}, {"name": "StatefulPartitionedCall/model_105/gaze_eyes_brows_align/PartitionedCall/concat_2/axis", "op": "Const", "attr": {"dtype": {"type": "DT_INT32"}, "value": {"tensor": {"dtype": "DT_INT32", "tensorShape": {}}}}}, {"name": "StatefulPartitionedCall/model_105/gaze_eyes_brows_align/PartitionedCall_1/Reshape/shape", "op": "Const", "attr": {"dtype": {"type": "DT_INT32"}, "value": {"tensor": {"dtype": "DT_INT32", "tensorShape": {"dim": [{"size": "2"}]}}}}}, {"name": "StatefulPartitionedCall/model_105/gaze_eyes_brows_align/PartitionedCall_1/strided_slice_4/stack", "op": "Const", "attr": {"value": {"tensor": {"dtype": "DT_INT32", "tensorShape": {"dim": [{"size": "2"}]}}}, "dtype": {"type": "DT_INT32"}}}, {"name": "StatefulPartitionedCall/model_105/gaze_eyes_brows_align/PartitionedCall_1/strided_slice_4/stack_1", "op": "Const", "attr": {"dtype": {"type": "DT_INT32"}, "value": {"tensor": {"dtype": "DT_INT32", "tensorShape": {"dim": [{"size": "2"}]}}}}}, {"name": "StatefulPartitionedCall/model_105/gaze_eyes_brows_align/PartitionedCall_1/strided_slice_4/stack_2", "op": "Const", "attr": {"value": {"tensor": {"dtype": "DT_INT32", "tensorShape": {"dim": [{"size": "2"}]}}}, "dtype": {"type": "DT_INT32"}}}, {"name": "StatefulPartitionedCall/model_105/gaze_eyes_brows_align/PartitionedCall_1/concat/axis", "op": "Const", "attr": {"dtype": {"type": "DT_INT32"}, "value": {"tensor": {"dtype": "DT_INT32", "tensorShape": {}}}}}, {"name": "StatefulPartitionedCall/model_105/gaze_eyes_brows_align/PartitionedCall_1/transform/output_shape", "op": "Const", "attr": {"dtype": {"type": "DT_INT32"}, "value": {"tensor": {"dtype": "DT_INT32", "tensorShape": {"dim": [{"size": "2"}]}}}}}, {"name": "StatefulPartitionedCall/model_105/gaze_eyes_brows_align/PartitionedCall_1/transform/fill_value", "op": "Const", "attr": {"value": {"tensor": {"dtype": "DT_FLOAT", "tensorShape": {}}}, "dtype": {"type": "DT_FLOAT"}}}, {"name": "StatefulPartitionedCall/model_105/gaze_eyes_brows_simple_crop/strided_slice_2/stack", "op": "Const", "attr": {"dtype": {"type": "DT_INT32"}, "value": {"tensor": {"dtype": "DT_INT32", "tensorShape": {"dim": [{"size": "4"}]}}}}}, {"name": "StatefulPartitionedCall/model_105/gaze_eyes_brows_simple_crop/strided_slice_2/stack_1", "op": "Const", "attr": {"dtype": {"type": "DT_INT32"}, "value": {"tensor": {"dtype": "DT_INT32", "tensorShape": {"dim": [{"size": "4"}]}}}}}, {"name": "StatefulPartitionedCall/model_105/gaze_eyes_brows_simple_crop/strided_slice_2/stack_2", "op": "Const", "attr": {"dtype": {"type": "DT_INT32"}, "value": {"tensor": {"dtype": "DT_INT32", "tensorShape": {"dim": [{"size": "4"}]}}}}}, {"name": "StatefulPartitionedCall/model_105/geb_expanded_conv_expanded_conv_1_depthwise_pad/Pad/paddings", "op": "Const", "attr": {"value": {"tensor": {"dtype": "DT_INT32", "tensorShape": {"dim": [{"size": "4"}, {"size": "2"}]}}}, "dtype": {"type": "DT_INT32"}}}, {"name": "StatefulPartitionedCall/model_105/geb_expanded_conv_expanded_conv_3_depthwise_pad/Pad/paddings", "op": "Const", "attr": {"dtype": {"type": "DT_INT32"}, "value": {"tensor": {"dtype": "DT_INT32", "tensorShape": {"dim": [{"size": "4"}, {"size": "2"}]}}}}}, {"name": "StatefulPartitionedCall/model_105/geb_expanded_conv_expanded_conv_6_depthwise_pad/Pad/paddings", "op": "Const", "attr": {"value": {"tensor": {"dtype": "DT_INT32", "tensorShape": {"dim": [{"size": "4"}, {"size": "2"}]}}}, "dtype": {"type": "DT_INT32"}}}, {"name": "StatefulPartitionedCall/model_105/geb_avg_pool/Mean/reduction_indices", "op": "Const", "attr": {"dtype": {"type": "DT_INT32"}, "value": {"tensor": {"dtype": "DT_INT32", "tensorShape": {"dim": [{"size": "2"}]}}}}}, {"name": "StatefulPartitionedCall/model_105/geb_dense/MatMul/ReadVariableOp", "op": "Const", "attr": {"dtype": {"type": "DT_FLOAT"}, "value": {"tensor": {"dtype": "DT_FLOAT", "tensorShape": {"dim": [{"size": "384"}, {"size": "512"}]}}}}}, {"name": "StatefulPartitionedCall/model_105/geb_dense/BiasAdd/ReadVariableOp", "op": "Const", "attr": {"value": {"tensor": {"dtype": "DT_FLOAT", "tensorShape": {"dim": [{"size": "512"}]}}}, "dtype": {"type": "DT_FLOAT"}}}, {"name": "StatefulPartitionedCall/model_105/gaze_eyes_brows/MatMul/ReadVariableOp", "op": "Const", "attr": {"dtype": {"type": "DT_FLOAT"}, "value": {"tensor": {"dtype": "DT_FLOAT", "tensorShape": {"dim": [{"size": "512"}, {"size": "20"}]}}}}}, {"name": "StatefulPartitionedCall/model_105/gaze_eyes_brows/BiasAdd/ReadVariableOp", "op": "Const", "attr": {"dtype": {"type": "DT_FLOAT"}, "value": {"tensor": {"dtype": "DT_FLOAT", "tensorShape": {"dim": [{"size": "20"}]}}}}}, {"name": "StatefulPartitionedCall/model_105/merged_blendshapes/ExpandDims/dim", "op": "Const", "attr": {"value": {"tensor": {"dtype": "DT_INT32", "tensorShape": {}}}, "dtype": {"type": "DT_INT32"}}}, {"name": "StatefulPartitionedCall/model_105/merged_blendshapes/StridedSlice_2/begin", "op": "Const", "attr": {"dtype": {"type": "DT_INT32"}, "value": {"tensor": {"dtype": "DT_INT32", "tensorShape": {"dim": [{"size": "3"}]}}}}}, {"name": "StatefulPartitionedCall/model_105/merged_blendshapes/StridedSlice_2/end", "op": "Const", "attr": {"dtype": {"type": "DT_INT32"}, "value": {"tensor": {"dtype": "DT_INT32", "tensorShape": {"dim": [{"size": "3"}]}}}}}, {"name": "StatefulPartitionedCall/model_105/merged_blendshapes/ones_like_2", "op": "Const", "attr": {"value": {"tensor": {"dtype": "DT_INT32", "tensorShape": {"dim": [{"size": "3"}]}}}, "dtype": {"type": "DT_INT32"}}}, {"name": "StatefulPartitionedCall/model_105/merged_blendshapes/concat/axis", "op": "Const", "attr": {"dtype": {"type": "DT_INT32"}, "value": {"tensor": {"dtype": "DT_INT32", "tensorShape": {}}}}}, {"name": "StatefulPartitionedCall/model_105/face_base_dense_mobilenetv3_Dense/MatMul/ReadVariableOp", "op": "Const", "attr": {"value": {"tensor": {"dtype": "DT_FLOAT", "tensorShape": {"dim": [{"size": "528"}, {"size": "768"}]}}}, "dtype": {"type": "DT_FLOAT"}}}, {"name": "StatefulPartitionedCall/model_105/face_base_dense_mobilenetv3_Dense/BiasAdd/ReadVariableOp", "op": "Const", "attr": {"value": {"tensor": {"dtype": "DT_FLOAT", "tensorShape": {"dim": [{"size": "768"}]}}}, "dtype": {"type": "DT_FLOAT"}}}, {"name": "StatefulPartitionedCall/model_105/face/MatMul/ReadVariableOp", "op": "Const", "attr": {"dtype": {"type": "DT_FLOAT"}, "value": {"tensor": {"dtype": "DT_FLOAT", "tensorShape": {"dim": [{"size": "768"}, {"size": "1"}]}}}}}, {"name": "StatefulPartitionedCall/model_105/face/BiasAdd/ReadVariableOp", "op": "Const", "attr": {"dtype": {"type": "DT_FLOAT"}, "value": {"tensor": {"dtype": "DT_FLOAT", "tensorShape": {"dim": [{"size": "1"}]}}}}}, {"name": "StatefulPartitionedCall/model_105/base_resize_to_128x128/Const", "op": "Const", "attr": {"dtype": {"type": "DT_INT32"}, "value": {"tensor": {"dtype": "DT_INT32", "tensorShape": {"dim": [{"size": "2"}]}}}}}, {"name": "StatefulPartitionedCall/model_105/base_scaling_with_scale_2_offset_-1/Cast", "op": "Const", "attr": {"value": {"tensor": {"dtype": "DT_FLOAT", "tensorShape": {}}}, "dtype": {"type": "DT_FLOAT"}}}, {"name": "StatefulPartitionedCall/model_105/base_scaling_with_scale_2_offset_-1/Cast_1", "op": "Const", "attr": {"value": {"tensor": {"dtype": "DT_FLOAT", "tensorShape": {}}}, "dtype": {"type": "DT_FLOAT"}}}, {"name": "StatefulPartitionedCall/model_105/expanded_conv/depthwise/pad/Pad/paddings", "op": "Const", "attr": {"dtype": {"type": "DT_INT32"}, "value": {"tensor": {"dtype": "DT_INT32", "tensorShape": {"dim": [{"size": "4"}, {"size": "2"}]}}}}}, {"name": "StatefulPartitionedCall/model_105/expanded_conv_1/depthwise/pad/Pad/paddings", "op": "Const", "attr": {"value": {"tensor": {"dtype": "DT_INT32", "tensorShape": {"dim": [{"size": "4"}, {"size": "2"}]}}}, "dtype": {"type": "DT_INT32"}}}, {"name": "StatefulPartitionedCall/model_105/expanded_conv_3/depthwise/pad/Pad/paddings", "op": "Const", "attr": {"dtype": {"type": "DT_INT32"}, "value": {"tensor": {"dtype": "DT_INT32", "tensorShape": {"dim": [{"size": "4"}, {"size": "2"}]}}}}}, {"name": "StatefulPartitionedCall/model_105/avg_pool/Mean/reduction_indices", "op": "Const", "attr": {"value": {"tensor": {"dtype": "DT_INT32", "tensorShape": {"dim": [{"size": "2"}]}}}, "dtype": {"type": "DT_INT32"}}}, {"name": "StatefulPartitionedCall/model_105/transforms_activation_base_dense_mobilenetv3_Dense/MatMul/ReadVariableOp", "op": "Const", "attr": {"dtype": {"type": "DT_FLOAT"}, "value": {"tensor": {"dtype": "DT_FLOAT", "tensorShape": {"dim": [{"size": "528"}, {"size": "768"}]}}}}}, {"name": "StatefulPartitionedCall/model_105/transforms_activation_base_dense_mobilenetv3_Dense/BiasAdd/ReadVariableOp", "op": "Const", "attr": {"value": {"tensor": {"dtype": "DT_FLOAT", "tensorShape": {"dim": [{"size": "768"}]}}}, "dtype": {"type": "DT_FLOAT"}}}, {"name": "StatefulPartitionedCall/model_105/transforms_activation/MatMul/ReadVariableOp", "op": "Const", "attr": {"value": {"tensor": {"dtype": "DT_FLOAT", "tensorShape": {"dim": [{"size": "768"}, {"size": "20"}]}}}, "dtype": {"type": "DT_FLOAT"}}}, {"name": "StatefulPartitionedCall/model_105/transforms_activation/BiasAdd/ReadVariableOp", "op": "Const", "attr": {"dtype": {"type": "DT_FLOAT"}, "value": {"tensor": {"dtype": "DT_FLOAT", "tensorShape": {"dim": [{"size": "20"}]}}}}}, {"name": "input", "op": "Placeholder", "attr": {"shape": {"shape": {"dim": [{"size": "1"}, {"size": "256"}, {"size": "256"}, {"size": "3"}]}}, "dtype": {"type": "DT_FLOAT"}}}, {"name": "StatefulPartitionedCall/model_105/Conv/Conv2D_weights", "op": "Const", "attr": {"dtype": {"type": "DT_FLOAT"}, "value": {"tensor": {"dtype": "DT_FLOAT", "tensorShape": {"dim": [{"size": "3"}, {"size": "3"}, {"size": "3"}, {"size": "16"}]}}}}}, {"name": "StatefulPartitionedCall/model_105/Conv/Conv2D_bn_offset", "op": "Const", "attr": {"dtype": {"type": "DT_FLOAT"}, "value": {"tensor": {"dtype": "DT_FLOAT", "tensorShape": {"dim": [{"size": "16"}]}}}}}, {"name": "StatefulPartitionedCall/model_105/expanded_conv/depthwise/depthwise_weights", "op": "Const", "attr": {"dtype": {"type": "DT_FLOAT"}, "value": {"tensor": {"dtype": "DT_FLOAT", "tensorShape": {"dim": [{"size": "3"}, {"size": "3"}, {"size": "16"}, {"size": "1"}]}}}}}, {"name": "StatefulPartitionedCall/model_105/expanded_conv/depthwise/depthwise_bn_offset", "op": "Const", "attr": {"dtype": {"type": "DT_FLOAT"}, "value": {"tensor": {"dtype": "DT_FLOAT", "tensorShape": {"dim": [{"size": "16"}]}}}}}, {"name": "StatefulPartitionedCall/model_105/expanded_conv/project/Conv2D_weights", "op": "Const", "attr": {"value": {"tensor": {"dtype": "DT_FLOAT", "tensorShape": {"dim": [{"size": "1"}, {"size": "1"}, {"size": "16"}, {"size": "32"}]}}}, "dtype": {"type": "DT_FLOAT"}}}, {"name": "StatefulPartitionedCall/model_105/geb_expanded_conv_expanded_conv_9_expand/Conv2D_weights", "op": "Const", "attr": {"dtype": {"type": "DT_FLOAT"}, "value": {"tensor": {"dtype": "DT_FLOAT", "tensorShape": {"dim": [{"size": "1"}, {"size": "1"}, {"size": "48"}, {"size": "112"}]}}}}}, {"name": "StatefulPartitionedCall/model_105/expanded_conv/project/Conv2D_bn_offset", "op": "Const", "attr": {"dtype": {"type": "DT_FLOAT"}, "value": {"tensor": {"dtype": "DT_FLOAT", "tensorShape": {"dim": [{"size": "32"}]}}}}}, {"name": "StatefulPartitionedCall/model_105/expanded_conv_1/expand/Conv2D_weights", "op": "Const", "attr": {"value": {"tensor": {"dtype": "DT_FLOAT", "tensorShape": {"dim": [{"size": "1"}, {"size": "1"}, {"size": "32"}, {"size": "144"}]}}}, "dtype": {"type": "DT_FLOAT"}}}, {"name": "StatefulPartitionedCall/model_105/expanded_conv_1/expand/Conv2D_bn_offset", "op": "Const", "attr": {"value": {"tensor": {"dtype": "DT_FLOAT", "tensorShape": {"dim": [{"size": "144"}]}}}, "dtype": {"type": "DT_FLOAT"}}}, {"name": "StatefulPartitionedCall/model_105/geb_expanded_conv_expanded_conv_9_expand/Conv2D_bn_offset", "op": "Const", "attr": {"dtype": {"type": "DT_FLOAT"}, "value": {"tensor": {"dtype": "DT_FLOAT", "tensorShape": {"dim": [{"size": "112"}]}}}}}, {"name": "StatefulPartitionedCall/model_105/expanded_conv_1/depthwise/depthwise_weights", "op": "Const", "attr": {"dtype": {"type": "DT_FLOAT"}, "value": {"tensor": {"dtype": "DT_FLOAT", "tensorShape": {"dim": [{"size": "3"}, {"size": "3"}, {"size": "144"}, {"size": "1"}]}}}}}, {"name": "StatefulPartitionedCall/model_105/expanded_conv_1/depthwise/depthwise_bn_offset", "op": "Const", "attr": {"value": {"tensor": {"dtype": "DT_FLOAT", "tensorShape": {"dim": [{"size": "144"}]}}}, "dtype": {"type": "DT_FLOAT"}}}, {"name": "StatefulPartitionedCall/model_105/expanded_conv_1/project/Conv2D_weights", "op": "Const", "attr": {"value": {"tensor": {"dtype": "DT_FLOAT", "tensorShape": {"dim": [{"size": "1"}, {"size": "1"}, {"size": "144"}, {"size": "40"}]}}}, "dtype": {"type": "DT_FLOAT"}}}, {"name": "StatefulPartitionedCall/model_105/expanded_conv_1/project/Conv2D_bn_offset", "op": "Const", "attr": {"value": {"tensor": {"dtype": "DT_FLOAT", "tensorShape": {"dim": [{"size": "40"}]}}}, "dtype": {"type": "DT_FLOAT"}}}, {"name": "StatefulPartitionedCall/model_105/expanded_conv_2/expand/Conv2D_weights", "op": "Const", "attr": {"dtype": {"type": "DT_FLOAT"}, "value": {"tensor": {"dtype": "DT_FLOAT", "tensorShape": {"dim": [{"size": "1"}, {"size": "1"}, {"size": "40"}, {"size": "144"}]}}}}}, {"name": "StatefulPartitionedCall/model_105/expanded_conv_2/expand/Conv2D_bn_offset", "op": "Const", "attr": {"value": {"tensor": {"dtype": "DT_FLOAT", "tensorShape": {"dim": [{"size": "144"}]}}}, "dtype": {"type": "DT_FLOAT"}}}, {"name": "StatefulPartitionedCall/model_105/mn_expanded_conv_expanded_conv_9_depthwise/depthwise_weights", "op": "Const", "attr": {"value": {"tensor": {"dtype": "DT_FLOAT", "tensorShape": {"dim": [{"size": "3"}, {"size": "3"}, {"size": "112"}, {"size": "1"}]}}}, "dtype": {"type": "DT_FLOAT"}}}, {"name": "StatefulPartitionedCall/model_105/expanded_conv_2/depthwise/depthwise_weights", "op": "Const", "attr": {"value": {"tensor": {"dtype": "DT_FLOAT", "tensorShape": {"dim": [{"size": "3"}, {"size": "3"}, {"size": "144"}, {"size": "1"}]}}}, "dtype": {"type": "DT_FLOAT"}}}, {"name": "StatefulPartitionedCall/model_105/expanded_conv_2/depthwise/depthwise_bn_offset", "op": "Const", "attr": {"dtype": {"type": "DT_FLOAT"}, "value": {"tensor": {"dtype": "DT_FLOAT", "tensorShape": {"dim": [{"size": "144"}]}}}}}, {"name": "StatefulPartitionedCall/model_105/expanded_conv_2/project/Conv2D_weights", "op": "Const", "attr": {"value": {"tensor": {"dtype": "DT_FLOAT", "tensorShape": {"dim": [{"size": "1"}, {"size": "1"}, {"size": "144"}, {"size": "40"}]}}}, "dtype": {"type": "DT_FLOAT"}}}, {"name": "StatefulPartitionedCall/model_105/expanded_conv_2/project/Conv2D_bn_offset", "op": "Const", "attr": {"value": {"tensor": {"dtype": "DT_FLOAT", "tensorShape": {"dim": [{"size": "40"}]}}}, "dtype": {"type": "DT_FLOAT"}}}, {"name": "StatefulPartitionedCall/model_105/expanded_conv_3/expand/Conv2D_weights", "op": "Const", "attr": {"dtype": {"type": "DT_FLOAT"}, "value": {"tensor": {"dtype": "DT_FLOAT", "tensorShape": {"dim": [{"size": "1"}, {"size": "1"}, {"size": "40"}, {"size": "160"}]}}}}}, {"name": "StatefulPartitionedCall/model_105/mn_expanded_conv_expanded_conv_9_depthwise/depthwise_bn_offset", "op": "Const", "attr": {"value": {"tensor": {"dtype": "DT_FLOAT", "tensorShape": {"dim": [{"size": "112"}]}}}, "dtype": {"type": "DT_FLOAT"}}}, {"name": "StatefulPartitionedCall/model_105/expanded_conv_3/expand/Conv2D_bn_offset", "op": "Const", "attr": {"dtype": {"type": "DT_FLOAT"}, "value": {"tensor": {"dtype": "DT_FLOAT", "tensorShape": {"dim": [{"size": "160"}]}}}}}, {"name": "StatefulPartitionedCall/model_105/expanded_conv_3/depthwise/depthwise_weights", "op": "Const", "attr": {"dtype": {"type": "DT_FLOAT"}, "value": {"tensor": {"dtype": "DT_FLOAT", "tensorShape": {"dim": [{"size": "3"}, {"size": "3"}, {"size": "160"}, {"size": "1"}]}}}}}, {"name": "StatefulPartitionedCall/model_105/expanded_conv_3/depthwise/depthwise_bn_offset", "op": "Const", "attr": {"value": {"tensor": {"dtype": "DT_FLOAT", "tensorShape": {"dim": [{"size": "160"}]}}}, "dtype": {"type": "DT_FLOAT"}}}, {"name": "StatefulPartitionedCall/model_105/expanded_conv_3/project/Conv2D_weights", "op": "Const", "attr": {"value": {"tensor": {"dtype": "DT_FLOAT", "tensorShape": {"dim": [{"size": "1"}, {"size": "1"}, {"size": "160"}, {"size": "72"}]}}}, "dtype": {"type": "DT_FLOAT"}}}, {"name": "StatefulPartitionedCall/model_105/expanded_conv_3/project/Conv2D_bn_offset", "op": "Const", "attr": {"dtype": {"type": "DT_FLOAT"}, "value": {"tensor": {"dtype": "DT_FLOAT", "tensorShape": {"dim": [{"size": "72"}]}}}}}, {"name": "StatefulPartitionedCall/model_105/expanded_conv_4/expand/Conv2D_weights", "op": "Const", "attr": {"value": {"tensor": {"dtype": "DT_FLOAT", "tensorShape": {"dim": [{"size": "1"}, {"size": "1"}, {"size": "72"}, {"size": "432"}]}}}, "dtype": {"type": "DT_FLOAT"}}}, {"name": "StatefulPartitionedCall/model_105/geb_expanded_conv_expanded_conv_9_depthwise/depthwise_weights", "op": "Const", "attr": {"dtype": {"type": "DT_FLOAT"}, "value": {"tensor": {"dtype": "DT_FLOAT", "tensorShape": {"dim": [{"size": "3"}, {"size": "3"}, {"size": "112"}, {"size": "1"}]}}}}}, {"name": "StatefulPartitionedCall/model_105/expanded_conv_4/expand/Conv2D_bn_offset", "op": "Const", "attr": {"dtype": {"type": "DT_FLOAT"}, "value": {"tensor": {"dtype": "DT_FLOAT", "tensorShape": {"dim": [{"size": "432"}]}}}}}, {"name": "StatefulPartitionedCall/model_105/expanded_conv_4/depthwise/depthwise_weights", "op": "Const", "attr": {"dtype": {"type": "DT_FLOAT"}, "value": {"tensor": {"dtype": "DT_FLOAT", "tensorShape": {"dim": [{"size": "3"}, {"size": "3"}, {"size": "432"}, {"size": "1"}]}}}}}, {"name": "StatefulPartitionedCall/model_105/expanded_conv_4/depthwise/depthwise_bn_offset", "op": "Const", "attr": {"value": {"tensor": {"dtype": "DT_FLOAT", "tensorShape": {"dim": [{"size": "432"}]}}}, "dtype": {"type": "DT_FLOAT"}}}, {"name": "StatefulPartitionedCall/model_105/expanded_conv_4/project/Conv2D_weights", "op": "Const", "attr": {"dtype": {"type": "DT_FLOAT"}, "value": {"tensor": {"dtype": "DT_FLOAT", "tensorShape": {"dim": [{"size": "1"}, {"size": "1"}, {"size": "432"}, {"size": "72"}]}}}}}, {"name": "StatefulPartitionedCall/model_105/geb_expanded_conv_expanded_conv_9_depthwise/depthwise_bn_offset", "op": "Const", "attr": {"dtype": {"type": "DT_FLOAT"}, "value": {"tensor": {"dtype": "DT_FLOAT", "tensorShape": {"dim": [{"size": "112"}]}}}}}, {"name": "StatefulPartitionedCall/model_105/expanded_conv_4/project/Conv2D_bn_offset", "op": "Const", "attr": {"value": {"tensor": {"dtype": "DT_FLOAT", "tensorShape": {"dim": [{"size": "72"}]}}}, "dtype": {"type": "DT_FLOAT"}}}, {"name": "StatefulPartitionedCall/model_105/expanded_conv_5/expand/Conv2D_weights", "op": "Const", "attr": {"dtype": {"type": "DT_FLOAT"}, "value": {"tensor": {"dtype": "DT_FLOAT", "tensorShape": {"dim": [{"size": "1"}, {"size": "1"}, {"size": "72"}, {"size": "432"}]}}}}}, {"name": "StatefulPartitionedCall/model_105/expanded_conv_5/expand/Conv2D_bn_offset", "op": "Const", "attr": {"value": {"tensor": {"dtype": "DT_FLOAT", "tensorShape": {"dim": [{"size": "432"}]}}}, "dtype": {"type": "DT_FLOAT"}}}, {"name": "StatefulPartitionedCall/model_105/expanded_conv_5/depthwise/depthwise_weights", "op": "Const", "attr": {"dtype": {"type": "DT_FLOAT"}, "value": {"tensor": {"dtype": "DT_FLOAT", "tensorShape": {"dim": [{"size": "3"}, {"size": "3"}, {"size": "432"}, {"size": "1"}]}}}}}, {"name": "StatefulPartitionedCall/model_105/expanded_conv_5/depthwise/depthwise_bn_offset", "op": "Const", "attr": {"dtype": {"type": "DT_FLOAT"}, "value": {"tensor": {"dtype": "DT_FLOAT", "tensorShape": {"dim": [{"size": "432"}]}}}}}, {"name": "StatefulPartitionedCall/model_105/expanded_conv_5/project/Conv2D_weights", "op": "Const", "attr": {"dtype": {"type": "DT_FLOAT"}, "value": {"tensor": {"dtype": "DT_FLOAT", "tensorShape": {"dim": [{"size": "1"}, {"size": "1"}, {"size": "432"}, {"size": "72"}]}}}}}, {"name": "StatefulPartitionedCall/model_105/mn_expanded_conv_expanded_conv_9_project/Conv2D_weights", "op": "Const", "attr": {"dtype": {"type": "DT_FLOAT"}, "value": {"tensor": {"dtype": "DT_FLOAT", "tensorShape": {"dim": [{"size": "1"}, {"size": "1"}, {"size": "112"}, {"size": "48"}]}}}}}, {"name": "StatefulPartitionedCall/model_105/expanded_conv_5/project/Conv2D_bn_offset", "op": "Const", "attr": {"value": {"tensor": {"dtype": "DT_FLOAT", "tensorShape": {"dim": [{"size": "72"}]}}}, "dtype": {"type": "DT_FLOAT"}}}, {"name": "StatefulPartitionedCall/model_105/expanded_conv_6/expand/Conv2D_weights", "op": "Const", "attr": {"value": {"tensor": {"dtype": "DT_FLOAT", "tensorShape": {"dim": [{"size": "1"}, {"size": "1"}, {"size": "72"}, {"size": "216"}]}}}, "dtype": {"type": "DT_FLOAT"}}}, {"name": "StatefulPartitionedCall/model_105/expanded_conv_6/expand/Conv2D_bn_offset", "op": "Const", "attr": {"value": {"tensor": {"dtype": "DT_FLOAT", "tensorShape": {"dim": [{"size": "216"}]}}}, "dtype": {"type": "DT_FLOAT"}}}, {"name": "StatefulPartitionedCall/model_105/mn_expanded_conv_expanded_conv_9_project/Conv2D_bn_offset", "op": "Const", "attr": {"value": {"tensor": {"dtype": "DT_FLOAT", "tensorShape": {"dim": [{"size": "48"}]}}}, "dtype": {"type": "DT_FLOAT"}}}, {"name": "StatefulPartitionedCall/model_105/expanded_conv_6/depthwise/depthwise_weights", "op": "Const", "attr": {"value": {"tensor": {"dtype": "DT_FLOAT", "tensorShape": {"dim": [{"size": "3"}, {"size": "3"}, {"size": "216"}, {"size": "1"}]}}}, "dtype": {"type": "DT_FLOAT"}}}, {"name": "StatefulPartitionedCall/model_105/expanded_conv_6/depthwise/depthwise_bn_offset", "op": "Const", "attr": {"value": {"tensor": {"dtype": "DT_FLOAT", "tensorShape": {"dim": [{"size": "216"}]}}}, "dtype": {"type": "DT_FLOAT"}}}, {"name": "StatefulPartitionedCall/model_105/expanded_conv_6/project/Conv2D_weights", "op": "Const", "attr": {"dtype": {"type": "DT_FLOAT"}, "value": {"tensor": {"dtype": "DT_FLOAT", "tensorShape": {"dim": [{"size": "1"}, {"size": "1"}, {"size": "216"}, {"size": "88"}]}}}}}, {"name": "StatefulPartitionedCall/model_105/expanded_conv_6/project/Conv2D_bn_offset", "op": "Const", "attr": {"dtype": {"type": "DT_FLOAT"}, "value": {"tensor": {"dtype": "DT_FLOAT", "tensorShape": {"dim": [{"size": "88"}]}}}}}, {"name": "StatefulPartitionedCall/model_105/expanded_conv_7/expand/Conv2D_weights", "op": "Const", "attr": {"value": {"tensor": {"dtype": "DT_FLOAT", "tensorShape": {"dim": [{"size": "1"}, {"size": "1"}, {"size": "88"}, {"size": "264"}]}}}, "dtype": {"type": "DT_FLOAT"}}}, {"name": "StatefulPartitionedCall/model_105/expanded_conv_7/expand/Conv2D_bn_offset", "op": "Const", "attr": {"dtype": {"type": "DT_FLOAT"}, "value": {"tensor": {"dtype": "DT_FLOAT", "tensorShape": {"dim": [{"size": "264"}]}}}}}, {"name": "StatefulPartitionedCall/model_105/geb_expanded_conv_expanded_conv_9_project/Conv2D_weights", "op": "Const", "attr": {"value": {"tensor": {"dtype": "DT_FLOAT", "tensorShape": {"dim": [{"size": "1"}, {"size": "1"}, {"size": "112"}, {"size": "48"}]}}}, "dtype": {"type": "DT_FLOAT"}}}, {"name": "StatefulPartitionedCall/model_105/expanded_conv_7/depthwise/depthwise_weights", "op": "Const", "attr": {"dtype": {"type": "DT_FLOAT"}, "value": {"tensor": {"dtype": "DT_FLOAT", "tensorShape": {"dim": [{"size": "3"}, {"size": "3"}, {"size": "264"}, {"size": "1"}]}}}}}, {"name": "StatefulPartitionedCall/model_105/expanded_conv_7/depthwise/depthwise_bn_offset", "op": "Const", "attr": {"value": {"tensor": {"dtype": "DT_FLOAT", "tensorShape": {"dim": [{"size": "264"}]}}}, "dtype": {"type": "DT_FLOAT"}}}, {"name": "StatefulPartitionedCall/model_105/expanded_conv_7/project/Conv2D_weights", "op": "Const", "attr": {"dtype": {"type": "DT_FLOAT"}, "value": {"tensor": {"dtype": "DT_FLOAT", "tensorShape": {"dim": [{"size": "1"}, {"size": "1"}, {"size": "264"}, {"size": "88"}]}}}}}, {"name": "StatefulPartitionedCall/model_105/expanded_conv_7/project/Conv2D_bn_offset", "op": "Const", "attr": {"dtype": {"type": "DT_FLOAT"}, "value": {"tensor": {"dtype": "DT_FLOAT", "tensorShape": {"dim": [{"size": "88"}]}}}}}, {"name": "StatefulPartitionedCall/model_105/Conv_1/Conv2D_weights", "op": "Const", "attr": {"dtype": {"type": "DT_FLOAT"}, "value": {"tensor": {"dtype": "DT_FLOAT", "tensorShape": {"dim": [{"size": "1"}, {"size": "1"}, {"size": "88"}, {"size": "528"}]}}}}}, {"name": "StatefulPartitionedCall/model_105/geb_expanded_conv_expanded_conv_9_project/Conv2D_bn_offset", "op": "Const", "attr": {"dtype": {"type": "DT_FLOAT"}, "value": {"tensor": {"dtype": "DT_FLOAT", "tensorShape": {"dim": [{"size": "48"}]}}}}}, {"name": "StatefulPartitionedCall/model_105/Conv_1/Conv2D_bn_offset", "op": "Const", "attr": {"dtype": {"type": "DT_FLOAT"}, "value": {"tensor": {"dtype": "DT_FLOAT", "tensorShape": {"dim": [{"size": "528"}]}}}}}, {"name": "StatefulPartitionedCall/model_105/mn_expanded_conv_expanded_conv_10_expand/Conv2D_weights", "op": "Const", "attr": {"dtype": {"type": "DT_FLOAT"}, "value": {"tensor": {"dtype": "DT_FLOAT", "tensorShape": {"dim": [{"size": "1"}, {"size": "1"}, {"size": "48"}, {"size": "288"}]}}}}}, {"name": "StatefulPartitionedCall/model_105/mn_expanded_conv_expanded_conv_10_expand/Conv2D_bn_offset", "op": "Const", "attr": {"dtype": {"type": "DT_FLOAT"}, "value": {"tensor": {"dtype": "DT_FLOAT", "tensorShape": {"dim": [{"size": "288"}]}}}}}, {"name": "StatefulPartitionedCall/model_105/geb_expanded_conv_expanded_conv_10_expand/Conv2D_weights", "op": "Const", "attr": {"value": {"tensor": {"dtype": "DT_FLOAT", "tensorShape": {"dim": [{"size": "1"}, {"size": "1"}, {"size": "48"}, {"size": "288"}]}}}, "dtype": {"type": "DT_FLOAT"}}}, {"name": "StatefulPartitionedCall/model_105/geb_expanded_conv_expanded_conv_10_expand/Conv2D_bn_offset", "op": "Const", "attr": {"dtype": {"type": "DT_FLOAT"}, "value": {"tensor": {"dtype": "DT_FLOAT", "tensorShape": {"dim": [{"size": "288"}]}}}}}, {"name": "StatefulPartitionedCall/model_105/mn_input_conv/Conv2D_weights", "op": "Const", "attr": {"dtype": {"type": "DT_FLOAT"}, "value": {"tensor": {"dtype": "DT_FLOAT", "tensorShape": {"dim": [{"size": "3"}, {"size": "3"}, {"size": "3"}, {"size": "16"}]}}}}}, {"name": "StatefulPartitionedCall/model_105/mn_input_conv/Conv2D_bn_offset", "op": "Const", "attr": {"value": {"tensor": {"dtype": "DT_FLOAT", "tensorShape": {"dim": [{"size": "16"}]}}}, "dtype": {"type": "DT_FLOAT"}}}, {"name": "StatefulPartitionedCall/model_105/geb_input_conv/Conv2D_weights", "op": "Const", "attr": {"dtype": {"type": "DT_FLOAT"}, "value": {"tensor": {"dtype": "DT_FLOAT", "tensorShape": {"dim": [{"size": "3"}, {"size": "3"}, {"size": "3"}, {"size": "16"}]}}}}}, {"name": "StatefulPartitionedCall/model_105/mn_expanded_conv_expanded_conv_10_depthwise/depthwise_weights", "op": "Const", "attr": {"dtype": {"type": "DT_FLOAT"}, "value": {"tensor": {"dtype": "DT_FLOAT", "tensorShape": {"dim": [{"size": "3"}, {"size": "3"}, {"size": "288"}, {"size": "1"}]}}}}}, {"name": "StatefulPartitionedCall/model_105/geb_input_conv/Conv2D_bn_offset", "op": "Const", "attr": {"value": {"tensor": {"dtype": "DT_FLOAT", "tensorShape": {"dim": [{"size": "16"}]}}}, "dtype": {"type": "DT_FLOAT"}}}, {"name": "StatefulPartitionedCall/model_105/mn_expanded_conv_depthwise/depthwise_weights", "op": "Const", "attr": {"dtype": {"type": "DT_FLOAT"}, "value": {"tensor": {"dtype": "DT_FLOAT", "tensorShape": {"dim": [{"size": "3"}, {"size": "3"}, {"size": "16"}, {"size": "1"}]}}}}}, {"name": "StatefulPartitionedCall/model_105/mn_expanded_conv_depthwise/depthwise_bn_offset", "op": "Const", "attr": {"value": {"tensor": {"dtype": "DT_FLOAT", "tensorShape": {"dim": [{"size": "16"}]}}}, "dtype": {"type": "DT_FLOAT"}}}, {"name": "StatefulPartitionedCall/model_105/geb_expanded_conv_depthwise/depthwise_weights", "op": "Const", "attr": {"value": {"tensor": {"dtype": "DT_FLOAT", "tensorShape": {"dim": [{"size": "3"}, {"size": "3"}, {"size": "16"}, {"size": "1"}]}}}, "dtype": {"type": "DT_FLOAT"}}}, {"name": "StatefulPartitionedCall/model_105/geb_expanded_conv_depthwise/depthwise_bn_offset", "op": "Const", "attr": {"value": {"tensor": {"dtype": "DT_FLOAT", "tensorShape": {"dim": [{"size": "16"}]}}}, "dtype": {"type": "DT_FLOAT"}}}, {"name": "StatefulPartitionedCall/model_105/mn_expanded_conv_project/Conv2D_weights", "op": "Const", "attr": {"value": {"tensor": {"dtype": "DT_FLOAT", "tensorShape": {"dim": [{"size": "1"}, {"size": "1"}, {"size": "16"}, {"size": "16"}]}}}, "dtype": {"type": "DT_FLOAT"}}}, {"name": "StatefulPartitionedCall/model_105/mn_expanded_conv_expanded_conv_10_depthwise/depthwise_bn_offset", "op": "Const", "attr": {"value": {"tensor": {"dtype": "DT_FLOAT", "tensorShape": {"dim": [{"size": "288"}]}}}, "dtype": {"type": "DT_FLOAT"}}}, {"name": "StatefulPartitionedCall/model_105/mn_expanded_conv_project/Conv2D_bn_offset", "op": "Const", "attr": {"value": {"tensor": {"dtype": "DT_FLOAT", "tensorShape": {"dim": [{"size": "16"}]}}}, "dtype": {"type": "DT_FLOAT"}}}, {"name": "StatefulPartitionedCall/model_105/geb_expanded_conv_project/Conv2D_weights", "op": "Const", "attr": {"value": {"tensor": {"dtype": "DT_FLOAT", "tensorShape": {"dim": [{"size": "1"}, {"size": "1"}, {"size": "16"}, {"size": "16"}]}}}, "dtype": {"type": "DT_FLOAT"}}}, {"name": "StatefulPartitionedCall/model_105/geb_expanded_conv_project/Conv2D_bn_offset", "op": "Const", "attr": {"value": {"tensor": {"dtype": "DT_FLOAT", "tensorShape": {"dim": [{"size": "16"}]}}}, "dtype": {"type": "DT_FLOAT"}}}, {"name": "StatefulPartitionedCall/model_105/mn_expanded_conv_expanded_conv_1_expand/Conv2D_weights", "op": "Const", "attr": {"dtype": {"type": "DT_FLOAT"}, "value": {"tensor": {"dtype": "DT_FLOAT", "tensorShape": {"dim": [{"size": "1"}, {"size": "1"}, {"size": "16"}, {"size": "64"}]}}}}}, {"name": "StatefulPartitionedCall/model_105/mn_expanded_conv_expanded_conv_1_expand/Conv2D_bn_offset", "op": "Const", "attr": {"dtype": {"type": "DT_FLOAT"}, "value": {"tensor": {"dtype": "DT_FLOAT", "tensorShape": {"dim": [{"size": "64"}]}}}}}, {"name": "StatefulPartitionedCall/model_105/geb_expanded_conv_expanded_conv_10_depthwise/depthwise_weights", "op": "Const", "attr": {"value": {"tensor": {"dtype": "DT_FLOAT", "tensorShape": {"dim": [{"size": "3"}, {"size": "3"}, {"size": "288"}, {"size": "1"}]}}}, "dtype": {"type": "DT_FLOAT"}}}, {"name": "StatefulPartitionedCall/model_105/geb_expanded_conv_expanded_conv_1_expand/Conv2D_weights", "op": "Const", "attr": {"value": {"tensor": {"dtype": "DT_FLOAT", "tensorShape": {"dim": [{"size": "1"}, {"size": "1"}, {"size": "16"}, {"size": "64"}]}}}, "dtype": {"type": "DT_FLOAT"}}}, {"name": "StatefulPartitionedCall/model_105/geb_expanded_conv_expanded_conv_1_expand/Conv2D_bn_offset", "op": "Const", "attr": {"dtype": {"type": "DT_FLOAT"}, "value": {"tensor": {"dtype": "DT_FLOAT", "tensorShape": {"dim": [{"size": "64"}]}}}}}, {"name": "StatefulPartitionedCall/model_105/geb_expanded_conv_expanded_conv_10_depthwise/depthwise_bn_offset", "op": "Const", "attr": {"dtype": {"type": "DT_FLOAT"}, "value": {"tensor": {"dtype": "DT_FLOAT", "tensorShape": {"dim": [{"size": "288"}]}}}}}, {"name": "StatefulPartitionedCall/model_105/mn_expanded_conv_expanded_conv_1_depthwise/depthwise_weights", "op": "Const", "attr": {"value": {"tensor": {"dtype": "DT_FLOAT", "tensorShape": {"dim": [{"size": "3"}, {"size": "3"}, {"size": "64"}, {"size": "1"}]}}}, "dtype": {"type": "DT_FLOAT"}}}, {"name": "StatefulPartitionedCall/model_105/mn_expanded_conv_expanded_conv_1_depthwise/depthwise_bn_offset", "op": "Const", "attr": {"value": {"tensor": {"dtype": "DT_FLOAT", "tensorShape": {"dim": [{"size": "64"}]}}}, "dtype": {"type": "DT_FLOAT"}}}, {"name": "StatefulPartitionedCall/model_105/geb_expanded_conv_expanded_conv_1_depthwise/depthwise_weights", "op": "Const", "attr": {"value": {"tensor": {"dtype": "DT_FLOAT", "tensorShape": {"dim": [{"size": "3"}, {"size": "3"}, {"size": "64"}, {"size": "1"}]}}}, "dtype": {"type": "DT_FLOAT"}}}, {"name": "StatefulPartitionedCall/model_105/geb_expanded_conv_expanded_conv_1_depthwise/depthwise_bn_offset", "op": "Const", "attr": {"dtype": {"type": "DT_FLOAT"}, "value": {"tensor": {"dtype": "DT_FLOAT", "tensorShape": {"dim": [{"size": "64"}]}}}}}, {"name": "StatefulPartitionedCall/model_105/mn_expanded_conv_expanded_conv_1_project/Conv2D_weights", "op": "Const", "attr": {"dtype": {"type": "DT_FLOAT"}, "value": {"tensor": {"dtype": "DT_FLOAT", "tensorShape": {"dim": [{"size": "1"}, {"size": "1"}, {"size": "64"}, {"size": "16"}]}}}}}, {"name": "StatefulPartitionedCall/model_105/mn_expanded_conv_expanded_conv_1_project/Conv2D_bn_offset", "op": "Const", "attr": {"dtype": {"type": "DT_FLOAT"}, "value": {"tensor": {"dtype": "DT_FLOAT", "tensorShape": {"dim": [{"size": "16"}]}}}}}, {"name": "StatefulPartitionedCall/model_105/geb_expanded_conv_expanded_conv_1_project/Conv2D_weights", "op": "Const", "attr": {"value": {"tensor": {"dtype": "DT_FLOAT", "tensorShape": {"dim": [{"size": "1"}, {"size": "1"}, {"size": "64"}, {"size": "16"}]}}}, "dtype": {"type": "DT_FLOAT"}}}, {"name": "StatefulPartitionedCall/model_105/geb_expanded_conv_expanded_conv_1_project/Conv2D_bn_offset", "op": "Const", "attr": {"value": {"tensor": {"dtype": "DT_FLOAT", "tensorShape": {"dim": [{"size": "16"}]}}}, "dtype": {"type": "DT_FLOAT"}}}, {"name": "StatefulPartitionedCall/model_105/mn_expanded_conv_expanded_conv_2_expand/Conv2D_weights", "op": "Const", "attr": {"value": {"tensor": {"dtype": "DT_FLOAT", "tensorShape": {"dim": [{"size": "1"}, {"size": "1"}, {"size": "16"}, {"size": "48"}]}}}, "dtype": {"type": "DT_FLOAT"}}}, {"name": "StatefulPartitionedCall/model_105/mn_expanded_conv_expanded_conv_10_project/Conv2D_weights", "op": "Const", "attr": {"dtype": {"type": "DT_FLOAT"}, "value": {"tensor": {"dtype": "DT_FLOAT", "tensorShape": {"dim": [{"size": "1"}, {"size": "1"}, {"size": "288"}, {"size": "64"}]}}}}}, {"name": "StatefulPartitionedCall/model_105/mn_expanded_conv_expanded_conv_2_expand/Conv2D_bn_offset", "op": "Const", "attr": {"value": {"tensor": {"dtype": "DT_FLOAT", "tensorShape": {"dim": [{"size": "48"}]}}}, "dtype": {"type": "DT_FLOAT"}}}, {"name": "StatefulPartitionedCall/model_105/geb_final_conv_1/Conv2D_weights", "op": "Const", "attr": {"value": {"tensor": {"dtype": "DT_FLOAT", "tensorShape": {"dim": [{"size": "1"}, {"size": "1"}, {"size": "64"}, {"size": "384"}]}}}, "dtype": {"type": "DT_FLOAT"}}}, {"name": "StatefulPartitionedCall/model_105/geb_expanded_conv_expanded_conv_2_expand/Conv2D_weights", "op": "Const", "attr": {"dtype": {"type": "DT_FLOAT"}, "value": {"tensor": {"dtype": "DT_FLOAT", "tensorShape": {"dim": [{"size": "1"}, {"size": "1"}, {"size": "16"}, {"size": "48"}]}}}}}, {"name": "StatefulPartitionedCall/model_105/mn_expanded_conv_expanded_conv_10_project/Conv2D_bn_offset", "op": "Const", "attr": {"value": {"tensor": {"dtype": "DT_FLOAT", "tensorShape": {"dim": [{"size": "64"}]}}}, "dtype": {"type": "DT_FLOAT"}}}, {"name": "StatefulPartitionedCall/model_105/geb_expanded_conv_expanded_conv_2_expand/Conv2D_bn_offset", "op": "Const", "attr": {"value": {"tensor": {"dtype": "DT_FLOAT", "tensorShape": {"dim": [{"size": "48"}]}}}, "dtype": {"type": "DT_FLOAT"}}}, {"name": "StatefulPartitionedCall/model_105/mn_expanded_conv_expanded_conv_2_depthwise/depthwise_weights", "op": "Const", "attr": {"dtype": {"type": "DT_FLOAT"}, "value": {"tensor": {"dtype": "DT_FLOAT", "tensorShape": {"dim": [{"size": "3"}, {"size": "3"}, {"size": "48"}, {"size": "1"}]}}}}}, {"name": "StatefulPartitionedCall/model_105/mn_expanded_conv_expanded_conv_2_depthwise/depthwise_bn_offset", "op": "Const", "attr": {"value": {"tensor": {"dtype": "DT_FLOAT", "tensorShape": {"dim": [{"size": "48"}]}}}, "dtype": {"type": "DT_FLOAT"}}}, {"name": "StatefulPartitionedCall/model_105/geb_expanded_conv_expanded_conv_2_depthwise/depthwise_weights", "op": "Const", "attr": {"dtype": {"type": "DT_FLOAT"}, "value": {"tensor": {"dtype": "DT_FLOAT", "tensorShape": {"dim": [{"size": "3"}, {"size": "3"}, {"size": "48"}, {"size": "1"}]}}}}}, {"name": "StatefulPartitionedCall/model_105/geb_expanded_conv_expanded_conv_2_depthwise/depthwise_bn_offset", "op": "Const", "attr": {"value": {"tensor": {"dtype": "DT_FLOAT", "tensorShape": {"dim": [{"size": "48"}]}}}, "dtype": {"type": "DT_FLOAT"}}}, {"name": "StatefulPartitionedCall/model_105/mn_expanded_conv_expanded_conv_2_project/Conv2D_weights", "op": "Const", "attr": {"dtype": {"type": "DT_FLOAT"}, "value": {"tensor": {"dtype": "DT_FLOAT", "tensorShape": {"dim": [{"size": "1"}, {"size": "1"}, {"size": "48"}, {"size": "16"}]}}}}}, {"name": "StatefulPartitionedCall/model_105/geb_expanded_conv_expanded_conv_10_project/Conv2D_weights", "op": "Const", "attr": {"value": {"tensor": {"dtype": "DT_FLOAT", "tensorShape": {"dim": [{"size": "1"}, {"size": "1"}, {"size": "288"}, {"size": "64"}]}}}, "dtype": {"type": "DT_FLOAT"}}}, {"name": "StatefulPartitionedCall/model_105/mn_expanded_conv_expanded_conv_2_project/Conv2D_bn_offset", "op": "Const", "attr": {"dtype": {"type": "DT_FLOAT"}, "value": {"tensor": {"dtype": "DT_FLOAT", "tensorShape": {"dim": [{"size": "16"}]}}}}}, {"name": "StatefulPartitionedCall/model_105/geb_expanded_conv_expanded_conv_2_project/Conv2D_weights", "op": "Const", "attr": {"dtype": {"type": "DT_FLOAT"}, "value": {"tensor": {"dtype": "DT_FLOAT", "tensorShape": {"dim": [{"size": "1"}, {"size": "1"}, {"size": "48"}, {"size": "16"}]}}}}}, {"name": "StatefulPartitionedCall/model_105/geb_expanded_conv_expanded_conv_2_project/Conv2D_bn_offset", "op": "Const", "attr": {"dtype": {"type": "DT_FLOAT"}, "value": {"tensor": {"dtype": "DT_FLOAT", "tensorShape": {"dim": [{"size": "16"}]}}}}}, {"name": "StatefulPartitionedCall/model_105/mn_expanded_conv_expanded_conv_3_expand/Conv2D_weights", "op": "Const", "attr": {"value": {"tensor": {"dtype": "DT_FLOAT", "tensorShape": {"dim": [{"size": "1"}, {"size": "1"}, {"size": "16"}, {"size": "48"}]}}}, "dtype": {"type": "DT_FLOAT"}}}, {"name": "StatefulPartitionedCall/model_105/geb_expanded_conv_expanded_conv_10_project/Conv2D_bn_offset", "op": "Const", "attr": {"value": {"tensor": {"dtype": "DT_FLOAT", "tensorShape": {"dim": [{"size": "64"}]}}}, "dtype": {"type": "DT_FLOAT"}}}, {"name": "StatefulPartitionedCall/model_105/mn_expanded_conv_expanded_conv_3_expand/Conv2D_bn_offset", "op": "Const", "attr": {"dtype": {"type": "DT_FLOAT"}, "value": {"tensor": {"dtype": "DT_FLOAT", "tensorShape": {"dim": [{"size": "48"}]}}}}}, {"name": "StatefulPartitionedCall/model_105/geb_expanded_conv_expanded_conv_3_expand/Conv2D_weights", "op": "Const", "attr": {"value": {"tensor": {"dtype": "DT_FLOAT", "tensorShape": {"dim": [{"size": "1"}, {"size": "1"}, {"size": "16"}, {"size": "48"}]}}}, "dtype": {"type": "DT_FLOAT"}}}, {"name": "StatefulPartitionedCall/model_105/mn_expanded_conv_expanded_conv_11_expand/Conv2D_weights", "op": "Const", "attr": {"dtype": {"type": "DT_FLOAT"}, "value": {"tensor": {"dtype": "DT_FLOAT", "tensorShape": {"dim": [{"size": "1"}, {"size": "1"}, {"size": "64"}, {"size": "384"}]}}}}}, {"name": "StatefulPartitionedCall/model_105/geb_expanded_conv_expanded_conv_3_expand/Conv2D_bn_offset", "op": "Const", "attr": {"dtype": {"type": "DT_FLOAT"}, "value": {"tensor": {"dtype": "DT_FLOAT", "tensorShape": {"dim": [{"size": "48"}]}}}}}, {"name": "StatefulPartitionedCall/model_105/geb_final_conv_1/Conv2D_bn_offset", "op": "Const", "attr": {"dtype": {"type": "DT_FLOAT"}, "value": {"tensor": {"dtype": "DT_FLOAT", "tensorShape": {"dim": [{"size": "384"}]}}}}}, {"name": "StatefulPartitionedCall/model_105/mn_expanded_conv_expanded_conv_3_depthwise/depthwise_weights", "op": "Const", "attr": {"dtype": {"type": "DT_FLOAT"}, "value": {"tensor": {"dtype": "DT_FLOAT", "tensorShape": {"dim": [{"size": "3"}, {"size": "3"}, {"size": "48"}, {"size": "1"}]}}}}}, {"name": "StatefulPartitionedCall/model_105/mn_expanded_conv_expanded_conv_3_depthwise/depthwise_bn_offset", "op": "Const", "attr": {"dtype": {"type": "DT_FLOAT"}, "value": {"tensor": {"dtype": "DT_FLOAT", "tensorShape": {"dim": [{"size": "48"}]}}}}}, {"name": "StatefulPartitionedCall/model_105/geb_expanded_conv_expanded_conv_3_depthwise/depthwise_weights", "op": "Const", "attr": {"dtype": {"type": "DT_FLOAT"}, "value": {"tensor": {"dtype": "DT_FLOAT", "tensorShape": {"dim": [{"size": "3"}, {"size": "3"}, {"size": "48"}, {"size": "1"}]}}}}}, {"name": "StatefulPartitionedCall/model_105/geb_expanded_conv_expanded_conv_3_depthwise/depthwise_bn_offset", "op": "Const", "attr": {"value": {"tensor": {"dtype": "DT_FLOAT", "tensorShape": {"dim": [{"size": "48"}]}}}, "dtype": {"type": "DT_FLOAT"}}}, {"name": "StatefulPartitionedCall/model_105/mn_expanded_conv_expanded_conv_3_project/Conv2D_weights", "op": "Const", "attr": {"value": {"tensor": {"dtype": "DT_FLOAT", "tensorShape": {"dim": [{"size": "1"}, {"size": "1"}, {"size": "48"}, {"size": "24"}]}}}, "dtype": {"type": "DT_FLOAT"}}}, {"name": "StatefulPartitionedCall/model_105/mn_expanded_conv_expanded_conv_11_expand/Conv2D_bn_offset", "op": "Const", "attr": {"value": {"tensor": {"dtype": "DT_FLOAT", "tensorShape": {"dim": [{"size": "384"}]}}}, "dtype": {"type": "DT_FLOAT"}}}, {"name": "StatefulPartitionedCall/model_105/mn_expanded_conv_expanded_conv_3_project/Conv2D_bn_offset", "op": "Const", "attr": {"value": {"tensor": {"dtype": "DT_FLOAT", "tensorShape": {"dim": [{"size": "24"}]}}}, "dtype": {"type": "DT_FLOAT"}}}, {"name": "StatefulPartitionedCall/model_105/geb_expanded_conv_expanded_conv_3_project/Conv2D_weights", "op": "Const", "attr": {"dtype": {"type": "DT_FLOAT"}, "value": {"tensor": {"dtype": "DT_FLOAT", "tensorShape": {"dim": [{"size": "1"}, {"size": "1"}, {"size": "48"}, {"size": "24"}]}}}}}, {"name": "StatefulPartitionedCall/model_105/geb_expanded_conv_expanded_conv_3_project/Conv2D_bn_offset", "op": "Const", "attr": {"dtype": {"type": "DT_FLOAT"}, "value": {"tensor": {"dtype": "DT_FLOAT", "tensorShape": {"dim": [{"size": "24"}]}}}}}, {"name": "StatefulPartitionedCall/model_105/mn_expanded_conv_expanded_conv_4_expand/Conv2D_weights", "op": "Const", "attr": {"dtype": {"type": "DT_FLOAT"}, "value": {"tensor": {"dtype": "DT_FLOAT", "tensorShape": {"dim": [{"size": "1"}, {"size": "1"}, {"size": "24"}, {"size": "72"}]}}}}}, {"name": "StatefulPartitionedCall/model_105/mn_expanded_conv_expanded_conv_4_expand/Conv2D_bn_offset", "op": "Const", "attr": {"dtype": {"type": "DT_FLOAT"}, "value": {"tensor": {"dtype": "DT_FLOAT", "tensorShape": {"dim": [{"size": "72"}]}}}}}, {"name": "StatefulPartitionedCall/model_105/geb_expanded_conv_expanded_conv_11_expand/Conv2D_weights", "op": "Const", "attr": {"value": {"tensor": {"dtype": "DT_FLOAT", "tensorShape": {"dim": [{"size": "1"}, {"size": "1"}, {"size": "64"}, {"size": "384"}]}}}, "dtype": {"type": "DT_FLOAT"}}}, {"name": "StatefulPartitionedCall/model_105/geb_expanded_conv_expanded_conv_4_expand/Conv2D_weights", "op": "Const", "attr": {"dtype": {"type": "DT_FLOAT"}, "value": {"tensor": {"dtype": "DT_FLOAT", "tensorShape": {"dim": [{"size": "1"}, {"size": "1"}, {"size": "24"}, {"size": "72"}]}}}}}, {"name": "StatefulPartitionedCall/model_105/geb_expanded_conv_expanded_conv_4_expand/Conv2D_bn_offset", "op": "Const", "attr": {"value": {"tensor": {"dtype": "DT_FLOAT", "tensorShape": {"dim": [{"size": "72"}]}}}, "dtype": {"type": "DT_FLOAT"}}}, {"name": "StatefulPartitionedCall/model_105/geb_expanded_conv_expanded_conv_11_expand/Conv2D_bn_offset", "op": "Const", "attr": {"dtype": {"type": "DT_FLOAT"}, "value": {"tensor": {"dtype": "DT_FLOAT", "tensorShape": {"dim": [{"size": "384"}]}}}}}, {"name": "StatefulPartitionedCall/model_105/mn_expanded_conv_expanded_conv_4_depthwise/depthwise_weights", "op": "Const", "attr": {"value": {"tensor": {"dtype": "DT_FLOAT", "tensorShape": {"dim": [{"size": "3"}, {"size": "3"}, {"size": "72"}, {"size": "1"}]}}}, "dtype": {"type": "DT_FLOAT"}}}, {"name": "StatefulPartitionedCall/model_105/mn_expanded_conv_expanded_conv_4_depthwise/depthwise_bn_offset", "op": "Const", "attr": {"value": {"tensor": {"dtype": "DT_FLOAT", "tensorShape": {"dim": [{"size": "72"}]}}}, "dtype": {"type": "DT_FLOAT"}}}, {"name": "StatefulPartitionedCall/model_105/geb_expanded_conv_expanded_conv_4_depthwise/depthwise_weights", "op": "Const", "attr": {"value": {"tensor": {"dtype": "DT_FLOAT", "tensorShape": {"dim": [{"size": "3"}, {"size": "3"}, {"size": "72"}, {"size": "1"}]}}}, "dtype": {"type": "DT_FLOAT"}}}, {"name": "StatefulPartitionedCall/model_105/geb_expanded_conv_expanded_conv_4_depthwise/depthwise_bn_offset", "op": "Const", "attr": {"dtype": {"type": "DT_FLOAT"}, "value": {"tensor": {"dtype": "DT_FLOAT", "tensorShape": {"dim": [{"size": "72"}]}}}}}, {"name": "StatefulPartitionedCall/model_105/mn_expanded_conv_expanded_conv_4_project/Conv2D_weights", "op": "Const", "attr": {"dtype": {"type": "DT_FLOAT"}, "value": {"tensor": {"dtype": "DT_FLOAT", "tensorShape": {"dim": [{"size": "1"}, {"size": "1"}, {"size": "72"}, {"size": "24"}]}}}}}, {"name": "StatefulPartitionedCall/model_105/mn_expanded_conv_expanded_conv_4_project/Conv2D_bn_offset", "op": "Const", "attr": {"value": {"tensor": {"dtype": "DT_FLOAT", "tensorShape": {"dim": [{"size": "24"}]}}}, "dtype": {"type": "DT_FLOAT"}}}, {"name": "StatefulPartitionedCall/model_105/geb_expanded_conv_expanded_conv_4_project/Conv2D_weights", "op": "Const", "attr": {"dtype": {"type": "DT_FLOAT"}, "value": {"tensor": {"dtype": "DT_FLOAT", "tensorShape": {"dim": [{"size": "1"}, {"size": "1"}, {"size": "72"}, {"size": "24"}]}}}}}, {"name": "StatefulPartitionedCall/model_105/geb_expanded_conv_expanded_conv_4_project/Conv2D_bn_offset", "op": "Const", "attr": {"value": {"tensor": {"dtype": "DT_FLOAT", "tensorShape": {"dim": [{"size": "24"}]}}}, "dtype": {"type": "DT_FLOAT"}}}, {"name": "StatefulPartitionedCall/model_105/mn_expanded_conv_expanded_conv_5_expand/Conv2D_weights", "op": "Const", "attr": {"dtype": {"type": "DT_FLOAT"}, "value": {"tensor": {"dtype": "DT_FLOAT", "tensorShape": {"dim": [{"size": "1"}, {"size": "1"}, {"size": "24"}, {"size": "72"}]}}}}}, {"name": "StatefulPartitionedCall/model_105/mn_expanded_conv_expanded_conv_11_depthwise/depthwise_weights", "op": "Const", "attr": {"dtype": {"type": "DT_FLOAT"}, "value": {"tensor": {"dtype": "DT_FLOAT", "tensorShape": {"dim": [{"size": "3"}, {"size": "3"}, {"size": "384"}, {"size": "1"}]}}}}}, {"name": "StatefulPartitionedCall/model_105/mn_expanded_conv_expanded_conv_5_expand/Conv2D_bn_offset", "op": "Const", "attr": {"value": {"tensor": {"dtype": "DT_FLOAT", "tensorShape": {"dim": [{"size": "72"}]}}}, "dtype": {"type": "DT_FLOAT"}}}, {"name": "StatefulPartitionedCall/model_105/geb_expanded_conv_expanded_conv_5_expand/Conv2D_weights", "op": "Const", "attr": {"dtype": {"type": "DT_FLOAT"}, "value": {"tensor": {"dtype": "DT_FLOAT", "tensorShape": {"dim": [{"size": "1"}, {"size": "1"}, {"size": "24"}, {"size": "72"}]}}}}}, {"name": "StatefulPartitionedCall/model_105/mn_expanded_conv_expanded_conv_11_depthwise/depthwise_bn_offset", "op": "Const", "attr": {"value": {"tensor": {"dtype": "DT_FLOAT", "tensorShape": {"dim": [{"size": "384"}]}}}, "dtype": {"type": "DT_FLOAT"}}}, {"name": "StatefulPartitionedCall/model_105/geb_expanded_conv_expanded_conv_5_expand/Conv2D_bn_offset", "op": "Const", "attr": {"value": {"tensor": {"dtype": "DT_FLOAT", "tensorShape": {"dim": [{"size": "72"}]}}}, "dtype": {"type": "DT_FLOAT"}}}, {"name": "StatefulPartitionedCall/model_105/mn_expanded_conv_expanded_conv_5_depthwise/depthwise_weights", "op": "Const", "attr": {"dtype": {"type": "DT_FLOAT"}, "value": {"tensor": {"dtype": "DT_FLOAT", "tensorShape": {"dim": [{"size": "3"}, {"size": "3"}, {"size": "72"}, {"size": "1"}]}}}}}, {"name": "StatefulPartitionedCall/model_105/mn_expanded_conv_expanded_conv_5_depthwise/depthwise_bn_offset", "op": "Const", "attr": {"dtype": {"type": "DT_FLOAT"}, "value": {"tensor": {"dtype": "DT_FLOAT", "tensorShape": {"dim": [{"size": "72"}]}}}}}, {"name": "StatefulPartitionedCall/model_105/geb_expanded_conv_expanded_conv_5_depthwise/depthwise_weights", "op": "Const", "attr": {"dtype": {"type": "DT_FLOAT"}, "value": {"tensor": {"dtype": "DT_FLOAT", "tensorShape": {"dim": [{"size": "3"}, {"size": "3"}, {"size": "72"}, {"size": "1"}]}}}}}, {"name": "StatefulPartitionedCall/model_105/geb_expanded_conv_expanded_conv_5_depthwise/depthwise_bn_offset", "op": "Const", "attr": {"dtype": {"type": "DT_FLOAT"}, "value": {"tensor": {"dtype": "DT_FLOAT", "tensorShape": {"dim": [{"size": "72"}]}}}}}, {"name": "StatefulPartitionedCall/model_105/mn_expanded_conv_expanded_conv_5_project/Conv2D_weights", "op": "Const", "attr": {"dtype": {"type": "DT_FLOAT"}, "value": {"tensor": {"dtype": "DT_FLOAT", "tensorShape": {"dim": [{"size": "1"}, {"size": "1"}, {"size": "72"}, {"size": "24"}]}}}}}, {"name": "StatefulPartitionedCall/model_105/mn_expanded_conv_expanded_conv_5_project/Conv2D_bn_offset", "op": "Const", "attr": {"value": {"tensor": {"dtype": "DT_FLOAT", "tensorShape": {"dim": [{"size": "24"}]}}}, "dtype": {"type": "DT_FLOAT"}}}, {"name": "StatefulPartitionedCall/model_105/geb_expanded_conv_expanded_conv_5_project/Conv2D_weights", "op": "Const", "attr": {"dtype": {"type": "DT_FLOAT"}, "value": {"tensor": {"dtype": "DT_FLOAT", "tensorShape": {"dim": [{"size": "1"}, {"size": "1"}, {"size": "72"}, {"size": "24"}]}}}}}, {"name": "StatefulPartitionedCall/model_105/geb_expanded_conv_expanded_conv_11_depthwise/depthwise_weights", "op": "Const", "attr": {"value": {"tensor": {"dtype": "DT_FLOAT", "tensorShape": {"dim": [{"size": "3"}, {"size": "3"}, {"size": "384"}, {"size": "1"}]}}}, "dtype": {"type": "DT_FLOAT"}}}, {"name": "StatefulPartitionedCall/model_105/geb_expanded_conv_expanded_conv_5_project/Conv2D_bn_offset", "op": "Const", "attr": {"dtype": {"type": "DT_FLOAT"}, "value": {"tensor": {"dtype": "DT_FLOAT", "tensorShape": {"dim": [{"size": "24"}]}}}}}, {"name": "StatefulPartitionedCall/model_105/mn_expanded_conv_expanded_conv_6_expand/Conv2D_weights", "op": "Const", "attr": {"dtype": {"type": "DT_FLOAT"}, "value": {"tensor": {"dtype": "DT_FLOAT", "tensorShape": {"dim": [{"size": "1"}, {"size": "1"}, {"size": "24"}, {"size": "144"}]}}}}}, {"name": "StatefulPartitionedCall/model_105/mn_expanded_conv_expanded_conv_6_expand/Conv2D_bn_offset", "op": "Const", "attr": {"value": {"tensor": {"dtype": "DT_FLOAT", "tensorShape": {"dim": [{"size": "144"}]}}}, "dtype": {"type": "DT_FLOAT"}}}, {"name": "StatefulPartitionedCall/model_105/geb_expanded_conv_expanded_conv_11_depthwise/depthwise_bn_offset", "op": "Const", "attr": {"value": {"tensor": {"dtype": "DT_FLOAT", "tensorShape": {"dim": [{"size": "384"}]}}}, "dtype": {"type": "DT_FLOAT"}}}, {"name": "StatefulPartitionedCall/model_105/geb_expanded_conv_expanded_conv_6_expand/Conv2D_weights", "op": "Const", "attr": {"value": {"tensor": {"dtype": "DT_FLOAT", "tensorShape": {"dim": [{"size": "1"}, {"size": "1"}, {"size": "24"}, {"size": "144"}]}}}, "dtype": {"type": "DT_FLOAT"}}}, {"name": "StatefulPartitionedCall/model_105/geb_expanded_conv_expanded_conv_6_expand/Conv2D_bn_offset", "op": "Const", "attr": {"dtype": {"type": "DT_FLOAT"}, "value": {"tensor": {"dtype": "DT_FLOAT", "tensorShape": {"dim": [{"size": "144"}]}}}}}, {"name": "StatefulPartitionedCall/model_105/mn_expanded_conv_expanded_conv_6_depthwise/depthwise_weights", "op": "Const", "attr": {"value": {"tensor": {"dtype": "DT_FLOAT", "tensorShape": {"dim": [{"size": "3"}, {"size": "3"}, {"size": "144"}, {"size": "1"}]}}}, "dtype": {"type": "DT_FLOAT"}}}, {"name": "StatefulPartitionedCall/model_105/mn_expanded_conv_expanded_conv_6_depthwise/depthwise_bn_offset", "op": "Const", "attr": {"value": {"tensor": {"dtype": "DT_FLOAT", "tensorShape": {"dim": [{"size": "144"}]}}}, "dtype": {"type": "DT_FLOAT"}}}, {"name": "StatefulPartitionedCall/model_105/geb_expanded_conv_expanded_conv_6_depthwise/depthwise_weights", "op": "Const", "attr": {"dtype": {"type": "DT_FLOAT"}, "value": {"tensor": {"dtype": "DT_FLOAT", "tensorShape": {"dim": [{"size": "3"}, {"size": "3"}, {"size": "144"}, {"size": "1"}]}}}}}, {"name": "StatefulPartitionedCall/model_105/geb_expanded_conv_expanded_conv_6_depthwise/depthwise_bn_offset", "op": "Const", "attr": {"value": {"tensor": {"dtype": "DT_FLOAT", "tensorShape": {"dim": [{"size": "144"}]}}}, "dtype": {"type": "DT_FLOAT"}}}, {"name": "StatefulPartitionedCall/model_105/mn_expanded_conv_expanded_conv_6_project/Conv2D_weights", "op": "Const", "attr": {"dtype": {"type": "DT_FLOAT"}, "value": {"tensor": {"dtype": "DT_FLOAT", "tensorShape": {"dim": [{"size": "1"}, {"size": "1"}, {"size": "144"}, {"size": "48"}]}}}}}, {"name": "StatefulPartitionedCall/model_105/mn_expanded_conv_expanded_conv_11_project/Conv2D_weights", "op": "Const", "attr": {"value": {"tensor": {"dtype": "DT_FLOAT", "tensorShape": {"dim": [{"size": "1"}, {"size": "1"}, {"size": "384"}, {"size": "64"}]}}}, "dtype": {"type": "DT_FLOAT"}}}, {"name": "StatefulPartitionedCall/model_105/mn_expanded_conv_expanded_conv_6_project/Conv2D_bn_offset", "op": "Const", "attr": {"dtype": {"type": "DT_FLOAT"}, "value": {"tensor": {"dtype": "DT_FLOAT", "tensorShape": {"dim": [{"size": "48"}]}}}}}, {"name": "StatefulPartitionedCall/model_105/geb_expanded_conv_expanded_conv_6_project/Conv2D_weights", "op": "Const", "attr": {"value": {"tensor": {"dtype": "DT_FLOAT", "tensorShape": {"dim": [{"size": "1"}, {"size": "1"}, {"size": "144"}, {"size": "48"}]}}}, "dtype": {"type": "DT_FLOAT"}}}, {"name": "StatefulPartitionedCall/model_105/geb_expanded_conv_expanded_conv_6_project/Conv2D_bn_offset", "op": "Const", "attr": {"dtype": {"type": "DT_FLOAT"}, "value": {"tensor": {"dtype": "DT_FLOAT", "tensorShape": {"dim": [{"size": "48"}]}}}}}, {"name": "StatefulPartitionedCall/model_105/mn_expanded_conv_expanded_conv_7_expand/Conv2D_weights", "op": "Const", "attr": {"value": {"tensor": {"dtype": "DT_FLOAT", "tensorShape": {"dim": [{"size": "1"}, {"size": "1"}, {"size": "48"}, {"size": "120"}]}}}, "dtype": {"type": "DT_FLOAT"}}}, {"name": "StatefulPartitionedCall/model_105/mn_expanded_conv_expanded_conv_11_project/Conv2D_bn_offset", "op": "Const", "attr": {"dtype": {"type": "DT_FLOAT"}, "value": {"tensor": {"dtype": "DT_FLOAT", "tensorShape": {"dim": [{"size": "64"}]}}}}}, {"name": "StatefulPartitionedCall/model_105/mn_expanded_conv_expanded_conv_7_expand/Conv2D_bn_offset", "op": "Const", "attr": {"value": {"tensor": {"dtype": "DT_FLOAT", "tensorShape": {"dim": [{"size": "120"}]}}}, "dtype": {"type": "DT_FLOAT"}}}, {"name": "StatefulPartitionedCall/model_105/geb_expanded_conv_expanded_conv_7_expand/Conv2D_weights", "op": "Const", "attr": {"value": {"tensor": {"dtype": "DT_FLOAT", "tensorShape": {"dim": [{"size": "1"}, {"size": "1"}, {"size": "48"}, {"size": "120"}]}}}, "dtype": {"type": "DT_FLOAT"}}}, {"name": "StatefulPartitionedCall/model_105/geb_expanded_conv_expanded_conv_7_expand/Conv2D_bn_offset", "op": "Const", "attr": {"dtype": {"type": "DT_FLOAT"}, "value": {"tensor": {"dtype": "DT_FLOAT", "tensorShape": {"dim": [{"size": "120"}]}}}}}, {"name": "StatefulPartitionedCall/model_105/geb_expanded_conv_expanded_conv_11_project/Conv2D_weights", "op": "Const", "attr": {"value": {"tensor": {"dtype": "DT_FLOAT", "tensorShape": {"dim": [{"size": "1"}, {"size": "1"}, {"size": "384"}, {"size": "64"}]}}}, "dtype": {"type": "DT_FLOAT"}}}, {"name": "StatefulPartitionedCall/model_105/mn_expanded_conv_expanded_conv_7_depthwise/depthwise_weights", "op": "Const", "attr": {"value": {"tensor": {"dtype": "DT_FLOAT", "tensorShape": {"dim": [{"size": "3"}, {"size": "3"}, {"size": "120"}, {"size": "1"}]}}}, "dtype": {"type": "DT_FLOAT"}}}, {"name": "StatefulPartitionedCall/model_105/mn_expanded_conv_expanded_conv_7_depthwise/depthwise_bn_offset", "op": "Const", "attr": {"dtype": {"type": "DT_FLOAT"}, "value": {"tensor": {"dtype": "DT_FLOAT", "tensorShape": {"dim": [{"size": "120"}]}}}}}, {"name": "StatefulPartitionedCall/model_105/geb_expanded_conv_expanded_conv_7_depthwise/depthwise_weights", "op": "Const", "attr": {"dtype": {"type": "DT_FLOAT"}, "value": {"tensor": {"dtype": "DT_FLOAT", "tensorShape": {"dim": [{"size": "3"}, {"size": "3"}, {"size": "120"}, {"size": "1"}]}}}}}, {"name": "StatefulPartitionedCall/model_105/geb_expanded_conv_expanded_conv_7_depthwise/depthwise_bn_offset", "op": "Const", "attr": {"value": {"tensor": {"dtype": "DT_FLOAT", "tensorShape": {"dim": [{"size": "120"}]}}}, "dtype": {"type": "DT_FLOAT"}}}, {"name": "StatefulPartitionedCall/model_105/mn_expanded_conv_expanded_conv_7_project/Conv2D_weights", "op": "Const", "attr": {"dtype": {"type": "DT_FLOAT"}, "value": {"tensor": {"dtype": "DT_FLOAT", "tensorShape": {"dim": [{"size": "1"}, {"size": "1"}, {"size": "120"}, {"size": "48"}]}}}}}, {"name": "StatefulPartitionedCall/model_105/mn_expanded_conv_expanded_conv_7_project/Conv2D_bn_offset", "op": "Const", "attr": {"dtype": {"type": "DT_FLOAT"}, "value": {"tensor": {"dtype": "DT_FLOAT", "tensorShape": {"dim": [{"size": "48"}]}}}}}, {"name": "StatefulPartitionedCall/model_105/geb_expanded_conv_expanded_conv_7_project/Conv2D_weights", "op": "Const", "attr": {"dtype": {"type": "DT_FLOAT"}, "value": {"tensor": {"dtype": "DT_FLOAT", "tensorShape": {"dim": [{"size": "1"}, {"size": "1"}, {"size": "120"}, {"size": "48"}]}}}}}, {"name": "StatefulPartitionedCall/model_105/geb_expanded_conv_expanded_conv_11_project/Conv2D_bn_offset", "op": "Const", "attr": {"dtype": {"type": "DT_FLOAT"}, "value": {"tensor": {"dtype": "DT_FLOAT", "tensorShape": {"dim": [{"size": "64"}]}}}}}, {"name": "StatefulPartitionedCall/model_105/geb_expanded_conv_expanded_conv_7_project/Conv2D_bn_offset", "op": "Const", "attr": {"dtype": {"type": "DT_FLOAT"}, "value": {"tensor": {"dtype": "DT_FLOAT", "tensorShape": {"dim": [{"size": "48"}]}}}}}, {"name": "StatefulPartitionedCall/model_105/mn_expanded_conv_expanded_conv_8_expand/Conv2D_weights", "op": "Const", "attr": {"dtype": {"type": "DT_FLOAT"}, "value": {"tensor": {"dtype": "DT_FLOAT", "tensorShape": {"dim": [{"size": "1"}, {"size": "1"}, {"size": "48"}, {"size": "112"}]}}}}}, {"name": "StatefulPartitionedCall/model_105/mn_expanded_conv_expanded_conv_8_expand/Conv2D_bn_offset", "op": "Const", "attr": {"dtype": {"type": "DT_FLOAT"}, "value": {"tensor": {"dtype": "DT_FLOAT", "tensorShape": {"dim": [{"size": "112"}]}}}}}, {"name": "StatefulPartitionedCall/model_105/geb_expanded_conv_expanded_conv_8_expand/Conv2D_weights", "op": "Const", "attr": {"value": {"tensor": {"dtype": "DT_FLOAT", "tensorShape": {"dim": [{"size": "1"}, {"size": "1"}, {"size": "48"}, {"size": "112"}]}}}, "dtype": {"type": "DT_FLOAT"}}}, {"name": "StatefulPartitionedCall/model_105/mn_final_conv_1/Conv2D_weights", "op": "Const", "attr": {"value": {"tensor": {"dtype": "DT_FLOAT", "tensorShape": {"dim": [{"size": "1"}, {"size": "1"}, {"size": "64"}, {"size": "384"}]}}}, "dtype": {"type": "DT_FLOAT"}}}, {"name": "StatefulPartitionedCall/model_105/geb_expanded_conv_expanded_conv_8_expand/Conv2D_bn_offset", "op": "Const", "attr": {"dtype": {"type": "DT_FLOAT"}, "value": {"tensor": {"dtype": "DT_FLOAT", "tensorShape": {"dim": [{"size": "112"}]}}}}}, {"name": "StatefulPartitionedCall/model_105/mn_expanded_conv_expanded_conv_8_depthwise/depthwise_weights", "op": "Const", "attr": {"value": {"tensor": {"dtype": "DT_FLOAT", "tensorShape": {"dim": [{"size": "3"}, {"size": "3"}, {"size": "112"}, {"size": "1"}]}}}, "dtype": {"type": "DT_FLOAT"}}}, {"name": "StatefulPartitionedCall/model_105/mn_expanded_conv_expanded_conv_8_depthwise/depthwise_bn_offset", "op": "Const", "attr": {"value": {"tensor": {"dtype": "DT_FLOAT", "tensorShape": {"dim": [{"size": "112"}]}}}, "dtype": {"type": "DT_FLOAT"}}}, {"name": "StatefulPartitionedCall/model_105/geb_expanded_conv_expanded_conv_8_depthwise/depthwise_weights", "op": "Const", "attr": {"value": {"tensor": {"dtype": "DT_FLOAT", "tensorShape": {"dim": [{"size": "3"}, {"size": "3"}, {"size": "112"}, {"size": "1"}]}}}, "dtype": {"type": "DT_FLOAT"}}}, {"name": "StatefulPartitionedCall/model_105/geb_expanded_conv_expanded_conv_8_depthwise/depthwise_bn_offset", "op": "Const", "attr": {"value": {"tensor": {"dtype": "DT_FLOAT", "tensorShape": {"dim": [{"size": "112"}]}}}, "dtype": {"type": "DT_FLOAT"}}}, {"name": "StatefulPartitionedCall/model_105/mn_expanded_conv_expanded_conv_8_project/Conv2D_weights", "op": "Const", "attr": {"value": {"tensor": {"dtype": "DT_FLOAT", "tensorShape": {"dim": [{"size": "1"}, {"size": "1"}, {"size": "112"}, {"size": "48"}]}}}, "dtype": {"type": "DT_FLOAT"}}}, {"name": "StatefulPartitionedCall/model_105/mn_final_conv_1/Conv2D_bn_offset", "op": "Const", "attr": {"dtype": {"type": "DT_FLOAT"}, "value": {"tensor": {"dtype": "DT_FLOAT", "tensorShape": {"dim": [{"size": "384"}]}}}}}, {"name": "StatefulPartitionedCall/model_105/mn_expanded_conv_expanded_conv_8_project/Conv2D_bn_offset", "op": "Const", "attr": {"value": {"tensor": {"dtype": "DT_FLOAT", "tensorShape": {"dim": [{"size": "48"}]}}}, "dtype": {"type": "DT_FLOAT"}}}, {"name": "StatefulPartitionedCall/model_105/geb_expanded_conv_expanded_conv_8_project/Conv2D_weights", "op": "Const", "attr": {"dtype": {"type": "DT_FLOAT"}, "value": {"tensor": {"dtype": "DT_FLOAT", "tensorShape": {"dim": [{"size": "1"}, {"size": "1"}, {"size": "112"}, {"size": "48"}]}}}}}, {"name": "StatefulPartitionedCall/model_105/geb_expanded_conv_expanded_conv_8_project/Conv2D_bn_offset", "op": "Const", "attr": {"value": {"tensor": {"dtype": "DT_FLOAT", "tensorShape": {"dim": [{"size": "48"}]}}}, "dtype": {"type": "DT_FLOAT"}}}, {"name": "StatefulPartitionedCall/model_105/mn_expanded_conv_expanded_conv_9_expand/Conv2D_weights", "op": "Const", "attr": {"dtype": {"type": "DT_FLOAT"}, "value": {"tensor": {"dtype": "DT_FLOAT", "tensorShape": {"dim": [{"size": "1"}, {"size": "1"}, {"size": "48"}, {"size": "112"}]}}}}}, {"name": "StatefulPartitionedCall/model_105/mn_expanded_conv_expanded_conv_9_expand/Conv2D_bn_offset", "op": "Const", "attr": {"dtype": {"type": "DT_FLOAT"}, "value": {"tensor": {"dtype": "DT_FLOAT", "tensorShape": {"dim": [{"size": "112"}]}}}}}, {"name": "StatefulPartitionedCall/model_105/base_resize_to_128x128/simple_resize_to_128x128/ResizeBilinear", "op": "ResizeBilinear", "input": ["input", "StatefulPartitionedCall/model_105/base_resize_to_128x128/Const"], "attr": {"T": {"type": "DT_FLOAT"}, "align_corners": {"b": false}, "half_pixel_centers": {"b": true}}}, {"name": "StatefulPartitionedCall/model_105/base_scaling_with_scale_2_offset_-1/mul", "op": "Mul", "input": ["StatefulPartitionedCall/model_105/base_resize_to_128x128/simple_resize_to_128x128/ResizeBilinear", "StatefulPartitionedCall/model_105/base_scaling_with_scale_2_offset_-1/Cast"], "attr": {"T": {"type": "DT_FLOAT"}}}, {"name": "StatefulPartitionedCall/model_105/base_scaling_with_scale_2_offset_-1/add", "op": "AddV2", "input": ["StatefulPartitionedCall/model_105/base_scaling_with_scale_2_offset_-1/mul", "StatefulPartitionedCall/model_105/base_scaling_with_scale_2_offset_-1/Cast_1"], "attr": {"T": {"type": "DT_FLOAT"}}}, {"name": "StatefulPartitionedCall/model_105/re_lu/Relu", "op": "_FusedConv2D", "input": ["StatefulPartitionedCall/model_105/base_scaling_with_scale_2_offset_-1/add", "StatefulPartitionedCall/model_105/Conv/Conv2D_weights", "StatefulPartitionedCall/model_105/Conv/Conv2D_bn_offset"], "device": "/device:CPU:0", "attr": {"dilations": {"list": {"i": ["1", "1", "1", "1"]}}, "strides": {"list": {"i": ["1", "2", "2", "1"]}}, "leakyrelu_alpha": {"f": 0.2}, "epsilon": {"f": 0.0}, "use_cudnn_on_gpu": {"b": true}, "T": {"type": "DT_FLOAT"}, "explicit_paddings": {"list": {}}, "padding": {"s": "U0FNRQ=="}, "data_format": {"s": "TkhXQw=="}, "num_args": {"i": "1"}, "fused_ops": {"list": {"s": ["Qmlhc0FkZA==", "UmVsdQ=="]}}}}, {"name": "StatefulPartitionedCall/model_105/expanded_conv/depthwise/pad/Pad", "op": "Pad", "input": ["StatefulPartitionedCall/model_105/re_lu/Relu", "StatefulPartitionedCall/model_105/expanded_conv/depthwise/pad/Pad/paddings"], "attr": {"Tpaddings": {"type": "DT_INT32"}, "T": {"type": "DT_FLOAT"}}}, {"name": "StatefulPartitionedCall/model_105/expanded_conv/depthwise/depthwise", "op": "FusedDepthwiseConv2dNative", "input": ["StatefulPartitionedCall/model_105/expanded_conv/depthwise/pad/Pad", "StatefulPartitionedCall/model_105/expanded_conv/depthwise/depthwise_weights", "StatefulPartitionedCall/model_105/expanded_conv/depthwise/depthwise_bn_offset"], "attr": {"strides": {"list": {"i": ["1", "2", "2", "1"]}}, "padding": {"s": "VkFMSUQ="}, "data_format": {"s": "TkhXQw=="}, "T": {"type": "DT_FLOAT"}, "num_args": {"i": "1"}, "explicit_paddings": {"list": {}}, "fused_ops": {"list": {"s": ["Qmlhc0FkZA==", "UmVsdQ=="]}}, "dilations": {"list": {"i": ["1", "1", "1", "1"]}}}}, {"name": "StatefulPartitionedCall/model_105/expanded_conv/project/BatchNorm/FusedBatchNormV3", "op": "_FusedConv2D", "input": ["StatefulPartitionedCall/model_105/expanded_conv/depthwise/depthwise", "StatefulPartitionedCall/model_105/expanded_conv/project/Conv2D_weights", "StatefulPartitionedCall/model_105/expanded_conv/project/Conv2D_bn_offset"], "device": "/device:CPU:0", "attr": {"leakyrelu_alpha": {"f": 0.2}, "fused_ops": {"list": {"s": ["Qmlhc0FkZA=="]}}, "T": {"type": "DT_FLOAT"}, "strides": {"list": {"i": ["1", "1", "1", "1"]}}, "use_cudnn_on_gpu": {"b": true}, "padding": {"s": "U0FNRQ=="}, "epsilon": {"f": 0.0}, "explicit_paddings": {"list": {}}, "num_args": {"i": "1"}, "dilations": {"list": {"i": ["1", "1", "1", "1"]}}, "data_format": {"s": "TkhXQw=="}}}, {"name": "StatefulPartitionedCall/model_105/re_lu_2/Relu", "op": "_FusedConv2D", "input": ["StatefulPartitionedCall/model_105/expanded_conv/project/BatchNorm/FusedBatchNormV3", "StatefulPartitionedCall/model_105/expanded_conv_1/expand/Conv2D_weights", "StatefulPartitionedCall/model_105/expanded_conv_1/expand/Conv2D_bn_offset"], "device": "/device:CPU:0", "attr": {"epsilon": {"f": 0.0}, "T": {"type": "DT_FLOAT"}, "padding": {"s": "U0FNRQ=="}, "dilations": {"list": {"i": ["1", "1", "1", "1"]}}, "use_cudnn_on_gpu": {"b": true}, "explicit_paddings": {"list": {}}, "data_format": {"s": "TkhXQw=="}, "fused_ops": {"list": {"s": ["Qmlhc0FkZA==", "UmVsdQ=="]}}, "leakyrelu_alpha": {"f": 0.2}, "num_args": {"i": "1"}, "strides": {"list": {"i": ["1", "1", "1", "1"]}}}}, {"name": "StatefulPartitionedCall/model_105/expanded_conv_1/depthwise/pad/Pad", "op": "Pad", "input": ["StatefulPartitionedCall/model_105/re_lu_2/Relu", "StatefulPartitionedCall/model_105/expanded_conv_1/depthwise/pad/Pad/paddings"], "attr": {"T": {"type": "DT_FLOAT"}, "Tpaddings": {"type": "DT_INT32"}}}, {"name": "StatefulPartitionedCall/model_105/expanded_conv_1/depthwise/depthwise", "op": "FusedDepthwiseConv2dNative", "input": ["StatefulPartitionedCall/model_105/expanded_conv_1/depthwise/pad/Pad", "StatefulPartitionedCall/model_105/expanded_conv_1/depthwise/depthwise_weights", "StatefulPartitionedCall/model_105/expanded_conv_1/depthwise/depthwise_bn_offset"], "attr": {"explicit_paddings": {"list": {}}, "num_args": {"i": "1"}, "dilations": {"list": {"i": ["1", "1", "1", "1"]}}, "fused_ops": {"list": {"s": ["Qmlhc0FkZA==", "UmVsdQ=="]}}, "strides": {"list": {"i": ["1", "2", "2", "1"]}}, "T": {"type": "DT_FLOAT"}, "padding": {"s": "VkFMSUQ="}, "data_format": {"s": "TkhXQw=="}}}, {"name": "StatefulPartitionedCall/model_105/expanded_conv_1/project/BatchNorm/FusedBatchNormV3", "op": "_FusedConv2D", "input": ["StatefulPartitionedCall/model_105/expanded_conv_1/depthwise/depthwise", "StatefulPartitionedCall/model_105/expanded_conv_1/project/Conv2D_weights", "StatefulPartitionedCall/model_105/expanded_conv_1/project/Conv2D_bn_offset"], "device": "/device:CPU:0", "attr": {"padding": {"s": "U0FNRQ=="}, "use_cudnn_on_gpu": {"b": true}, "dilations": {"list": {"i": ["1", "1", "1", "1"]}}, "strides": {"list": {"i": ["1", "1", "1", "1"]}}, "data_format": {"s": "TkhXQw=="}, "T": {"type": "DT_FLOAT"}, "fused_ops": {"list": {"s": ["Qmlhc0FkZA=="]}}, "epsilon": {"f": 0.0}, "leakyrelu_alpha": {"f": 0.2}, "explicit_paddings": {"list": {}}, "num_args": {"i": "1"}}}, {"name": "StatefulPartitionedCall/model_105/re_lu_4/Relu", "op": "_FusedConv2D", "input": ["StatefulPartitionedCall/model_105/expanded_conv_1/project/BatchNorm/FusedBatchNormV3", "StatefulPartitionedCall/model_105/expanded_conv_2/expand/Conv2D_weights", "StatefulPartitionedCall/model_105/expanded_conv_2/expand/Conv2D_bn_offset"], "device": "/device:CPU:0", "attr": {"dilations": {"list": {"i": ["1", "1", "1", "1"]}}, "padding": {"s": "U0FNRQ=="}, "data_format": {"s": "TkhXQw=="}, "leakyrelu_alpha": {"f": 0.2}, "use_cudnn_on_gpu": {"b": true}, "T": {"type": "DT_FLOAT"}, "explicit_paddings": {"list": {}}, "num_args": {"i": "1"}, "epsilon": {"f": 0.0}, "strides": {"list": {"i": ["1", "1", "1", "1"]}}, "fused_ops": {"list": {"s": ["Qmlhc0FkZA==", "UmVsdQ=="]}}}}, {"name": "StatefulPartitionedCall/model_105/expanded_conv_2/depthwise/depthwise", "op": "FusedDepthwiseConv2dNative", "input": ["StatefulPartitionedCall/model_105/re_lu_4/Relu", "StatefulPartitionedCall/model_105/expanded_conv_2/depthwise/depthwise_weights", "StatefulPartitionedCall/model_105/expanded_conv_2/depthwise/depthwise_bn_offset"], "attr": {"fused_ops": {"list": {"s": ["Qmlhc0FkZA==", "UmVsdQ=="]}}, "strides": {"list": {"i": ["1", "1", "1", "1"]}}, "padding": {"s": "U0FNRQ=="}, "data_format": {"s": "TkhXQw=="}, "num_args": {"i": "1"}, "explicit_paddings": {"list": {}}, "T": {"type": "DT_FLOAT"}, "dilations": {"list": {"i": ["1", "1", "1", "1"]}}}}, {"name": "StatefulPartitionedCall/model_105/expanded_conv_2/project/BatchNorm/FusedBatchNormV3", "op": "_FusedConv2D", "input": ["StatefulPartitionedCall/model_105/expanded_conv_2/depthwise/depthwise", "StatefulPartitionedCall/model_105/expanded_conv_2/project/Conv2D_weights", "StatefulPartitionedCall/model_105/expanded_conv_2/project/Conv2D_bn_offset"], "device": "/device:CPU:0", "attr": {"leakyrelu_alpha": {"f": 0.2}, "num_args": {"i": "1"}, "T": {"type": "DT_FLOAT"}, "fused_ops": {"list": {"s": ["Qmlhc0FkZA=="]}}, "use_cudnn_on_gpu": {"b": true}, "dilations": {"list": {"i": ["1", "1", "1", "1"]}}, "padding": {"s": "U0FNRQ=="}, "explicit_paddings": {"list": {}}, "strides": {"list": {"i": ["1", "1", "1", "1"]}}, "data_format": {"s": "TkhXQw=="}, "epsilon": {"f": 0.0}}}, {"name": "StatefulPartitionedCall/model_105/expanded_conv_2/Add/add", "op": "AddV2", "input": ["StatefulPartitionedCall/model_105/expanded_conv_1/project/BatchNorm/FusedBatchNormV3", "StatefulPartitionedCall/model_105/expanded_conv_2/project/BatchNorm/FusedBatchNormV3"], "attr": {"T": {"type": "DT_FLOAT"}}}, {"name": "StatefulPartitionedCall/model_105/re_lu_6/Relu", "op": "_FusedConv2D", "input": ["StatefulPartitionedCall/model_105/expanded_conv_2/Add/add", "StatefulPartitionedCall/model_105/expanded_conv_3/expand/Conv2D_weights", "StatefulPartitionedCall/model_105/expanded_conv_3/expand/Conv2D_bn_offset"], "device": "/device:CPU:0", "attr": {"padding": {"s": "U0FNRQ=="}, "T": {"type": "DT_FLOAT"}, "fused_ops": {"list": {"s": ["Qmlhc0FkZA==", "UmVsdQ=="]}}, "dilations": {"list": {"i": ["1", "1", "1", "1"]}}, "leakyrelu_alpha": {"f": 0.2}, "epsilon": {"f": 0.0}, "num_args": {"i": "1"}, "strides": {"list": {"i": ["1", "1", "1", "1"]}}, "data_format": {"s": "TkhXQw=="}, "explicit_paddings": {"list": {}}, "use_cudnn_on_gpu": {"b": true}}}, {"name": "StatefulPartitionedCall/model_105/expanded_conv_3/depthwise/pad/Pad", "op": "Pad", "input": ["StatefulPartitionedCall/model_105/re_lu_6/Relu", "StatefulPartitionedCall/model_105/expanded_conv_3/depthwise/pad/Pad/paddings"], "attr": {"Tpaddings": {"type": "DT_INT32"}, "T": {"type": "DT_FLOAT"}}}, {"name": "StatefulPartitionedCall/model_105/expanded_conv_3/depthwise/depthwise", "op": "FusedDepthwiseConv2dNative", "input": ["StatefulPartitionedCall/model_105/expanded_conv_3/depthwise/pad/Pad", "StatefulPartitionedCall/model_105/expanded_conv_3/depthwise/depthwise_weights", "StatefulPartitionedCall/model_105/expanded_conv_3/depthwise/depthwise_bn_offset"], "attr": {"padding": {"s": "VkFMSUQ="}, "fused_ops": {"list": {"s": ["Qmlhc0FkZA==", "UmVsdQ=="]}}, "data_format": {"s": "TkhXQw=="}, "strides": {"list": {"i": ["1", "2", "2", "1"]}}, "num_args": {"i": "1"}, "explicit_paddings": {"list": {}}, "dilations": {"list": {"i": ["1", "1", "1", "1"]}}, "T": {"type": "DT_FLOAT"}}}, {"name": "StatefulPartitionedCall/model_105/expanded_conv_3/project/BatchNorm/FusedBatchNormV3", "op": "_FusedConv2D", "input": ["StatefulPartitionedCall/model_105/expanded_conv_3/depthwise/depthwise", "StatefulPartitionedCall/model_105/expanded_conv_3/project/Conv2D_weights", "StatefulPartitionedCall/model_105/expanded_conv_3/project/Conv2D_bn_offset"], "device": "/device:CPU:0", "attr": {"explicit_paddings": {"list": {}}, "use_cudnn_on_gpu": {"b": true}, "leakyrelu_alpha": {"f": 0.2}, "T": {"type": "DT_FLOAT"}, "dilations": {"list": {"i": ["1", "1", "1", "1"]}}, "fused_ops": {"list": {"s": ["Qmlhc0FkZA=="]}}, "strides": {"list": {"i": ["1", "1", "1", "1"]}}, "num_args": {"i": "1"}, "data_format": {"s": "TkhXQw=="}, "epsilon": {"f": 0.0}, "padding": {"s": "U0FNRQ=="}}}, {"name": "StatefulPartitionedCall/model_105/re_lu_8/Relu", "op": "_FusedConv2D", "input": ["StatefulPartitionedCall/model_105/expanded_conv_3/project/BatchNorm/FusedBatchNormV3", "StatefulPartitionedCall/model_105/expanded_conv_4/expand/Conv2D_weights", "StatefulPartitionedCall/model_105/expanded_conv_4/expand/Conv2D_bn_offset"], "device": "/device:CPU:0", "attr": {"T": {"type": "DT_FLOAT"}, "explicit_paddings": {"list": {}}, "strides": {"list": {"i": ["1", "1", "1", "1"]}}, "epsilon": {"f": 0.0}, "padding": {"s": "U0FNRQ=="}, "leakyrelu_alpha": {"f": 0.2}, "data_format": {"s": "TkhXQw=="}, "fused_ops": {"list": {"s": ["Qmlhc0FkZA==", "UmVsdQ=="]}}, "num_args": {"i": "1"}, "dilations": {"list": {"i": ["1", "1", "1", "1"]}}, "use_cudnn_on_gpu": {"b": true}}}, {"name": "StatefulPartitionedCall/model_105/expanded_conv_4/depthwise/depthwise", "op": "FusedDepthwiseConv2dNative", "input": ["StatefulPartitionedCall/model_105/re_lu_8/Relu", "StatefulPartitionedCall/model_105/expanded_conv_4/depthwise/depthwise_weights", "StatefulPartitionedCall/model_105/expanded_conv_4/depthwise/depthwise_bn_offset"], "attr": {"padding": {"s": "U0FNRQ=="}, "T": {"type": "DT_FLOAT"}, "dilations": {"list": {"i": ["1", "1", "1", "1"]}}, "fused_ops": {"list": {"s": ["Qmlhc0FkZA==", "UmVsdQ=="]}}, "data_format": {"s": "TkhXQw=="}, "strides": {"list": {"i": ["1", "1", "1", "1"]}}, "num_args": {"i": "1"}, "explicit_paddings": {"list": {}}}}, {"name": "StatefulPartitionedCall/model_105/expanded_conv_4/project/BatchNorm/FusedBatchNormV3", "op": "_FusedConv2D", "input": ["StatefulPartitionedCall/model_105/expanded_conv_4/depthwise/depthwise", "StatefulPartitionedCall/model_105/expanded_conv_4/project/Conv2D_weights", "StatefulPartitionedCall/model_105/expanded_conv_4/project/Conv2D_bn_offset"], "device": "/device:CPU:0", "attr": {"data_format": {"s": "TkhXQw=="}, "T": {"type": "DT_FLOAT"}, "leakyrelu_alpha": {"f": 0.2}, "explicit_paddings": {"list": {}}, "num_args": {"i": "1"}, "strides": {"list": {"i": ["1", "1", "1", "1"]}}, "epsilon": {"f": 0.0}, "fused_ops": {"list": {"s": ["Qmlhc0FkZA=="]}}, "use_cudnn_on_gpu": {"b": true}, "padding": {"s": "U0FNRQ=="}, "dilations": {"list": {"i": ["1", "1", "1", "1"]}}}}, {"name": "StatefulPartitionedCall/model_105/expanded_conv_4/Add/add", "op": "AddV2", "input": ["StatefulPartitionedCall/model_105/expanded_conv_3/project/BatchNorm/FusedBatchNormV3", "StatefulPartitionedCall/model_105/expanded_conv_4/project/BatchNorm/FusedBatchNormV3"], "attr": {"T": {"type": "DT_FLOAT"}}}, {"name": "StatefulPartitionedCall/model_105/re_lu_10/Relu", "op": "_FusedConv2D", "input": ["StatefulPartitionedCall/model_105/expanded_conv_4/Add/add", "StatefulPartitionedCall/model_105/expanded_conv_5/expand/Conv2D_weights", "StatefulPartitionedCall/model_105/expanded_conv_5/expand/Conv2D_bn_offset"], "device": "/device:CPU:0", "attr": {"epsilon": {"f": 0.0}, "T": {"type": "DT_FLOAT"}, "fused_ops": {"list": {"s": ["Qmlhc0FkZA==", "UmVsdQ=="]}}, "explicit_paddings": {"list": {}}, "padding": {"s": "U0FNRQ=="}, "leakyrelu_alpha": {"f": 0.2}, "data_format": {"s": "TkhXQw=="}, "num_args": {"i": "1"}, "use_cudnn_on_gpu": {"b": true}, "dilations": {"list": {"i": ["1", "1", "1", "1"]}}, "strides": {"list": {"i": ["1", "1", "1", "1"]}}}}, {"name": "StatefulPartitionedCall/model_105/expanded_conv_5/depthwise/depthwise", "op": "FusedDepthwiseConv2dNative", "input": ["StatefulPartitionedCall/model_105/re_lu_10/Relu", "StatefulPartitionedCall/model_105/expanded_conv_5/depthwise/depthwise_weights", "StatefulPartitionedCall/model_105/expanded_conv_5/depthwise/depthwise_bn_offset"], "attr": {"num_args": {"i": "1"}, "explicit_paddings": {"list": {}}, "fused_ops": {"list": {"s": ["Qmlhc0FkZA==", "UmVsdQ=="]}}, "dilations": {"list": {"i": ["1", "1", "1", "1"]}}, "data_format": {"s": "TkhXQw=="}, "padding": {"s": "U0FNRQ=="}, "T": {"type": "DT_FLOAT"}, "strides": {"list": {"i": ["1", "1", "1", "1"]}}}}, {"name": "StatefulPartitionedCall/model_105/expanded_conv_5/project/BatchNorm/FusedBatchNormV3", "op": "_FusedConv2D", "input": ["StatefulPartitionedCall/model_105/expanded_conv_5/depthwise/depthwise", "StatefulPartitionedCall/model_105/expanded_conv_5/project/Conv2D_weights", "StatefulPartitionedCall/model_105/expanded_conv_5/project/Conv2D_bn_offset"], "device": "/device:CPU:0", "attr": {"dilations": {"list": {"i": ["1", "1", "1", "1"]}}, "epsilon": {"f": 0.0}, "data_format": {"s": "TkhXQw=="}, "num_args": {"i": "1"}, "leakyrelu_alpha": {"f": 0.2}, "use_cudnn_on_gpu": {"b": true}, "T": {"type": "DT_FLOAT"}, "explicit_paddings": {"list": {}}, "padding": {"s": "U0FNRQ=="}, "fused_ops": {"list": {"s": ["Qmlhc0FkZA=="]}}, "strides": {"list": {"i": ["1", "1", "1", "1"]}}}}, {"name": "StatefulPartitionedCall/model_105/expanded_conv_5/Add/add", "op": "AddV2", "input": ["StatefulPartitionedCall/model_105/expanded_conv_4/Add/add", "StatefulPartitionedCall/model_105/expanded_conv_5/project/BatchNorm/FusedBatchNormV3"], "attr": {"T": {"type": "DT_FLOAT"}}}, {"name": "StatefulPartitionedCall/model_105/re_lu_12/Relu", "op": "_FusedConv2D", "input": ["StatefulPartitionedCall/model_105/expanded_conv_5/Add/add", "StatefulPartitionedCall/model_105/expanded_conv_6/expand/Conv2D_weights", "StatefulPartitionedCall/model_105/expanded_conv_6/expand/Conv2D_bn_offset"], "device": "/device:CPU:0", "attr": {"padding": {"s": "U0FNRQ=="}, "strides": {"list": {"i": ["1", "1", "1", "1"]}}, "num_args": {"i": "1"}, "use_cudnn_on_gpu": {"b": true}, "explicit_paddings": {"list": {}}, "leakyrelu_alpha": {"f": 0.2}, "epsilon": {"f": 0.0}, "fused_ops": {"list": {"s": ["Qmlhc0FkZA==", "UmVsdQ=="]}}, "T": {"type": "DT_FLOAT"}, "dilations": {"list": {"i": ["1", "1", "1", "1"]}}, "data_format": {"s": "TkhXQw=="}}}, {"name": "StatefulPartitionedCall/model_105/expanded_conv_6/depthwise/depthwise", "op": "FusedDepthwiseConv2dNative", "input": ["StatefulPartitionedCall/model_105/re_lu_12/Relu", "StatefulPartitionedCall/model_105/expanded_conv_6/depthwise/depthwise_weights", "StatefulPartitionedCall/model_105/expanded_conv_6/depthwise/depthwise_bn_offset"], "attr": {"fused_ops": {"list": {"s": ["Qmlhc0FkZA==", "UmVsdQ=="]}}, "T": {"type": "DT_FLOAT"}, "num_args": {"i": "1"}, "padding": {"s": "U0FNRQ=="}, "strides": {"list": {"i": ["1", "1", "1", "1"]}}, "data_format": {"s": "TkhXQw=="}, "explicit_paddings": {"list": {}}, "dilations": {"list": {"i": ["1", "1", "1", "1"]}}}}, {"name": "StatefulPartitionedCall/model_105/expanded_conv_6/project/BatchNorm/FusedBatchNormV3", "op": "_FusedConv2D", "input": ["StatefulPartitionedCall/model_105/expanded_conv_6/depthwise/depthwise", "StatefulPartitionedCall/model_105/expanded_conv_6/project/Conv2D_weights", "StatefulPartitionedCall/model_105/expanded_conv_6/project/Conv2D_bn_offset"], "device": "/device:CPU:0", "attr": {"use_cudnn_on_gpu": {"b": true}, "epsilon": {"f": 0.0}, "T": {"type": "DT_FLOAT"}, "strides": {"list": {"i": ["1", "1", "1", "1"]}}, "data_format": {"s": "TkhXQw=="}, "leakyrelu_alpha": {"f": 0.2}, "explicit_paddings": {"list": {}}, "num_args": {"i": "1"}, "fused_ops": {"list": {"s": ["Qmlhc0FkZA=="]}}, "padding": {"s": "U0FNRQ=="}, "dilations": {"list": {"i": ["1", "1", "1", "1"]}}}}, {"name": "StatefulPartitionedCall/model_105/re_lu_14/Relu", "op": "_FusedConv2D", "input": ["StatefulPartitionedCall/model_105/expanded_conv_6/project/BatchNorm/FusedBatchNormV3", "StatefulPartitionedCall/model_105/expanded_conv_7/expand/Conv2D_weights", "StatefulPartitionedCall/model_105/expanded_conv_7/expand/Conv2D_bn_offset"], "device": "/device:CPU:0", "attr": {"num_args": {"i": "1"}, "explicit_paddings": {"list": {}}, "leakyrelu_alpha": {"f": 0.2}, "dilations": {"list": {"i": ["1", "1", "1", "1"]}}, "strides": {"list": {"i": ["1", "1", "1", "1"]}}, "padding": {"s": "U0FNRQ=="}, "fused_ops": {"list": {"s": ["Qmlhc0FkZA==", "UmVsdQ=="]}}, "T": {"type": "DT_FLOAT"}, "use_cudnn_on_gpu": {"b": true}, "epsilon": {"f": 0.0}, "data_format": {"s": "TkhXQw=="}}}, {"name": "StatefulPartitionedCall/model_105/expanded_conv_7/depthwise/depthwise", "op": "FusedDepthwiseConv2dNative", "input": ["StatefulPartitionedCall/model_105/re_lu_14/Relu", "StatefulPartitionedCall/model_105/expanded_conv_7/depthwise/depthwise_weights", "StatefulPartitionedCall/model_105/expanded_conv_7/depthwise/depthwise_bn_offset"], "attr": {"fused_ops": {"list": {"s": ["Qmlhc0FkZA==", "UmVsdQ=="]}}, "explicit_paddings": {"list": {}}, "data_format": {"s": "TkhXQw=="}, "strides": {"list": {"i": ["1", "1", "1", "1"]}}, "padding": {"s": "U0FNRQ=="}, "dilations": {"list": {"i": ["1", "1", "1", "1"]}}, "T": {"type": "DT_FLOAT"}, "num_args": {"i": "1"}}}, {"name": "StatefulPartitionedCall/model_105/expanded_conv_7/project/BatchNorm/FusedBatchNormV3", "op": "_FusedConv2D", "input": ["StatefulPartitionedCall/model_105/expanded_conv_7/depthwise/depthwise", "StatefulPartitionedCall/model_105/expanded_conv_7/project/Conv2D_weights", "StatefulPartitionedCall/model_105/expanded_conv_7/project/Conv2D_bn_offset"], "device": "/device:CPU:0", "attr": {"dilations": {"list": {"i": ["1", "1", "1", "1"]}}, "padding": {"s": "U0FNRQ=="}, "use_cudnn_on_gpu": {"b": true}, "fused_ops": {"list": {"s": ["Qmlhc0FkZA=="]}}, "epsilon": {"f": 0.0}, "data_format": {"s": "TkhXQw=="}, "T": {"type": "DT_FLOAT"}, "strides": {"list": {"i": ["1", "1", "1", "1"]}}, "explicit_paddings": {"list": {}}, "num_args": {"i": "1"}, "leakyrelu_alpha": {"f": 0.2}}}, {"name": "StatefulPartitionedCall/model_105/expanded_conv_7/Add/add", "op": "AddV2", "input": ["StatefulPartitionedCall/model_105/expanded_conv_6/project/BatchNorm/FusedBatchNormV3", "StatefulPartitionedCall/model_105/expanded_conv_7/project/BatchNorm/FusedBatchNormV3"], "attr": {"T": {"type": "DT_FLOAT"}}}, {"name": "StatefulPartitionedCall/model_105/re_lu_16/Relu", "op": "_FusedConv2D", "input": ["StatefulPartitionedCall/model_105/expanded_conv_7/Add/add", "StatefulPartitionedCall/model_105/Conv_1/Conv2D_weights", "StatefulPartitionedCall/model_105/Conv_1/Conv2D_bn_offset"], "device": "/device:CPU:0", "attr": {"leakyrelu_alpha": {"f": 0.2}, "T": {"type": "DT_FLOAT"}, "fused_ops": {"list": {"s": ["Qmlhc0FkZA==", "UmVsdQ=="]}}, "data_format": {"s": "TkhXQw=="}, "epsilon": {"f": 0.0}, "strides": {"list": {"i": ["1", "1", "1", "1"]}}, "num_args": {"i": "1"}, "dilations": {"list": {"i": ["1", "1", "1", "1"]}}, "use_cudnn_on_gpu": {"b": true}, "padding": {"s": "U0FNRQ=="}, "explicit_paddings": {"list": {}}}}, {"name": "StatefulPartitionedCall/model_105/avg_pool/Mean", "op": "Mean", "input": ["StatefulPartitionedCall/model_105/re_lu_16/Relu", "StatefulPartitionedCall/model_105/avg_pool/Mean/reduction_indices"], "attr": {"Tidx": {"type": "DT_INT32"}, "T": {"type": "DT_FLOAT"}, "keep_dims": {"b": false}}}, {"name": "StatefulPartitionedCall/model_105/re_lu_18/Relu", "op": "_FusedMatMul", "input": ["StatefulPartitionedCall/model_105/avg_pool/Mean", "StatefulPartitionedCall/model_105/keypoints_activation_base_dense_mobilenetv3_Dense/MatMul/ReadVariableOp", "StatefulPartitionedCall/model_105/keypoints_activation_base_dense_mobilenetv3_Dense/BiasAdd/ReadVariableOp"], "device": "/device:CPU:0", "attr": {"fused_ops": {"list": {"s": ["Qmlhc0FkZA==", "UmVsdQ=="]}}, "T": {"type": "DT_FLOAT"}, "epsilon": {"f": 0.0}, "transpose_b": {"b": false}, "leakyrelu_alpha": {"f": 0.2}, "transpose_a": {"b": false}, "num_args": {"i": "1"}}}, {"name": "StatefulPartitionedCall/model_105/re_lu_19/Relu", "op": "_FusedMatMul", "input": ["StatefulPartitionedCall/model_105/avg_pool/Mean", "StatefulPartitionedCall/model_105/face_base_dense_mobilenetv3_Dense/MatMul/ReadVariableOp", "StatefulPartitionedCall/model_105/face_base_dense_mobilenetv3_Dense/BiasAdd/ReadVariableOp"], "device": "/device:CPU:0", "attr": {"transpose_a": {"b": false}, "transpose_b": {"b": false}, "fused_ops": {"list": {"s": ["Qmlhc0FkZA==", "UmVsdQ=="]}}, "T": {"type": "DT_FLOAT"}, "num_args": {"i": "1"}, "epsilon": {"f": 0.0}, "leakyrelu_alpha": {"f": 0.2}}}, {"name": "StatefulPartitionedCall/model_105/re_lu_17/Relu", "op": "_FusedMatMul", "input": ["StatefulPartitionedCall/model_105/avg_pool/Mean", "StatefulPartitionedCall/model_105/transforms_activation_base_dense_mobilenetv3_Dense/MatMul/ReadVariableOp", "StatefulPartitionedCall/model_105/transforms_activation_base_dense_mobilenetv3_Dense/BiasAdd/ReadVariableOp"], "device": "/device:CPU:0", "attr": {"leakyrelu_alpha": {"f": 0.2}, "fused_ops": {"list": {"s": ["Qmlhc0FkZA==", "UmVsdQ=="]}}, "epsilon": {"f": 0.0}, "transpose_a": {"b": false}, "transpose_b": {"b": false}, "T": {"type": "DT_FLOAT"}, "num_args": {"i": "1"}}}, {"name": "StatefulPartitionedCall/model_105/keypoints_activation/BiasAdd", "op": "_FusedMatMul", "input": ["StatefulPartitionedCall/model_105/re_lu_18/Relu", "StatefulPartitionedCall/model_105/keypoints_activation/MatMul/ReadVariableOp", "StatefulPartitionedCall/model_105/keypoints_activation/BiasAdd/ReadVariableOp"], "device": "/device:CPU:0", "attr": {"T": {"type": "DT_FLOAT"}, "transpose_b": {"b": false}, "num_args": {"i": "1"}, "fused_ops": {"list": {"s": ["Qmlhc0FkZA=="]}}, "epsilon": {"f": 0.0}, "leakyrelu_alpha": {"f": 0.2}, "transpose_a": {"b": false}}}, {"name": "StatefulPartitionedCall/model_105/face/BiasAdd", "op": "_FusedMatMul", "input": ["StatefulPartitionedCall/model_105/re_lu_19/Relu", "StatefulPartitionedCall/model_105/face/MatMul/ReadVariableOp", "StatefulPartitionedCall/model_105/face/BiasAdd/ReadVariableOp"], "device": "/device:CPU:0", "attr": {"fused_ops": {"list": {"s": ["Qmlhc0FkZA=="]}}, "leakyrelu_alpha": {"f": 0.2}, "transpose_a": {"b": false}, "transpose_b": {"b": false}, "epsilon": {"f": 0.0}, "num_args": {"i": "1"}, "T": {"type": "DT_FLOAT"}}}, {"name": "StatefulPartitionedCall/model_105/transforms_activation/BiasAdd", "op": "_FusedMatMul", "input": ["StatefulPartitionedCall/model_105/re_lu_17/Relu", "StatefulPartitionedCall/model_105/transforms_activation/MatMul/ReadVariableOp", "StatefulPartitionedCall/model_105/transforms_activation/BiasAdd/ReadVariableOp"], "device": "/device:CPU:0", "attr": {"leakyrelu_alpha": {"f": 0.2}, "num_args": {"i": "1"}, "epsilon": {"f": 0.0}, "transpose_a": {"b": false}, "T": {"type": "DT_FLOAT"}, "transpose_b": {"b": false}, "fused_ops": {"list": {"s": ["Qmlhc0FkZA=="]}}}}, {"name": "StatefulPartitionedCall/model_105/mouth_nose_align/Reshape", "op": "Reshape", "input": ["StatefulPartitionedCall/model_105/keypoints_activation/BiasAdd", "StatefulPartitionedCall/model_105/mouth_nose_align/Reshape/shape"], "attr": {"T": {"type": "DT_FLOAT"}, "Tshape": {"type": "DT_INT32"}}}, {"name": "StatefulPartitionedCall/model_105/gaze_eyes_brows_align/Reshape", "op": "Reshape", "input": ["StatefulPartitionedCall/model_105/keypoints_activation/BiasAdd", "StatefulPartitionedCall/model_105/gaze_eyes_brows_align/Reshape/shape"], "attr": {"Tshape": {"type": "DT_INT32"}, "T": {"type": "DT_FLOAT"}}}, {"name": "StatefulPartitionedCall/model_105/activation/Sigmoid", "op": "Sigmoid", "input": ["StatefulPartitionedCall/model_105/face/BiasAdd"], "attr": {"T": {"type": "DT_FLOAT"}}}, {"name": "Identity_2", "op": "Identity", "input": ["StatefulPartitionedCall/model_105/transforms_activation/BiasAdd"], "attr": {"T": {"type": "DT_FLOAT"}}}, {"name": "StatefulPartitionedCall/model_105/mouth_nose_align/mul", "op": "Mul", "input": ["StatefulPartitionedCall/model_105/mouth_nose_align/Reshape", "StatefulPartitionedCall/model_105/mouth_nose_align/mul/y"], "attr": {"T": {"type": "DT_FLOAT"}}}, {"name": "StatefulPartitionedCall/model_105/gaze_eyes_brows_align/mul", "op": "Mul", "input": ["StatefulPartitionedCall/model_105/gaze_eyes_brows_align/Reshape", "StatefulPartitionedCall/model_105/gaze_eyes_brows_align/mul/y"], "attr": {"T": {"type": "DT_FLOAT"}}}, {"name": "Identity_1", "op": "Identity", "input": ["StatefulPartitionedCall/model_105/activation/Sigmoid"], "attr": {"T": {"type": "DT_FLOAT"}}}, {"name": "StatefulPartitionedCall/model_105/mouth_nose_align/concat", "op": "ConcatV2", "input": ["StatefulPartitionedCall/model_105/mouth_nose_align/mul", "StatefulPartitionedCall/model_105/mouth_nose_align/zeros", "StatefulPartitionedCall/model_105/mouth_nose_align/concat/axis"], "attr": {"T": {"type": "DT_FLOAT"}, "N": {"i": "2"}, "Tidx": {"type": "DT_INT32"}}}, {"name": "StatefulPartitionedCall/model_105/gaze_eyes_brows_align/concat", "op": "ConcatV2", "input": ["StatefulPartitionedCall/model_105/gaze_eyes_brows_align/mul", "StatefulPartitionedCall/model_105/gaze_eyes_brows_align/zeros", "StatefulPartitionedCall/model_105/gaze_eyes_brows_align/concat/axis"], "attr": {"T": {"type": "DT_FLOAT"}, "N": {"i": "2"}, "Tidx": {"type": "DT_INT32"}}}, {"name": "StatefulPartitionedCall/model_105/mouth_nose_align/PartitionedCall/Reshape", "op": "Reshape", "input": ["StatefulPartitionedCall/model_105/mouth_nose_align/concat", "StatefulPartitionedCall/model_105/mouth_nose_align/PartitionedCall/Reshape/shape"], "attr": {"Tshape": {"type": "DT_INT32"}, "T": {"type": "DT_FLOAT"}}}, {"name": "StatefulPartitionedCall/model_105/gaze_eyes_brows_align/PartitionedCall/Reshape", "op": "Reshape", "input": ["StatefulPartitionedCall/model_105/gaze_eyes_brows_align/concat", "StatefulPartitionedCall/model_105/gaze_eyes_brows_align/PartitionedCall/Reshape/shape"], "attr": {"Tshape": {"type": "DT_INT32"}, "T": {"type": "DT_FLOAT"}}}, {"name": "StatefulPartitionedCall/model_105/mouth_nose_align/PartitionedCall/strided_slice_2", "op": "StridedSlice", "input": ["StatefulPartitionedCall/model_105/mouth_nose_align/PartitionedCall/Reshape", "StatefulPartitionedCall/model_105/mouth_nose_align/PartitionedCall/strided_slice_2/stack", "StatefulPartitionedCall/model_105/mouth_nose_align/PartitionedCall/strided_slice_2/stack_1", "StatefulPartitionedCall/model_105/mouth_nose_align/PartitionedCall/strided_slice_2/stack_2"], "attr": {"Index": {"type": "DT_INT32"}, "shrink_axis_mask": {"i": "0"}, "begin_mask": {"i": "7"}, "end_mask": {"i": "3"}, "new_axis_mask": {"i": "0"}, "T": {"type": "DT_FLOAT"}, "ellipsis_mask": {"i": "0"}}}, {"name": "StatefulPartitionedCall/model_105/gaze_eyes_brows_align/PartitionedCall/strided_slice_2", "op": "StridedSlice", "input": ["StatefulPartitionedCall/model_105/gaze_eyes_brows_align/PartitionedCall/Reshape", "StatefulPartitionedCall/model_105/gaze_eyes_brows_align/PartitionedCall/strided_slice_2/stack", "StatefulPartitionedCall/model_105/gaze_eyes_brows_align/PartitionedCall/strided_slice_2/stack_1", "StatefulPartitionedCall/model_105/gaze_eyes_brows_align/PartitionedCall/strided_slice_2/stack_2"], "attr": {"T": {"type": "DT_FLOAT"}, "end_mask": {"i": "3"}, "Index": {"type": "DT_INT32"}, "new_axis_mask": {"i": "0"}, "shrink_axis_mask": {"i": "0"}, "ellipsis_mask": {"i": "0"}, "begin_mask": {"i": "7"}}}, {"name": "StatefulPartitionedCall/model_105/mouth_nose_align/PartitionedCall/GatherV2", "op": "GatherV2", "input": ["StatefulPartitionedCall/model_105/mouth_nose_align/PartitionedCall/strided_slice_2", "StatefulPartitionedCall/model_105/mouth_nose_align/PartitionedCall/GatherV2/indices", "StatefulPartitionedCall/model_105/mouth_nose_align/PartitionedCall/GatherV2/axis"], "attr": {"batch_dims": {"i": "0"}, "Taxis": {"type": "DT_INT32"}, "Tparams": {"type": "DT_FLOAT"}, "Tindices": {"type": "DT_INT32"}}}, {"name": "StatefulPartitionedCall/model_105/mouth_nose_align/PartitionedCall/strided_slice_4", "op": "StridedSlice", "input": ["StatefulPartitionedCall/model_105/mouth_nose_align/PartitionedCall/strided_slice_2", "StatefulPartitionedCall/model_105/mouth_nose_align/PartitionedCall/strided_slice_4/stack", "StatefulPartitionedCall/model_105/mouth_nose_align/PartitionedCall/strided_slice_4/stack_1", "StatefulPartitionedCall/model_105/mouth_nose_align/PartitionedCall/strided_slice_4/stack_2"], "attr": {"Index": {"type": "DT_INT32"}, "end_mask": {"i": "5"}, "begin_mask": {"i": "5"}, "T": {"type": "DT_FLOAT"}, "new_axis_mask": {"i": "0"}, "shrink_axis_mask": {"i": "0"}, "ellipsis_mask": {"i": "0"}}}, {"name": "StatefulPartitionedCall/model_105/mouth_nose_align/PartitionedCall/strided_slice_3", "op": "StridedSlice", "input": ["StatefulPartitionedCall/model_105/mouth_nose_align/PartitionedCall/strided_slice_2", "StatefulPartitionedCall/model_105/mouth_nose_align/PartitionedCall/strided_slice_3/stack", "StatefulPartitionedCall/model_105/mouth_nose_align/PartitionedCall/strided_slice_3/stack_1", "StatefulPartitionedCall/model_105/mouth_nose_align/PartitionedCall/strided_slice_3/stack_2"], "attr": {"shrink_axis_mask": {"i": "0"}, "T": {"type": "DT_FLOAT"}, "end_mask": {"i": "5"}, "ellipsis_mask": {"i": "0"}, "new_axis_mask": {"i": "0"}, "begin_mask": {"i": "5"}, "Index": {"type": "DT_INT32"}}}, {"name": "StatefulPartitionedCall/model_105/gaze_eyes_brows_align/PartitionedCall/GatherV2", "op": "GatherV2", "input": ["StatefulPartitionedCall/model_105/gaze_eyes_brows_align/PartitionedCall/strided_slice_2", "StatefulPartitionedCall/model_105/gaze_eyes_brows_align/PartitionedCall/GatherV2/indices", "StatefulPartitionedCall/model_105/gaze_eyes_brows_align/PartitionedCall/GatherV2/axis"], "attr": {"Tindices": {"type": "DT_INT32"}, "Tparams": {"type": "DT_FLOAT"}, "batch_dims": {"i": "0"}, "Taxis": {"type": "DT_INT32"}}}, {"name": "StatefulPartitionedCall/model_105/gaze_eyes_brows_align/PartitionedCall/strided_slice_4", "op": "StridedSlice", "input": ["StatefulPartitionedCall/model_105/gaze_eyes_brows_align/PartitionedCall/strided_slice_2", "StatefulPartitionedCall/model_105/gaze_eyes_brows_align/PartitionedCall/strided_slice_4/stack", "StatefulPartitionedCall/model_105/gaze_eyes_brows_align/PartitionedCall/strided_slice_4/stack_1", "StatefulPartitionedCall/model_105/gaze_eyes_brows_align/PartitionedCall/strided_slice_4/stack_2"], "attr": {"shrink_axis_mask": {"i": "0"}, "T": {"type": "DT_FLOAT"}, "end_mask": {"i": "5"}, "begin_mask": {"i": "5"}, "new_axis_mask": {"i": "0"}, "ellipsis_mask": {"i": "0"}, "Index": {"type": "DT_INT32"}}}, {"name": "StatefulPartitionedCall/model_105/gaze_eyes_brows_align/PartitionedCall/strided_slice_3", "op": "StridedSlice", "input": ["StatefulPartitionedCall/model_105/gaze_eyes_brows_align/PartitionedCall/strided_slice_2", "StatefulPartitionedCall/model_105/gaze_eyes_brows_align/PartitionedCall/strided_slice_3/stack", "StatefulPartitionedCall/model_105/gaze_eyes_brows_align/PartitionedCall/strided_slice_3/stack_1", "StatefulPartitionedCall/model_105/gaze_eyes_brows_align/PartitionedCall/strided_slice_3/stack_2"], "attr": {"T": {"type": "DT_FLOAT"}, "shrink_axis_mask": {"i": "0"}, "begin_mask": {"i": "5"}, "ellipsis_mask": {"i": "0"}, "Index": {"type": "DT_INT32"}, "end_mask": {"i": "5"}, "new_axis_mask": {"i": "0"}}}, {"name": "StatefulPartitionedCall/model_105/mouth_nose_align/PartitionedCall/Sub", "op": "Sub", "input": ["StatefulPartitionedCall/model_105/mouth_nose_align/PartitionedCall/strided_slice_4", "StatefulPartitionedCall/model_105/mouth_nose_align/PartitionedCall/strided_slice_3"], "attr": {"T": {"type": "DT_FLOAT"}}}, {"name": "StatefulPartitionedCall/model_105/gaze_eyes_brows_align/PartitionedCall/Sub", "op": "Sub", "input": ["StatefulPartitionedCall/model_105/gaze_eyes_brows_align/PartitionedCall/strided_slice_4", "StatefulPartitionedCall/model_105/gaze_eyes_brows_align/PartitionedCall/strided_slice_3"], "attr": {"T": {"type": "DT_FLOAT"}}}, {"name": "StatefulPartitionedCall/model_105/mouth_nose_align/PartitionedCall/norm/ArithmeticOptimizer/ReplaceMulWithSquare_mul", "op": "Square", "input": ["StatefulPartitionedCall/model_105/mouth_nose_align/PartitionedCall/Sub"], "attr": {"T": {"type": "DT_FLOAT"}}}, {"name": "StatefulPartitionedCall/model_105/gaze_eyes_brows_align/PartitionedCall/norm/ArithmeticOptimizer/ReplaceMulWithSquare_mul", "op": "Square", "input": ["StatefulPartitionedCall/model_105/gaze_eyes_brows_align/PartitionedCall/Sub"], "attr": {"T": {"type": "DT_FLOAT"}}}, {"name": "StatefulPartitionedCall/model_105/mouth_nose_align/PartitionedCall/norm/Sum", "op": "Sum", "input": ["StatefulPartitionedCall/model_105/mouth_nose_align/PartitionedCall/norm/ArithmeticOptimizer/ReplaceMulWithSquare_mul", "StatefulPartitionedCall/model_105/mouth_nose_align/PartitionedCall/norm/Sum/reduction_indices"], "attr": {"Tidx": {"type": "DT_INT32"}, "T": {"type": "DT_FLOAT"}, "keep_dims": {"b": true}}}, {"name": "StatefulPartitionedCall/model_105/gaze_eyes_brows_align/PartitionedCall/norm/Sum", "op": "Sum", "input": ["StatefulPartitionedCall/model_105/gaze_eyes_brows_align/PartitionedCall/norm/ArithmeticOptimizer/ReplaceMulWithSquare_mul", "StatefulPartitionedCall/model_105/gaze_eyes_brows_align/PartitionedCall/norm/Sum/reduction_indices"], "attr": {"Tidx": {"type": "DT_INT32"}, "keep_dims": {"b": true}, "T": {"type": "DT_FLOAT"}}}, {"name": "StatefulPartitionedCall/model_105/mouth_nose_align/PartitionedCall/norm/Sqrt", "op": "Rsqrt", "input": ["StatefulPartitionedCall/model_105/mouth_nose_align/PartitionedCall/norm/Sum"], "attr": {"T": {"type": "DT_FLOAT"}}}, {"name": "StatefulPartitionedCall/model_105/gaze_eyes_brows_align/PartitionedCall/norm/Sqrt", "op": "Rsqrt", "input": ["StatefulPartitionedCall/model_105/gaze_eyes_brows_align/PartitionedCall/norm/Sum"], "attr": {"T": {"type": "DT_FLOAT"}}}, {"name": "StatefulPartitionedCall/model_105/mouth_nose_align/PartitionedCall/truediv", "op": "Mul", "input": ["StatefulPartitionedCall/model_105/mouth_nose_align/PartitionedCall/Sub", "StatefulPartitionedCall/model_105/mouth_nose_align/PartitionedCall/norm/Sqrt"], "attr": {"T": {"type": "DT_FLOAT"}}}, {"name": "StatefulPartitionedCall/model_105/gaze_eyes_brows_align/PartitionedCall/truediv", "op": "Mul", "input": ["StatefulPartitionedCall/model_105/gaze_eyes_brows_align/PartitionedCall/Sub", "StatefulPartitionedCall/model_105/gaze_eyes_brows_align/PartitionedCall/norm/Sqrt"], "attr": {"T": {"type": "DT_FLOAT"}}}, {"name": "StatefulPartitionedCall/model_105/mouth_nose_align/PartitionedCall/MatMul", "op": "BatchMatMulV2", "input": ["StatefulPartitionedCall/model_105/mouth_nose_align/PartitionedCall/truediv", "StatefulPartitionedCall/model_105/mouth_nose_align/PartitionedCall/Const"], "attr": {"adj_y": {"b": false}, "adj_x": {"b": false}, "T": {"type": "DT_FLOAT"}}}, {"name": "StatefulPartitionedCall/model_105/gaze_eyes_brows_align/PartitionedCall/MatMul", "op": "BatchMatMulV2", "input": ["StatefulPartitionedCall/model_105/gaze_eyes_brows_align/PartitionedCall/truediv", "StatefulPartitionedCall/model_105/gaze_eyes_brows_align/PartitionedCall/Const"], "attr": {"adj_y": {"b": false}, "adj_x": {"b": false}, "T": {"type": "DT_FLOAT"}}}, {"name": "StatefulPartitionedCall/model_105/mouth_nose_align/PartitionedCall/concat", "op": "ConcatV2", "input": ["StatefulPartitionedCall/model_105/mouth_nose_align/PartitionedCall/truediv", "StatefulPartitionedCall/model_105/mouth_nose_align/PartitionedCall/MatMul", "StatefulPartitionedCall/model_105/mouth_nose_align/PartitionedCall/concat/axis"], "attr": {"Tidx": {"type": "DT_INT32"}, "N": {"i": "2"}, "T": {"type": "DT_FLOAT"}}}, {"name": "StatefulPartitionedCall/model_105/gaze_eyes_brows_align/PartitionedCall/concat", "op": "ConcatV2", "input": ["StatefulPartitionedCall/model_105/gaze_eyes_brows_align/PartitionedCall/truediv", "StatefulPartitionedCall/model_105/gaze_eyes_brows_align/PartitionedCall/MatMul", "StatefulPartitionedCall/model_105/gaze_eyes_brows_align/PartitionedCall/concat/axis"], "attr": {"N": {"i": "2"}, "T": {"type": "DT_FLOAT"}, "Tidx": {"type": "DT_INT32"}}}, {"name": "StatefulPartitionedCall/model_105/mouth_nose_align/PartitionedCall/ArithmeticOptimizer/FoldTransposeIntoMatMul_MatMul_1", "op": "BatchMatMulV2", "input": ["StatefulPartitionedCall/model_105/mouth_nose_align/PartitionedCall/GatherV2", "StatefulPartitionedCall/model_105/mouth_nose_align/PartitionedCall/concat"], "attr": {"adj_x": {"b": false}, "T": {"type": "DT_FLOAT"}, "adj_y": {"b": true}}}, {"name": "StatefulPartitionedCall/model_105/gaze_eyes_brows_align/PartitionedCall/ArithmeticOptimizer/FoldTransposeIntoMatMul_MatMul_1", "op": "BatchMatMulV2", "input": ["StatefulPartitionedCall/model_105/gaze_eyes_brows_align/PartitionedCall/GatherV2", "StatefulPartitionedCall/model_105/gaze_eyes_brows_align/PartitionedCall/concat"], "attr": {"adj_y": {"b": true}, "adj_x": {"b": false}, "T": {"type": "DT_FLOAT"}}}, {"name": "StatefulPartitionedCall/model_105/mouth_nose_align/PartitionedCall/Max", "op": "Max", "input": ["StatefulPartitionedCall/model_105/mouth_nose_align/PartitionedCall/ArithmeticOptimizer/FoldTransposeIntoMatMul_MatMul_1", "StatefulPartitionedCall/model_105/mouth_nose_align/PartitionedCall/Max/reduction_indices"], "attr": {"Tidx": {"type": "DT_INT32"}, "keep_dims": {"b": true}, "T": {"type": "DT_FLOAT"}}}, {"name": "StatefulPartitionedCall/model_105/mouth_nose_align/PartitionedCall/Min", "op": "Min", "input": ["StatefulPartitionedCall/model_105/mouth_nose_align/PartitionedCall/ArithmeticOptimizer/FoldTransposeIntoMatMul_MatMul_1", "StatefulPartitionedCall/model_105/mouth_nose_align/PartitionedCall/Min/reduction_indices"], "attr": {"T": {"type": "DT_FLOAT"}, "Tidx": {"type": "DT_INT32"}, "keep_dims": {"b": true}}}, {"name": "StatefulPartitionedCall/model_105/gaze_eyes_brows_align/PartitionedCall/Max", "op": "Max", "input": ["StatefulPartitionedCall/model_105/gaze_eyes_brows_align/PartitionedCall/ArithmeticOptimizer/FoldTransposeIntoMatMul_MatMul_1", "StatefulPartitionedCall/model_105/gaze_eyes_brows_align/PartitionedCall/Max/reduction_indices"], "attr": {"keep_dims": {"b": true}, "T": {"type": "DT_FLOAT"}, "Tidx": {"type": "DT_INT32"}}}, {"name": "StatefulPartitionedCall/model_105/gaze_eyes_brows_align/PartitionedCall/Min", "op": "Min", "input": ["StatefulPartitionedCall/model_105/gaze_eyes_brows_align/PartitionedCall/ArithmeticOptimizer/FoldTransposeIntoMatMul_MatMul_1", "StatefulPartitionedCall/model_105/gaze_eyes_brows_align/PartitionedCall/Min/reduction_indices"], "attr": {"Tidx": {"type": "DT_INT32"}, "keep_dims": {"b": true}, "T": {"type": "DT_FLOAT"}}}, {"name": "StatefulPartitionedCall/model_105/mouth_nose_align/PartitionedCall/Add", "op": "AddV2", "input": ["StatefulPartitionedCall/model_105/mouth_nose_align/PartitionedCall/Min", "StatefulPartitionedCall/model_105/mouth_nose_align/PartitionedCall/Max"], "attr": {"T": {"type": "DT_FLOAT"}}}, {"name": "StatefulPartitionedCall/model_105/mouth_nose_align/PartitionedCall/Sub_1", "op": "Sub", "input": ["StatefulPartitionedCall/model_105/mouth_nose_align/PartitionedCall/Max", "StatefulPartitionedCall/model_105/mouth_nose_align/PartitionedCall/Min"], "attr": {"T": {"type": "DT_FLOAT"}}}, {"name": "StatefulPartitionedCall/model_105/gaze_eyes_brows_align/PartitionedCall/Add", "op": "AddV2", "input": ["StatefulPartitionedCall/model_105/gaze_eyes_brows_align/PartitionedCall/Min", "StatefulPartitionedCall/model_105/gaze_eyes_brows_align/PartitionedCall/Max"], "attr": {"T": {"type": "DT_FLOAT"}}}, {"name": "StatefulPartitionedCall/model_105/gaze_eyes_brows_align/PartitionedCall/Sub_1", "op": "Sub", "input": ["StatefulPartitionedCall/model_105/gaze_eyes_brows_align/PartitionedCall/Max", "StatefulPartitionedCall/model_105/gaze_eyes_brows_align/PartitionedCall/Min"], "attr": {"T": {"type": "DT_FLOAT"}}}, {"name": "StatefulPartitionedCall/model_105/mouth_nose_align/PartitionedCall/Mul", "op": "Mul", "input": ["StatefulPartitionedCall/model_105/mouth_nose_align/PartitionedCall/Add", "StatefulPartitionedCall/model_105/mouth_nose_align/PartitionedCall/Const_1"], "attr": {"T": {"type": "DT_FLOAT"}}}, {"name": "StatefulPartitionedCall/model_105/mouth_nose_align/PartitionedCall/Mul_1", "op": "Mul", "input": ["StatefulPartitionedCall/model_105/mouth_nose_align/PartitionedCall/Const_2", "StatefulPartitionedCall/model_105/mouth_nose_align/PartitionedCall/Sub_1"], "attr": {"T": {"type": "DT_FLOAT"}}}, {"name": "StatefulPartitionedCall/model_105/gaze_eyes_brows_align/PartitionedCall/Mul", "op": "Mul", "input": ["StatefulPartitionedCall/model_105/gaze_eyes_brows_align/PartitionedCall/Add", "StatefulPartitionedCall/model_105/gaze_eyes_brows_align/PartitionedCall/Const_1"], "attr": {"T": {"type": "DT_FLOAT"}}}, {"name": "StatefulPartitionedCall/model_105/gaze_eyes_brows_align/PartitionedCall/Mul_1", "op": "Mul", "input": ["StatefulPartitionedCall/model_105/gaze_eyes_brows_align/PartitionedCall/Const_2", "StatefulPartitionedCall/model_105/gaze_eyes_brows_align/PartitionedCall/Sub_1"], "attr": {"T": {"type": "DT_FLOAT"}}}, {"name": "StatefulPartitionedCall/model_105/mouth_nose_align/PartitionedCall/MatMul_2", "op": "BatchMatMulV2", "input": ["StatefulPartitionedCall/model_105/mouth_nose_align/PartitionedCall/Mul", "StatefulPartitionedCall/model_105/mouth_nose_align/PartitionedCall/concat"], "attr": {"adj_x": {"b": false}, "adj_y": {"b": false}, "T": {"type": "DT_FLOAT"}}}, {"name": "StatefulPartitionedCall/model_105/mouth_nose_align/PartitionedCall/strided_slice_5", "op": "StridedSlice", "input": ["StatefulPartitionedCall/model_105/mouth_nose_align/PartitionedCall/Mul_1", "StatefulPartitionedCall/model_105/mouth_nose_align/PartitionedCall/strided_slice_5/stack", "StatefulPartitionedCall/model_105/mouth_nose_align/PartitionedCall/strided_slice_5/stack_1", "StatefulPartitionedCall/model_105/mouth_nose_align/PartitionedCall/strided_slice_5/stack_2"], "attr": {"shrink_axis_mask": {"i": "0"}, "new_axis_mask": {"i": "0"}, "end_mask": {"i": "3"}, "T": {"type": "DT_FLOAT"}, "ellipsis_mask": {"i": "0"}, "Index": {"type": "DT_INT32"}, "begin_mask": {"i": "3"}}}, {"name": "StatefulPartitionedCall/model_105/mouth_nose_align/PartitionedCall/strided_slice_6", "op": "StridedSlice", "input": ["StatefulPartitionedCall/model_105/mouth_nose_align/PartitionedCall/Mul_1", "StatefulPartitionedCall/model_105/mouth_nose_align/PartitionedCall/strided_slice_6/stack", "StatefulPartitionedCall/model_105/mouth_nose_align/PartitionedCall/strided_slice_6/stack_1", "StatefulPartitionedCall/model_105/mouth_nose_align/PartitionedCall/strided_slice_6/stack_2"], "attr": {"ellipsis_mask": {"i": "0"}, "Index": {"type": "DT_INT32"}, "shrink_axis_mask": {"i": "0"}, "end_mask": {"i": "3"}, "new_axis_mask": {"i": "0"}, "T": {"type": "DT_FLOAT"}, "begin_mask": {"i": "3"}}}, {"name": "StatefulPartitionedCall/model_105/gaze_eyes_brows_align/PartitionedCall/MatMul_2", "op": "BatchMatMulV2", "input": ["StatefulPartitionedCall/model_105/gaze_eyes_brows_align/PartitionedCall/Mul", "StatefulPartitionedCall/model_105/gaze_eyes_brows_align/PartitionedCall/concat"], "attr": {"adj_y": {"b": false}, "T": {"type": "DT_FLOAT"}, "adj_x": {"b": false}}}, {"name": "StatefulPartitionedCall/model_105/gaze_eyes_brows_align/PartitionedCall/strided_slice_5", "op": "StridedSlice", "input": ["StatefulPartitionedCall/model_105/gaze_eyes_brows_align/PartitionedCall/Mul_1", "StatefulPartitionedCall/model_105/gaze_eyes_brows_align/PartitionedCall/strided_slice_5/stack", "StatefulPartitionedCall/model_105/gaze_eyes_brows_align/PartitionedCall/strided_slice_5/stack_1", "StatefulPartitionedCall/model_105/gaze_eyes_brows_align/PartitionedCall/strided_slice_5/stack_2"], "attr": {"end_mask": {"i": "3"}, "begin_mask": {"i": "3"}, "new_axis_mask": {"i": "0"}, "ellipsis_mask": {"i": "0"}, "Index": {"type": "DT_INT32"}, "shrink_axis_mask": {"i": "0"}, "T": {"type": "DT_FLOAT"}}}, {"name": "StatefulPartitionedCall/model_105/gaze_eyes_brows_align/PartitionedCall/strided_slice_6", "op": "StridedSlice", "input": ["StatefulPartitionedCall/model_105/gaze_eyes_brows_align/PartitionedCall/Mul_1", "StatefulPartitionedCall/model_105/gaze_eyes_brows_align/PartitionedCall/strided_slice_6/stack", "StatefulPartitionedCall/model_105/gaze_eyes_brows_align/PartitionedCall/strided_slice_6/stack_1", "StatefulPartitionedCall/model_105/gaze_eyes_brows_align/PartitionedCall/strided_slice_6/stack_2"], "attr": {"T": {"type": "DT_FLOAT"}, "end_mask": {"i": "3"}, "begin_mask": {"i": "3"}, "shrink_axis_mask": {"i": "0"}, "new_axis_mask": {"i": "0"}, "ellipsis_mask": {"i": "0"}, "Index": {"type": "DT_INT32"}}}, {"name": "StatefulPartitionedCall/model_105/mouth_nose_align/PartitionedCall/Mul_2", "op": "Mul", "input": ["StatefulPartitionedCall/model_105/mouth_nose_align/PartitionedCall/truediv", "StatefulPartitionedCall/model_105/mouth_nose_align/PartitionedCall/strided_slice_5"], "attr": {"T": {"type": "DT_FLOAT"}}}, {"name": "StatefulPartitionedCall/model_105/mouth_nose_align/PartitionedCall/Mul_3", "op": "Mul", "input": ["StatefulPartitionedCall/model_105/mouth_nose_align/PartitionedCall/MatMul", "StatefulPartitionedCall/model_105/mouth_nose_align/PartitionedCall/strided_slice_6"], "attr": {"T": {"type": "DT_FLOAT"}}}, {"name": "StatefulPartitionedCall/model_105/gaze_eyes_brows_align/PartitionedCall/Mul_2", "op": "Mul", "input": ["StatefulPartitionedCall/model_105/gaze_eyes_brows_align/PartitionedCall/truediv", "StatefulPartitionedCall/model_105/gaze_eyes_brows_align/PartitionedCall/strided_slice_5"], "attr": {"T": {"type": "DT_FLOAT"}}}, {"name": "StatefulPartitionedCall/model_105/gaze_eyes_brows_align/PartitionedCall/Mul_3", "op": "Mul", "input": ["StatefulPartitionedCall/model_105/gaze_eyes_brows_align/PartitionedCall/MatMul", "StatefulPartitionedCall/model_105/gaze_eyes_brows_align/PartitionedCall/strided_slice_6"], "attr": {"T": {"type": "DT_FLOAT"}}}, {"name": "StatefulPartitionedCall/model_105/mouth_nose_align/PartitionedCall/Mul_4", "op": "Mul", "input": ["StatefulPartitionedCall/model_105/mouth_nose_align/PartitionedCall/Mul_2", "StatefulPartitionedCall/model_105/mouth_nose_align/PartitionedCall/Mul_4/y"], "attr": {"T": {"type": "DT_FLOAT"}}}, {"name": "StatefulPartitionedCall/model_105/mouth_nose_align/PartitionedCall/Mul_5", "op": "Mul", "input": ["StatefulPartitionedCall/model_105/mouth_nose_align/PartitionedCall/Mul_3", "StatefulPartitionedCall/model_105/mouth_nose_align/PartitionedCall/Mul_5/y"], "attr": {"T": {"type": "DT_FLOAT"}}}, {"name": "StatefulPartitionedCall/model_105/gaze_eyes_brows_align/PartitionedCall/Mul_4", "op": "Mul", "input": ["StatefulPartitionedCall/model_105/gaze_eyes_brows_align/PartitionedCall/Mul_2", "StatefulPartitionedCall/model_105/gaze_eyes_brows_align/PartitionedCall/Mul_4/y"], "attr": {"T": {"type": "DT_FLOAT"}}}, {"name": "StatefulPartitionedCall/model_105/gaze_eyes_brows_align/PartitionedCall/Mul_5", "op": "Mul", "input": ["StatefulPartitionedCall/model_105/gaze_eyes_brows_align/PartitionedCall/Mul_3", "StatefulPartitionedCall/model_105/gaze_eyes_brows_align/PartitionedCall/Mul_5/y"], "attr": {"T": {"type": "DT_FLOAT"}}}, {"name": "StatefulPartitionedCall/model_105/mouth_nose_align/PartitionedCall/Add_1", "op": "AddV2", "input": ["StatefulPartitionedCall/model_105/mouth_nose_align/PartitionedCall/Mul_4", "StatefulPartitionedCall/model_105/mouth_nose_align/PartitionedCall/Mul_5"], "attr": {"T": {"type": "DT_FLOAT"}}}, {"name": "StatefulPartitionedCall/model_105/gaze_eyes_brows_align/PartitionedCall/Add_1", "op": "AddV2", "input": ["StatefulPartitionedCall/model_105/gaze_eyes_brows_align/PartitionedCall/Mul_4", "StatefulPartitionedCall/model_105/gaze_eyes_brows_align/PartitionedCall/Mul_5"], "attr": {"T": {"type": "DT_FLOAT"}}}, {"name": "StatefulPartitionedCall/model_105/mouth_nose_align/PartitionedCall/Sub_2", "op": "Sub", "input": ["StatefulPartitionedCall/model_105/mouth_nose_align/PartitionedCall/MatMul_2", "StatefulPartitionedCall/model_105/mouth_nose_align/PartitionedCall/Add_1"], "attr": {"T": {"type": "DT_FLOAT"}}}, {"name": "StatefulPartitionedCall/model_105/gaze_eyes_brows_align/PartitionedCall/Sub_2", "op": "Sub", "input": ["StatefulPartitionedCall/model_105/gaze_eyes_brows_align/PartitionedCall/MatMul_2", "StatefulPartitionedCall/model_105/gaze_eyes_brows_align/PartitionedCall/Add_1"], "attr": {"T": {"type": "DT_FLOAT"}}}, {"name": "StatefulPartitionedCall/model_105/mouth_nose_align/PartitionedCall/concat_1", "op": "ConcatV2", "input": ["StatefulPartitionedCall/model_105/mouth_nose_align/PartitionedCall/Mul_2", "StatefulPartitionedCall/model_105/mouth_nose_align/PartitionedCall/Mul_3", "StatefulPartitionedCall/model_105/mouth_nose_align/PartitionedCall/zeros", "StatefulPartitionedCall/model_105/mouth_nose_align/PartitionedCall/Sub_2", "StatefulPartitionedCall/model_105/mouth_nose_align/PartitionedCall/concat_1/axis"], "attr": {"Tidx": {"type": "DT_INT32"}, "N": {"i": "4"}, "T": {"type": "DT_FLOAT"}}}, {"name": "StatefulPartitionedCall/model_105/gaze_eyes_brows_align/PartitionedCall/concat_1", "op": "ConcatV2", "input": ["StatefulPartitionedCall/model_105/gaze_eyes_brows_align/PartitionedCall/Mul_2", "StatefulPartitionedCall/model_105/gaze_eyes_brows_align/PartitionedCall/Mul_3", "StatefulPartitionedCall/model_105/gaze_eyes_brows_align/PartitionedCall/zeros", "StatefulPartitionedCall/model_105/gaze_eyes_brows_align/PartitionedCall/Sub_2", "StatefulPartitionedCall/model_105/gaze_eyes_brows_align/PartitionedCall/concat_1/axis"], "attr": {"N": {"i": "4"}, "T": {"type": "DT_FLOAT"}, "Tidx": {"type": "DT_INT32"}}}, {"name": "StatefulPartitionedCall/model_105/mouth_nose_align/PartitionedCall/transpose_1", "op": "Transpose", "input": ["StatefulPartitionedCall/model_105/mouth_nose_align/PartitionedCall/concat_1", "StatefulPartitionedCall/model_105/mouth_nose_align/PartitionedCall/transpose_1/perm"], "attr": {"Tperm": {"type": "DT_INT32"}, "T": {"type": "DT_FLOAT"}}}, {"name": "StatefulPartitionedCall/model_105/gaze_eyes_brows_align/PartitionedCall/transpose_1", "op": "Transpose", "input": ["StatefulPartitionedCall/model_105/gaze_eyes_brows_align/PartitionedCall/concat_1", "StatefulPartitionedCall/model_105/gaze_eyes_brows_align/PartitionedCall/transpose_1/perm"], "attr": {"T": {"type": "DT_FLOAT"}, "Tperm": {"type": "DT_INT32"}}}, {"name": "StatefulPartitionedCall/model_105/mouth_nose_align/PartitionedCall/concat_2", "op": "ConcatV2", "input": ["StatefulPartitionedCall/model_105/mouth_nose_align/PartitionedCall/transpose_1", "StatefulPartitionedCall/model_105/mouth_nose_align/PartitionedCall/Tile", "StatefulPartitionedCall/model_105/mouth_nose_align/PartitionedCall/concat_2/axis"], "attr": {"N": {"i": "2"}, "T": {"type": "DT_FLOAT"}, "Tidx": {"type": "DT_INT32"}}}, {"name": "StatefulPartitionedCall/model_105/gaze_eyes_brows_align/PartitionedCall/concat_2", "op": "ConcatV2", "input": ["StatefulPartitionedCall/model_105/gaze_eyes_brows_align/PartitionedCall/transpose_1", "StatefulPartitionedCall/model_105/gaze_eyes_brows_align/PartitionedCall/Tile", "StatefulPartitionedCall/model_105/gaze_eyes_brows_align/PartitionedCall/concat_2/axis"], "attr": {"Tidx": {"type": "DT_INT32"}, "T": {"type": "DT_FLOAT"}, "N": {"i": "2"}}}, {"name": "StatefulPartitionedCall/model_105/mouth_nose_align/PartitionedCall_1/Reshape", "op": "Reshape", "input": ["StatefulPartitionedCall/model_105/mouth_nose_align/PartitionedCall/concat_2", "StatefulPartitionedCall/model_105/mouth_nose_align/PartitionedCall_1/Reshape/shape"], "attr": {"Tshape": {"type": "DT_INT32"}, "T": {"type": "DT_FLOAT"}}}, {"name": "StatefulPartitionedCall/model_105/gaze_eyes_brows_align/PartitionedCall_1/Reshape", "op": "Reshape", "input": ["StatefulPartitionedCall/model_105/gaze_eyes_brows_align/PartitionedCall/concat_2", "StatefulPartitionedCall/model_105/gaze_eyes_brows_align/PartitionedCall_1/Reshape/shape"], "attr": {"T": {"type": "DT_FLOAT"}, "Tshape": {"type": "DT_INT32"}}}, {"name": "StatefulPartitionedCall/model_105/mouth_nose_align/PartitionedCall_1/strided_slice_1", "op": "StridedSlice", "input": ["StatefulPartitionedCall/model_105/mouth_nose_align/PartitionedCall_1/Reshape", "StatefulPartitionedCall/model_105/mouth_nose_align/PartitionedCall_1/strided_slice_1/stack", "StatefulPartitionedCall/model_105/mouth_nose_align/PartitionedCall_1/strided_slice_1/stack_1", "StatefulPartitionedCall/model_105/mouth_nose_align/PartitionedCall_1/strided_slice_1/stack_2"], "attr": {"end_mask": {"i": "1"}, "ellipsis_mask": {"i": "0"}, "new_axis_mask": {"i": "0"}, "T": {"type": "DT_FLOAT"}, "shrink_axis_mask": {"i": "0"}, "begin_mask": {"i": "1"}, "Index": {"type": "DT_INT32"}}}, {"name": "StatefulPartitionedCall/model_105/mouth_nose_align/PartitionedCall_1/strided_slice_2", "op": "StridedSlice", "input": ["StatefulPartitionedCall/model_105/mouth_nose_align/PartitionedCall_1/Reshape", "StatefulPartitionedCall/model_105/mouth_nose_align/PartitionedCall_1/strided_slice_2/stack", "StatefulPartitionedCall/model_105/mouth_nose_align/PartitionedCall_1/strided_slice_2/stack_1", "StatefulPartitionedCall/model_105/mouth_nose_align/PartitionedCall_1/strided_slice_2/stack_2"], "attr": {"new_axis_mask": {"i": "0"}, "T": {"type": "DT_FLOAT"}, "shrink_axis_mask": {"i": "0"}, "ellipsis_mask": {"i": "0"}, "end_mask": {"i": "1"}, "Index": {"type": "DT_INT32"}, "begin_mask": {"i": "1"}}}, {"name": "StatefulPartitionedCall/model_105/mouth_nose_align/PartitionedCall_1/strided_slice_3", "op": "StridedSlice", "input": ["StatefulPartitionedCall/model_105/mouth_nose_align/PartitionedCall_1/Reshape", "StatefulPartitionedCall/model_105/mouth_nose_align/PartitionedCall_1/strided_slice_3/stack", "StatefulPartitionedCall/model_105/mouth_nose_align/PartitionedCall_1/strided_slice_3/stack_1", "StatefulPartitionedCall/model_105/mouth_nose_align/PartitionedCall_1/strided_slice_3/stack_2"], "attr": {"Index": {"type": "DT_INT32"}, "begin_mask": {"i": "1"}, "ellipsis_mask": {"i": "0"}, "new_axis_mask": {"i": "0"}, "shrink_axis_mask": {"i": "0"}, "T": {"type": "DT_FLOAT"}, "end_mask": {"i": "1"}}}, {"name": "StatefulPartitionedCall/model_105/mouth_nose_align/PartitionedCall_1/strided_slice_4", "op": "StridedSlice", "input": ["StatefulPartitionedCall/model_105/mouth_nose_align/PartitionedCall_1/Reshape", "StatefulPartitionedCall/model_105/mouth_nose_align/PartitionedCall_1/strided_slice_4/stack", "StatefulPartitionedCall/model_105/mouth_nose_align/PartitionedCall_1/strided_slice_4/stack_1", "StatefulPartitionedCall/model_105/mouth_nose_align/PartitionedCall_1/strided_slice_4/stack_2"], "attr": {"shrink_axis_mask": {"i": "0"}, "new_axis_mask": {"i": "0"}, "T": {"type": "DT_FLOAT"}, "ellipsis_mask": {"i": "0"}, "begin_mask": {"i": "1"}, "Index": {"type": "DT_INT32"}, "end_mask": {"i": "1"}}}, {"name": "StatefulPartitionedCall/model_105/gaze_eyes_brows_align/PartitionedCall_1/strided_slice_1", "op": "StridedSlice", "input": ["StatefulPartitionedCall/model_105/gaze_eyes_brows_align/PartitionedCall_1/Reshape", "StatefulPartitionedCall/model_105/gaze_eyes_brows_align/PartitionedCall_1/strided_slice_1/stack", "StatefulPartitionedCall/model_105/gaze_eyes_brows_align/PartitionedCall_1/strided_slice_1/stack_1", "StatefulPartitionedCall/model_105/gaze_eyes_brows_align/PartitionedCall_1/strided_slice_1/stack_2"], "attr": {"begin_mask": {"i": "1"}, "T": {"type": "DT_FLOAT"}, "new_axis_mask": {"i": "0"}, "end_mask": {"i": "1"}, "ellipsis_mask": {"i": "0"}, "Index": {"type": "DT_INT32"}, "shrink_axis_mask": {"i": "0"}}}, {"name": "StatefulPartitionedCall/model_105/gaze_eyes_brows_align/PartitionedCall_1/strided_slice_2", "op": "StridedSlice", "input": ["StatefulPartitionedCall/model_105/gaze_eyes_brows_align/PartitionedCall_1/Reshape", "StatefulPartitionedCall/model_105/gaze_eyes_brows_align/PartitionedCall_1/strided_slice_2/stack", "StatefulPartitionedCall/model_105/gaze_eyes_brows_align/PartitionedCall_1/strided_slice_2/stack_1", "StatefulPartitionedCall/model_105/gaze_eyes_brows_align/PartitionedCall_1/strided_slice_2/stack_2"], "attr": {"end_mask": {"i": "1"}, "begin_mask": {"i": "1"}, "new_axis_mask": {"i": "0"}, "T": {"type": "DT_FLOAT"}, "Index": {"type": "DT_INT32"}, "ellipsis_mask": {"i": "0"}, "shrink_axis_mask": {"i": "0"}}}, {"name": "StatefulPartitionedCall/model_105/gaze_eyes_brows_align/PartitionedCall_1/strided_slice_3", "op": "StridedSlice", "input": ["StatefulPartitionedCall/model_105/gaze_eyes_brows_align/PartitionedCall_1/Reshape", "StatefulPartitionedCall/model_105/gaze_eyes_brows_align/PartitionedCall_1/strided_slice_3/stack", "StatefulPartitionedCall/model_105/gaze_eyes_brows_align/PartitionedCall_1/strided_slice_3/stack_1", "StatefulPartitionedCall/model_105/gaze_eyes_brows_align/PartitionedCall_1/strided_slice_3/stack_2"], "attr": {"Index": {"type": "DT_INT32"}, "begin_mask": {"i": "1"}, "new_axis_mask": {"i": "0"}, "ellipsis_mask": {"i": "0"}, "end_mask": {"i": "1"}, "T": {"type": "DT_FLOAT"}, "shrink_axis_mask": {"i": "0"}}}, {"name": "StatefulPartitionedCall/model_105/gaze_eyes_brows_align/PartitionedCall_1/strided_slice_4", "op": "StridedSlice", "input": ["StatefulPartitionedCall/model_105/gaze_eyes_brows_align/PartitionedCall_1/Reshape", "StatefulPartitionedCall/model_105/gaze_eyes_brows_align/PartitionedCall_1/strided_slice_4/stack", "StatefulPartitionedCall/model_105/gaze_eyes_brows_align/PartitionedCall_1/strided_slice_4/stack_1", "StatefulPartitionedCall/model_105/gaze_eyes_brows_align/PartitionedCall_1/strided_slice_4/stack_2"], "attr": {"begin_mask": {"i": "1"}, "ellipsis_mask": {"i": "0"}, "T": {"type": "DT_FLOAT"}, "shrink_axis_mask": {"i": "0"}, "Index": {"type": "DT_INT32"}, "end_mask": {"i": "1"}, "new_axis_mask": {"i": "0"}}}, {"name": "StatefulPartitionedCall/model_105/mouth_nose_align/PartitionedCall_1/concat", "op": "ConcatV2", "input": ["StatefulPartitionedCall/model_105/mouth_nose_align/PartitionedCall…
ll/model_105/merged_blendshapes/StridedSlice/end", "StatefulPartitionedCall/model_105/merged_blendshapes/ones_like"], "attr": {"begin_mask": {"i": "0"}, "new_axis_mask": {"i": "0"}, "shrink_axis_mask": {"i": "0"}, "T": {"type": "DT_FLOAT"}, "ellipsis_mask": {"i": "0"}, "Index": {"type": "DT_INT32"}, "end_mask": {"i": "0"}}}, {"name": "StatefulPartitionedCall/model_105/merged_blendshapes/StridedSlice_2", "op": "StridedSlice", "input": ["StatefulPartitionedCall/model_105/merged_blendshapes/ExpandDims", "StatefulPartitionedCall/model_105/merged_blendshapes/StridedSlice_2/begin", "StatefulPartitionedCall/model_105/merged_blendshapes/StridedSlice_2/end", "StatefulPartitionedCall/model_105/merged_blendshapes/ones_like_2"], "attr": {"ellipsis_mask": {"i": "0"}, "new_axis_mask": {"i": "0"}, "shrink_axis_mask": {"i": "0"}, "end_mask": {"i": "0"}, "Index": {"type": "DT_INT32"}, "begin_mask": {"i": "0"}, "T": {"type": "DT_FLOAT"}}}, {"name": "StatefulPartitionedCall/model_105/merged_blendshapes/Squeeze", "op": "Squeeze", "input": ["StatefulPartitionedCall/model_105/merged_blendshapes/StridedSlice"], "attr": {"T": {"type": "DT_FLOAT"}, "squeeze_dims": {"list": {"i": ["-1"]}}}}, {"name": "StatefulPartitionedCall/model_105/merged_blendshapes/Squeeze_2", "op": "Squeeze", "input": ["StatefulPartitionedCall/model_105/merged_blendshapes/StridedSlice_2"], "attr": {"T": {"type": "DT_FLOAT"}, "squeeze_dims": {"list": {"i": ["-1"]}}}}, {"name": "StatefulPartitionedCall/model_105/merged_blendshapes/concat", "op": "ConcatV2", "input": ["StatefulPartitionedCall/model_105/merged_blendshapes/Squeeze", "StatefulPartitionedCall/model_105/merged_blendshapes/Squeeze_1", "StatefulPartitionedCall/model_105/merged_blendshapes/Squeeze_2", "StatefulPartitionedCall/model_105/merged_blendshapes/concat/axis"], "attr": {"N": {"i": "3"}, "Tidx": {"type": "DT_INT32"}, "T": {"type": "DT_FLOAT"}}}, {"name": "Identity", "op": "Identity", "input": ["StatefulPartitionedCall/model_105/merged_blendshapes/concat"], "attr": {"T": {"type": "DT_FLOAT"}}}], "library": {}, "versions": {"producer": 1205}}, "weightsManifest": [{"paths": ["group1-shard1of3.bin", "group1-shard2of3.bin", "group1-shard3of3.bin"], "weights": [{"name": "StatefulPartitionedCall/model_105/merged_blendshapes/StridedSlice/begin", "shape": [3], "dtype": "int32"}, {"name": "StatefulPartitionedCall/model_105/merged_blendshapes/StridedSlice/end", "shape": [3], "dtype": "int32"}, {"name": "StatefulPartitionedCall/model_105/merged_blendshapes/ones_like", "shape": [3], "dtype": "int32"}, {"name": "StatefulPartitionedCall/model_105/mouth_nose_align/PartitionedCall_1/strided_slice_1/stack", "shape": [2], "dtype": "int32"}, {"name": "StatefulPartitionedCall/model_105/mouth_nose_align/PartitionedCall_1/strided_slice_1/stack_1", "shape": [2], "dtype": "int32"}, {"name": "StatefulPartitionedCall/model_105/mouth_nose_align/PartitionedCall_1/strided_slice_1/stack_2", "shape": [2], "dtype": "int32"}, {"name": "StatefulPartitionedCall/model_105/mouth_nose_align/PartitionedCall_1/strided_slice_2/stack", "shape": [2], "dtype": "int32"}, {"name": "StatefulPartitionedCall/model_105/mouth_nose_align/PartitionedCall_1/strided_slice_2/stack_1", "shape": [2], "dtype": "int32"}, {"name": "StatefulPartitionedCall/model_105/mouth_nose_align/PartitionedCall_1/strided_slice_2/stack_2", "shape": [2], "dtype": "int32"}, {"name": "StatefulPartitionedCall/model_105/mouth_nose_align/PartitionedCall_1/strided_slice_3/stack", "shape": [2], "dtype": "int32"}, {"name": "StatefulPartitionedCall/model_105/mouth_nose_align/PartitionedCall_1/strided_slice_3/stack_1", "shape": [2], "dtype": "int32"}, {"name": "StatefulPartitionedCall/model_105/mouth_nose_align/PartitionedCall_1/strided_slice_3/stack_2", "shape": [2], "dtype": "int32"}, {"name": "StatefulPartitionedCall/model_105/mouth_nose_align/PartitionedCall/zeros", "shape": [1, 1, 2], "dtype": "float32"}, {"name": "StatefulPartitionedCall/model_105/mouth_nose_align/PartitionedCall/Const_1", "shape": [], "dtype": "float32"}, {"name": "StatefulPartitionedCall/model_105/mouth_nose_align/PartitionedCall/strided_slice_5/stack", "shape": [3], "dtype": "int32"}, {"name": "StatefulPartitionedCall/model_105/mouth_nose_align/PartitionedCall/strided_slice_5/stack_1", "shape": [3], "dtype": "int32"}, {"name": "StatefulPartitionedCall/model_105/mouth_nose_align/PartitionedCall/strided_slice_5/stack_2", "shape": [3], "dtype": "int32"}, {"name": "StatefulPartitionedCall/model_105/mouth_nose_align/PartitionedCall/Mul_4/y", "shape": [], "dtype": "float32"}, {"name": "StatefulPartitionedCall/model_105/mouth_nose_align/PartitionedCall/Const_2", "shape": [1, 2], "dtype": "float32"}, {"name": "StatefulPartitionedCall/model_105/mouth_nose_align/PartitionedCall/Max/reduction_indices", "shape": [], "dtype": "int32"}, {"name": "StatefulPartitionedCall/model_105/mouth_nose_align/PartitionedCall/GatherV2/indices", "shape": [26], "dtype": "int32"}, {"name": "StatefulPartitionedCall/model_105/mouth_nose_align/PartitionedCall/GatherV2/axis", "shape": [], "dtype": "int32"}, {"name": "StatefulPartitionedCall/model_105/mouth_nose_align/PartitionedCall/strided_slice_4/stack", "shape": [3], "dtype": "int32"}, {"name": "StatefulPartitionedCall/model_105/mouth_nose_align/PartitionedCall/strided_slice_4/stack_1", "shape": [3], "dtype": "int32"}, {"name": "StatefulPartitionedCall/model_105/mouth_nose_align/PartitionedCall/strided_slice_4/stack_2", "shape": [3], "dtype": "int32"}, {"name": "StatefulPartitionedCall/model_105/mouth_nose_align/Reshape/shape", "shape": [4], "dtype": "int32"}, {"name": "StatefulPartitionedCall/model_105/mouth_nose_align/mul/y", "shape": [], "dtype": "float32"}, {"name": "StatefulPartitionedCall/model_105/mouth_nose_align/zeros", "shape": [1, 1, 68, 1], "dtype": "float32"}, {"name": "StatefulPartitionedCall/model_105/mouth_nose_align/concat/axis", "shape": [], "dtype": "int32"}, {"name": "StatefulPartitionedCall/model_105/mouth_nose_align/PartitionedCall/Reshape/shape", "shape": [3], "dtype": "int32"}, {"name": "StatefulPartitionedCall/model_105/mouth_nose_align/PartitionedCall/strided_slice_2/stack", "shape": [3], "dtype": "int32"}, {"name": "StatefulPartitionedCall/model_105/mouth_nose_align/PartitionedCall/strided_slice_2/stack_1", "shape": [3], "dtype": "int32"}, {"name": "StatefulPartitionedCall/model_105/mouth_nose_align/PartitionedCall/strided_slice_2/stack_2", "shape": [3], "dtype": "int32"}, {"name": "StatefulPartitionedCall/model_105/mouth_nose_align/PartitionedCall/strided_slice_3/stack", "shape": [3], "dtype": "int32"}, {"name": "StatefulPartitionedCall/model_105/mouth_nose_align/PartitionedCall/strided_slice_3/stack_1", "shape": [3], "dtype": "int32"}, {"name": "StatefulPartitionedCall/model_105/mouth_nose_align/PartitionedCall/strided_slice_3/stack_2", "shape": [3], "dtype": "int32"}, {"name": "StatefulPartitionedCall/model_105/mouth_nose_align/PartitionedCall/norm/Sum/reduction_indices", "shape": [1], "dtype": "int32"}, {"name": "StatefulPartitionedCall/model_105/mouth_nose_align/PartitionedCall/Const", "shape": [2, 2], "dtype": "float32"}, {"name": "StatefulPartitionedCall/model_105/mouth_nose_align/PartitionedCall/concat/axis", "shape": [], "dtype": "int32"}, {"name": "StatefulPartitionedCall/model_105/mouth_nose_align/PartitionedCall/Min/reduction_indices", "shape": [], "dtype": "int32"}, {"name": "StatefulPartitionedCall/model_105/mouth_nose_align/PartitionedCall/strided_slice_6/stack", "shape": [3], "dtype": "int32"}, {"name": "StatefulPartitionedCall/model_105/mouth_nose_align/PartitionedCall/strided_slice_6/stack_1", "shape": [3], "dtype": "int32"}, {"name": "StatefulPartitionedCall/model_105/mouth_nose_align/PartitionedCall/strided_slice_6/stack_2", "shape": [3], "dtype": "int32"}, {"name": "StatefulPartitionedCall/model_105/mouth_nose_align/PartitionedCall/Mul_5/y", "shape": [], "dtype": "float32"}, {"name": "StatefulPartitionedCall/model_105/mouth_nose_align/PartitionedCall/concat_1/axis", "shape": [], "dtype": "int32"}, {"name": "StatefulPartitionedCall/model_105/mouth_nose_align/PartitionedCall/transpose_1/perm", "shape": [3], "dtype": "int32"}, {"name": "StatefulPartitionedCall/model_105/mouth_nose_align/PartitionedCall/Tile", "shape": [1, 2, 4], "dtype": "float32"}, {"name": "StatefulPartitionedCall/model_105/mouth_nose_align/PartitionedCall/concat_2/axis", "shape": [], "dtype": "int32"}, {"name": "StatefulPartitionedCall/model_105/mouth_nose_align/PartitionedCall_1/Reshape/shape", "shape": [2], "dtype": "int32"}, {"name": "StatefulPartitionedCall/model_105/mouth_nose_align/PartitionedCall_1/strided_slice_4/stack", "shape": [2], "dtype": "int32"}, {"name": "StatefulPartitionedCall/model_105/mouth_nose_align/PartitionedCall_1/strided_slice_4/stack_1", "shape": [2], "dtype": "int32"}, {"name": "StatefulPartitionedCall/model_105/mouth_nose_align/PartitionedCall_1/strided_slice_4/stack_2", "shape": [2], "dtype": "int32"}, {"name": "StatefulPartitionedCall/model_105/mouth_nose_align/PartitionedCall_1/concat/axis", "shape": [], "dtype": "int32"}, {"name": "StatefulPartitionedCall/model_105/mouth_nose_align/PartitionedCall_1/transform/output_shape", "shape": [2], "dtype": "int32"}, {"name": "StatefulPartitionedCall/model_105/mouth_nose_align/PartitionedCall_1/transform/fill_value", "shape": [], "dtype": "float32"}, {"name": "StatefulPartitionedCall/model_105/mn_expanded_conv_expanded_conv_1_depthwise_pad/Pad/paddings", "shape": [4, 2], "dtype": "int32"}, {"name": "StatefulPartitionedCall/model_105/mn_expanded_conv_expanded_conv_3_depthwise_pad/Pad/paddings", "shape": [4, 2], "dtype": "int32"}, {"name": "StatefulPartitionedCall/model_105/mn_expanded_conv_expanded_conv_6_depthwise_pad/Pad/paddings", "shape": [4, 2], "dtype": "int32"}, {"name": "StatefulPartitionedCall/model_105/mn_avg_pool/Mean/reduction_indices", "shape": [2], "dtype": "int32"}, {"name": "StatefulPartitionedCall/model_105/mn_dense/MatMul/ReadVariableOp", "shape": [384, 512], "dtype": "float32"}, {"name": "StatefulPartitionedCall/model_105/mn_dense/BiasAdd/ReadVariableOp", "shape": [512], "dtype": "float32"}, {"name": "StatefulPartitionedCall/model_105/mouth_nose/MatMul/ReadVariableOp", "shape": [512, 22], "dtype": "float32"}, {"name": "StatefulPartitionedCall/model_105/mouth_nose/BiasAdd/ReadVariableOp", "shape": [22], "dtype": "float32"}, {"name": "StatefulPartitionedCall/model_105/merged_blendshapes/ExpandDims_1/dim", "shape": [], "dtype": "int32"}, {"name": "StatefulPartitionedCall/model_105/merged_blendshapes/StridedSlice_1/begin", "shape": [3], "dtype": "int32"}, {"name": "StatefulPartitionedCall/model_105/merged_blendshapes/StridedSlice_1/end", "shape": [3], "dtype": "int32"}, {"name": "StatefulPartitionedCall/model_105/merged_blendshapes/ones_like_1", "shape": [3], "dtype": "int32"}, {"name": "StatefulPartitionedCall/model_105/gaze_eyes_brows_align/PartitionedCall_1/strided_slice_1/stack", "shape": [2], "dtype": "int32"}, {"name": "StatefulPartitionedCall/model_105/gaze_eyes_brows_align/PartitionedCall_1/strided_slice_1/stack_1", "shape": [2], "dtype": "int32"}, {"name": "StatefulPartitionedCall/model_105/gaze_eyes_brows_align/PartitionedCall_1/strided_slice_1/stack_2", "shape": [2], "dtype": "int32"}, {"name": "StatefulPartitionedCall/model_105/gaze_eyes_brows_align/PartitionedCall_1/strided_slice_2/stack", "shape": [2], "dtype": "int32"}, {"name": "StatefulPartitionedCall/model_105/gaze_eyes_brows_align/PartitionedCall_1/strided_slice_2/stack_1", "shape": [2], "dtype": "int32"}, {"name": "StatefulPartitionedCall/model_105/gaze_eyes_brows_align/PartitionedCall_1/strided_slice_2/stack_2", "shape": [2], "dtype": "int32"}, {"name": "StatefulPartitionedCall/model_105/gaze_eyes_brows_align/PartitionedCall_1/strided_slice_3/stack", "shape": [2], "dtype": "int32"}, {"name": "StatefulPartitionedCall/model_105/gaze_eyes_brows_align/PartitionedCall_1/strided_slice_3/stack_1", "shape": [2], "dtype": "int32"}, {"name": "StatefulPartitionedCall/model_105/gaze_eyes_brows_align/PartitionedCall_1/strided_slice_3/stack_2", "shape": [2], "dtype": "int32"}, {"name": "StatefulPartitionedCall/model_105/gaze_eyes_brows_align/PartitionedCall/zeros", "shape": [1, 1, 2], "dtype": "float32"}, {"name": "StatefulPartitionedCall/model_105/gaze_eyes_brows_align/PartitionedCall/Const_1", "shape": [], "dtype": "float32"}, {"name": "StatefulPartitionedCall/model_105/gaze_eyes_brows_align/PartitionedCall/strided_slice_5/stack", "shape": [3], "dtype": "int32"}, {"name": "StatefulPartitionedCall/model_105/gaze_eyes_brows_align/PartitionedCall/strided_slice_5/stack_1", "shape": [3], "dtype": "int32"}, {"name": "StatefulPartitionedCall/model_105/gaze_eyes_brows_align/PartitionedCall/strided_slice_5/stack_2", "shape": [3], "dtype": "int32"}, {"name": "StatefulPartitionedCall/model_105/gaze_eyes_brows_align/PartitionedCall/Mul_4/y", "shape": [], "dtype": "float32"}, {"name": "StatefulPartitionedCall/model_105/gaze_eyes_brows_align/PartitionedCall/Const_2", "shape": [1, 2], "dtype": "float32"}, {"name": "StatefulPartitionedCall/model_105/gaze_eyes_brows_align/PartitionedCall/Max/reduction_indices", "shape": [], "dtype": "int32"}, {"name": "StatefulPartitionedCall/model_105/gaze_eyes_brows_align/PartitionedCall/GatherV2/indices", "shape": [12], "dtype": "int32"}, {"name": "StatefulPartitionedCall/model_105/gaze_eyes_brows_align/PartitionedCall/GatherV2/axis", "shape": [], "dtype": "int32"}, {"name": "StatefulPartitionedCall/model_105/gaze_eyes_brows_align/PartitionedCall/strided_slice_4/stack", "shape": [3], "dtype": "int32"}, {"name": "StatefulPartitionedCall/model_105/gaze_eyes_brows_align/PartitionedCall/strided_slice_4/stack_1", "shape": [3], "dtype": "int32"}, {"name": "StatefulPartitionedCall/model_105/gaze_eyes_brows_align/PartitionedCall/strided_slice_4/stack_2", "shape": [3], "dtype": "int32"}, {"name": "StatefulPartitionedCall/model_105/keypoints_activation_base_dense_mobilenetv3_Dense/MatMul/ReadVariableOp", "shape": [528, 768], "dtype": "float32"}, {"name": "StatefulPartitionedCall/model_105/keypoints_activation_base_dense_mobilenetv3_Dense/BiasAdd/ReadVariableOp", "shape": [768], "dtype": "float32"}, {"name": "StatefulPartitionedCall/model_105/keypoints_activation/MatMul/ReadVariableOp", "shape": [768, 136], "dtype": "float32"}, {"name": "StatefulPartitionedCall/model_105/keypoints_activation/BiasAdd/ReadVariableOp", "shape": [136], "dtype": "float32"}, {"name": "StatefulPartitionedCall/model_105/gaze_eyes_brows_align/Reshape/shape", "shape": [4], "dtype": "int32"}, {"name": "StatefulPartitionedCall/model_105/gaze_eyes_brows_align/mul/y", "shape": [], "dtype": "float32"}, {"name": "StatefulPartitionedCall/model_105/gaze_eyes_brows_align/zeros", "shape": [1, 1, 68, 1], "dtype": "float32"}, {"name": "StatefulPartitionedCall/model_105/gaze_eyes_brows_align/concat/axis", "shape": [], "dtype": "int32"}, {"name": "StatefulPartitionedCall/model_105/gaze_eyes_brows_align/PartitionedCall/Reshape/shape", "shape": [3], "dtype": "int32"}, {"name": "StatefulPartitionedCall/model_105/gaze_eyes_brows_align/PartitionedCall/strided_slice_2/stack", "shape": [3], "dtype": "int32"}, {"name": "StatefulPartitionedCall/model_105/gaze_eyes_brows_align/PartitionedCall/strided_slice_2/stack_1", "shape": [3], "dtype": "int32"}, {"name": "StatefulPartitionedCall/model_105/gaze_eyes_brows_align/PartitionedCall/strided_slice_2/stack_2", "shape": [3], "dtype": "int32"}, {"name": "StatefulPartitionedCall/model_105/gaze_eyes_brows_align/PartitionedCall/strided_slice_3/stack", "shape": [3], "dtype": "int32"}, {"name": "StatefulPartitionedCall/model_105/gaze_eyes_brows_align/PartitionedCall/strided_slice_3/stack_1", "shape": [3], "dtype": "int32"}, {"name": "StatefulPartitionedCall/model_105/gaze_eyes_brows_align/PartitionedCall/strided_slice_3/stack_2", "shape": [3], "dtype": "int32"}, {"name": "StatefulPartitionedCall/model_105/gaze_eyes_brows_align/PartitionedCall/norm/Sum/reduction_indices", "shape": [1], "dtype": "int32"}, {"name": "StatefulPartitionedCall/model_105/gaze_eyes_brows_align/PartitionedCall/Const", "shape": [2, 2], "dtype": "float32"}, {"name": "StatefulPartitionedCall/model_105/gaze_eyes_brows_align/PartitionedCall/concat/axis", "shape": [], "dtype": "int32"}, {"name": "StatefulPartitionedCall/model_105/gaze_eyes_brows_align/PartitionedCall/Min/reduction_indices", "shape": [], "dtype": "int32"}, {"name": "StatefulPartitionedCall/model_105/gaze_eyes_brows_align/PartitionedCall/strided_slice_6/stack", "shape": [3], "dtype": "int32"}, {"name": "StatefulPartitionedCall/model_105/gaze_eyes_brows_align/PartitionedCall/strided_slice_6/stack_1", "shape": [3], "dtype": "int32"}, {"name": "StatefulPartitionedCall/model_105/gaze_eyes_brows_align/PartitionedCall/strided_slice_6/stack_2", "shape": [3], "dtype": "int32"}, {"name": "StatefulPartitionedCall/model_105/gaze_eyes_brows_align/PartitionedCall/Mul_5/y", "shape": [], "dtype": "float32"}, {"name": "StatefulPartitionedCall/model_105/gaze_eyes_brows_align/PartitionedCall/concat_1/axis", "shape": [], "dtype": "int32"}, {"name": "StatefulPartitionedCall/model_105/gaze_eyes_brows_align/PartitionedCall/transpose_1/perm", "shape": [3], "dtype": "int32"}, {"name": "StatefulPartitionedCall/model_105/gaze_eyes_brows_align/PartitionedCall/Tile", "shape": [1, 2, 4], "dtype": "float32"}, {"name": "StatefulPartitionedCall/model_105/gaze_eyes_brows_align/PartitionedCall/concat_2/axis", "shape": [], "dtype": "int32"}, {"name": "StatefulPartitionedCall/model_105/gaze_eyes_brows_align/PartitionedCall_1/Reshape/shape", "shape": [2], "dtype": "int32"}, {"name": "StatefulPartitionedCall/model_105/gaze_eyes_brows_align/PartitionedCall_1/strided_slice_4/stack", "shape": [2], "dtype": "int32"}, {"name": "StatefulPartitionedCall/model_105/gaze_eyes_brows_align/PartitionedCall_1/strided_slice_4/stack_1", "shape": [2], "dtype": "int32"}, {"name": "StatefulPartitionedCall/model_105/gaze_eyes_brows_align/PartitionedCall_1/strided_slice_4/stack_2", "shape": [2], "dtype": "int32"}, {"name": "StatefulPartitionedCall/model_105/gaze_eyes_brows_align/PartitionedCall_1/concat/axis", "shape": [], "dtype": "int32"}, {"name": "StatefulPartitionedCall/model_105/gaze_eyes_brows_align/PartitionedCall_1/transform/output_shape", "shape": [2], "dtype": "int32"}, {"name": "StatefulPartitionedCall/model_105/gaze_eyes_brows_align/PartitionedCall_1/transform/fill_value", "shape": [], "dtype": "float32"}, {"name": "StatefulPartitionedCall/model_105/gaze_eyes_brows_simple_crop/strided_slice_2/stack", "shape": [4], "dtype": "int32"}, {"name": "StatefulPartitionedCall/model_105/gaze_eyes_brows_simple_crop/strided_slice_2/stack_1", "shape": [4], "dtype": "int32"}, {"name": "StatefulPartitionedCall/model_105/gaze_eyes_brows_simple_crop/strided_slice_2/stack_2", "shape": [4], "dtype": "int32"}, {"name": "StatefulPartitionedCall/model_105/geb_expanded_conv_expanded_conv_1_depthwise_pad/Pad/paddings", "shape": [4, 2], "dtype": "int32"}, {"name": "StatefulPartitionedCall/model_105/geb_expanded_conv_expanded_conv_3_depthwise_pad/Pad/paddings", "shape": [4, 2], "dtype": "int32"}, {"name": "StatefulPartitionedCall/model_105/geb_expanded_conv_expanded_conv_6_depthwise_pad/Pad/paddings", "shape": [4, 2], "dtype": "int32"}, {"name": "StatefulPartitionedCall/model_105/geb_avg_pool/Mean/reduction_indices", "shape": [2], "dtype": "int32"}, {"name": "StatefulPartitionedCall/model_105/geb_dense/MatMul/ReadVariableOp", "shape": [384, 512], "dtype": "float32"}, {"name": "StatefulPartitionedCall/model_105/geb_dense/BiasAdd/ReadVariableOp", "shape": [512], "dtype": "float32"}, {"name": "StatefulPartitionedCall/model_105/gaze_eyes_brows/MatMul/ReadVariableOp", "shape": [512, 20], "dtype": "float32"}, {"name": "StatefulPartitionedCall/model_105/gaze_eyes_brows/BiasAdd/ReadVariableOp", "shape": [20], "dtype": "float32"}, {"name": "StatefulPartitionedCall/model_105/merged_blendshapes/ExpandDims/dim", "shape": [], "dtype": "int32"}, {"name": "StatefulPartitionedCall/model_105/merged_blendshapes/StridedSlice_2/begin", "shape": [3], "dtype": "int32"}, {"name": "StatefulPartitionedCall/model_105/merged_blendshapes/StridedSlice_2/end", "shape": [3], "dtype": "int32"}, {"name": "StatefulPartitionedCall/model_105/merged_blendshapes/ones_like_2", "shape": [3], "dtype": "int32"}, {"name": "StatefulPartitionedCall/model_105/merged_blendshapes/concat/axis", "shape": [], "dtype": "int32"}, {"name": "StatefulPartitionedCall/model_105/face_base_dense_mobilenetv3_Dense/MatMul/ReadVariableOp", "shape": [528, 768], "dtype": "float32"}, {"name": "StatefulPartitionedCall/model_105/face_base_dense_mobilenetv3_Dense/BiasAdd/ReadVariableOp", "shape": [768], "dtype": "float32"}, {"name": "StatefulPartitionedCall/model_105/face/MatMul/ReadVariableOp", "shape": [768, 1], "dtype": "float32"}, {"name": "StatefulPartitionedCall/model_105/face/BiasAdd/ReadVariableOp", "shape": [1], "dtype": "float32"}, {"name": "StatefulPartitionedCall/model_105/base_resize_to_128x128/Const", "shape": [2], "dtype": "int32"}, {"name": "StatefulPartitionedCall/model_105/base_scaling_with_scale_2_offset_-1/Cast", "shape": [], "dtype": "float32"}, {"name": "StatefulPartitionedCall/model_105/base_scaling_with_scale_2_offset_-1/Cast_1", "shape": [], "dtype": "float32"}, {"name": "StatefulPartitionedCall/model_105/expanded_conv/depthwise/pad/Pad/paddings", "shape": [4, 2], "dtype": "int32"}, {"name": "StatefulPartitionedCall/model_105/expanded_conv_1/depthwise/pad/Pad/paddings", "shape": [4, 2], "dtype": "int32"}, {"name": "StatefulPartitionedCall/model_105/expanded_conv_3/depthwise/pad/Pad/paddings", "shape": [4, 2], "dtype": "int32"}, {"name": "StatefulPartitionedCall/model_105/avg_pool/Mean/reduction_indices", "shape": [2], "dtype": "int32"}, {"name": "StatefulPartitionedCall/model_105/transforms_activation_base_dense_mobilenetv3_Dense/MatMul/ReadVariableOp", "shape": [528, 768], "dtype": "float32"}, {"name": "StatefulPartitionedCall/model_105/transforms_activation_base_dense_mobilenetv3_Dense/BiasAdd/ReadVariableOp", "shape": [768], "dtype": "float32"}, {"name": "StatefulPartitionedCall/model_105/transforms_activation/MatMul/ReadVariableOp", "shape": [768, 20], "dtype": "float32"}, {"name": "StatefulPartitionedCall/model_105/transforms_activation/BiasAdd/ReadVariableOp", "shape": [20], "dtype": "float32"}, {"name": "StatefulPartitionedCall/model_105/Conv/Conv2D_weights", "shape": [3, 3, 3, 16], "dtype": "float32"}, {"name": "StatefulPartitionedCall/model_105/Conv/Conv2D_bn_offset", "shape": [16], "dtype": "float32"}, {"name": "StatefulPartitionedCall/model_105/expanded_conv/depthwise/depthwise_weights", "shape": [3, 3, 16, 1], "dtype": "float32"}, {"name": "StatefulPartitionedCall/model_105/expanded_conv/depthwise/depthwise_bn_offset", "shape": [16], "dtype": "float32"}, {"name": "StatefulPartitionedCall/model_105/expanded_conv/project/Conv2D_weights", "shape": [1, 1, 16, 32], "dtype": "float32"}, {"name": "StatefulPartitionedCall/model_105/geb_expanded_conv_expanded_conv_9_expand/Conv2D_weights", "shape": [1, 1, 48, 112], "dtype": "float32"}, {"name": "StatefulPartitionedCall/model_105/expanded_conv/project/Conv2D_bn_offset", "shape": [32], "dtype": "float32"}, {"name": "StatefulPartitionedCall/model_105/expanded_conv_1/expand/Conv2D_weights", "shape": [1, 1, 32, 144], "dtype": "float32"}, {"name": "StatefulPartitionedCall/model_105/expanded_conv_1/expand/Conv2D_bn_offset", "shape": [144], "dtype": "float32"}, {"name": "StatefulPartitionedCall/model_105/geb_expanded_conv_expanded_conv_9_expand/Conv2D_bn_offset", "shape": [112], "dtype": "float32"}, {"name": "StatefulPartitionedCall/model_105/expanded_conv_1/depthwise/depthwise_weights", "shape": [3, 3, 144, 1], "dtype": "float32"}, {"name": "StatefulPartitionedCall/model_105/expanded_conv_1/depthwise/depthwise_bn_offset", "shape": [144], "dtype": "float32"}, {"name": "StatefulPartitionedCall/model_105/expanded_conv_1/project/Conv2D_weights", "shape": [1, 1, 144, 40], "dtype": "float32"}, {"name": "StatefulPartitionedCall/model_105/expanded_conv_1/project/Conv2D_bn_offset", "shape": [40], "dtype": "float32"}, {"name": "StatefulPartitionedCall/model_105/expanded_conv_2/expand/Conv2D_weights", "shape": [1, 1, 40, 144], "dtype": "float32"}, {"name": "StatefulPartitionedCall/model_105/expanded_conv_2/expand/Conv2D_bn_offset", "shape": [144], "dtype": "float32"}, {"name": "StatefulPartitionedCall/model_105/mn_expanded_conv_expanded_conv_9_depthwise/depthwise_weights", "shape": [3, 3, 112, 1], "dtype": "float32"}, {"name": "StatefulPartitionedCall/model_105/expanded_conv_2/depthwise/depthwise_weights", "shape": [3, 3, 144, 1], "dtype": "float32"}, {"name": "StatefulPartitionedCall/model_105/expanded_conv_2/depthwise/depthwise_bn_offset", "shape": [144], "dtype": "float32"}, {"name": "StatefulPartitionedCall/model_105/expanded_conv_2/project/Conv2D_weights", "shape": [1, 1, 144, 40], "dtype": "float32"}, {"name": "StatefulPartitionedCall/model_105/expanded_conv_2/project/Conv2D_bn_offset", "shape": [40], "dtype": "float32"}, {"name": "StatefulPartitionedCall/model_105/expanded_conv_3/expand/Conv2D_weights", "shape": [1, 1, 40, 160], "dtype": "float32"}, {"name": "StatefulPartitionedCall/model_105/mn_expanded_conv_expanded_conv_9_depthwise/depthwise_bn_offset", "shape": [112], "dtype": "float32"}, {"name": "StatefulPartitionedCall/model_105/expanded_conv_3/expand/Conv2D_bn_offset", "shape": [160], "dtype": "float32"}, {"name": "StatefulPartitionedCall/model_105/expanded_conv_3/depthwise/depthwise_weights", "shape": [3, 3, 160, 1], "dtype": "float32"}, {"name": "StatefulPartitionedCall/model_105/expanded_conv_3/depthwise/depthwise_bn_offset", "shape": [160], "dtype": "float32"}, {"name": "StatefulPartitionedCall/model_105/expanded_conv_3/project/Conv2D_weights", "shape": [1, 1, 160, 72], "dtype": "float32"}, {"name": "StatefulPartitionedCall/model_105/expanded_conv_3/project/Conv2D_bn_offset", "shape": [72], "dtype": "float32"}, {"name": "StatefulPartitionedCall/model_105/expanded_conv_4/expand/Conv2D_weights", "shape": [1, 1, 72, 432], "dtype": "float32"}, {"name": "StatefulPartitionedCall/model_105/geb_expanded_conv_expanded_conv_9_depthwise/depthwise_weights", "shape": [3, 3, 112, 1], "dtype": "float32"}, {"name": "StatefulPartitionedCall/model_105/expanded_conv_4/expand/Conv2D_bn_offset", "shape": [432], "dtype": "float32"}, {"name": "StatefulPartitionedCall/model_105/expanded_conv_4/depthwise/depthwise_weights", "shape": [3, 3, 432, 1], "dtype": "float32"}, {"name": "StatefulPartitionedCall/model_105/expanded_conv_4/depthwise/depthwise_bn_offset", "shape": [432], "dtype": "float32"}, {"name": "StatefulPartitionedCall/model_105/expanded_conv_4/project/Conv2D_weights", "shape": [1, 1, 432, 72], "dtype": "float32"}, {"name": "StatefulPartitionedCall/model_105/geb_expanded_conv_expanded_conv_9_depthwise/depthwise_bn_offset", "shape": [112], "dtype": "float32"}, {"name": "StatefulPartitionedCall/model_105/expanded_conv_4/project/Conv2D_bn_offset", "shape": [72], "dtype": "float32"}, {"name": "StatefulPartitionedCall/model_105/expanded_conv_5/expand/Conv2D_weights", "shape": [1, 1, 72, 432], "dtype": "float32"}, {"name": "StatefulPartitionedCall/model_105/expanded_conv_5/expand/Conv2D_bn_offset", "shape": [432], "dtype": "float32"}, {"name": "StatefulPartitionedCall/model_105/expanded_conv_5/depthwise/depthwise_weights", "shape": [3, 3, 432, 1], "dtype": "float32"}, {"name": "StatefulPartitionedCall/model_105/expanded_conv_5/depthwise/depthwise_bn_offset", "shape": [432], "dtype": "float32"}, {"name": "StatefulPartitionedCall/model_105/expanded_conv_5/project/Conv2D_weights", "shape": [1, 1, 432, 72], "dtype": "float32"}, {"name": "StatefulPartitionedCall/model_105/mn_expanded_conv_expanded_conv_9_project/Conv2D_weights", "shape": [1, 1, 112, 48], "dtype": "float32"}, {"name": "StatefulPartitionedCall/model_105/expanded_conv_5/project/Conv2D_bn_offset", "shape": [72], "dtype": "float32"}, {"name": "StatefulPartitionedCall/model_105/expanded_conv_6/expand/Conv2D_weights", "shape": [1, 1, 72, 216], "dtype": "float32"}, {"name": "StatefulPartitionedCall/model_105/expanded_conv_6/expand/Conv2D_bn_offset", "shape": [216], "dtype": "float32"}, {"name": "StatefulPartitionedCall/model_105/mn_expanded_conv_expanded_conv_9_project/Conv2D_bn_offset", "shape": [48], "dtype": "float32"}, {"name": "StatefulPartitionedCall/model_105/expanded_conv_6/depthwise/depthwise_weights", "shape": [3, 3, 216, 1], "dtype": "float32"}, {"name": "StatefulPartitionedCall/model_105/expanded_conv_6/depthwise/depthwise_bn_offset", "shape": [216], "dtype": "float32"}, {"name": "StatefulPartitionedCall/model_105/expanded_conv_6/project/Conv2D_weights", "shape": [1, 1, 216, 88], "dtype": "float32"}, {"name": "StatefulPartitionedCall/model_105/expanded_conv_6/project/Conv2D_bn_offset", "shape": [88], "dtype": "float32"}, {"name": "StatefulPartitionedCall/model_105/expanded_conv_7/expand/Conv2D_weights", "shape": [1, 1, 88, 264], "dtype": "float32"}, {"name": "StatefulPartitionedCall/model_105/expanded_conv_7/expand/Conv2D_bn_offset", "shape": [264], "dtype": "float32"}, {"name": "StatefulPartitionedCall/model_105/geb_expanded_conv_expanded_conv_9_project/Conv2D_weights", "shape": [1, 1, 112, 48], "dtype": "float32"}, {"name": "StatefulPartitionedCall/model_105/expanded_conv_7/depthwise/depthwise_weights", "shape": [3, 3, 264, 1], "dtype": "float32"}, {"name": "StatefulPartitionedCall/model_105/expanded_conv_7/depthwise/depthwise_bn_offset", "shape": [264], "dtype": "float32"}, {"name": "StatefulPartitionedCall/model_105/expanded_conv_7/project/Conv2D_weights", "shape": [1, 1, 264, 88], "dtype": "float32"}, {"name": "StatefulPartitionedCall/model_105/expanded_conv_7/project/Conv2D_bn_offset", "shape": [88], "dtype": "float32"}, {"name": "StatefulPartitionedCall/model_105/Conv_1/Conv2D_weights", "shape": [1, 1, 88, 528], "dtype": "float32"}, {"name": "StatefulPartitionedCall/model_105/geb_expanded_conv_expanded_conv_9_project/Conv2D_bn_offset", "shape": [48], "dtype": "float32"}, {"name": "StatefulPartitionedCall/model_105/Conv_1/Conv2D_bn_offset", "shape": [528], "dtype": "float32"}, {"name": "StatefulPartitionedCall/model_105/mn_expanded_conv_expanded_conv_10_expand/Conv2D_weights", "shape": [1, 1, 48, 288], "dtype": "float32"}, {"name": "StatefulPartitionedCall/model_105/mn_expanded_conv_expanded_conv_10_expand/Conv2D_bn_offset", "shape": [288], "dtype": "float32"}, {"name": "StatefulPartitionedCall/model_105/geb_expanded_conv_expanded_conv_10_expand/Conv2D_weights", "shape": [1, 1, 48, 288], "dtype": "float32"}, {"name": "StatefulPartitionedCall/model_105/geb_expanded_conv_expanded_conv_10_expand/Conv2D_bn_offset", "shape": [288], "dtype": "float32"}, {"name": "StatefulPartitionedCall/model_105/mn_input_conv/Conv2D_weights", "shape": [3, 3, 3, 16], "dtype": "float32"}, {"name": "StatefulPartitionedCall/model_105/mn_input_conv/Conv2D_bn_offset", "shape": [16], "dtype": "float32"}, {"name": "StatefulPartitionedCall/model_105/geb_input_conv/Conv2D_weights", "shape": [3, 3, 3, 16], "dtype": "float32"}, {"name": "StatefulPartitionedCall/model_105/mn_expanded_conv_expanded_conv_10_depthwise/depthwise_weights", "shape": [3, 3, 288, 1], "dtype": "float32"}, {"name": "StatefulPartitionedCall/model_105/geb_input_conv/Conv2D_bn_offset", "shape": [16], "dtype": "float32"}, {"name": "StatefulPartitionedCall/model_105/mn_expanded_conv_depthwise/depthwise_weights", "shape": [3, 3, 16, 1], "dtype": "float32"}, {"name": "StatefulPartitionedCall/model_105/mn_expanded_conv_depthwise/depthwise_bn_offset", "shape": [16], "dtype": "float32"}, {"name": "StatefulPartitionedCall/model_105/geb_expanded_conv_depthwise/depthwise_weights", "shape": [3, 3, 16, 1], "dtype": "float32"}, {"name": "StatefulPartitionedCall/model_105/geb_expanded_conv_depthwise/depthwise_bn_offset", "shape": [16], "dtype": "float32"}, {"name": "StatefulPartitionedCall/model_105/mn_expanded_conv_project/Conv2D_weights", "shape": [1, 1, 16, 16], "dtype": "float32"}, {"name": "StatefulPartitionedCall/model_105/mn_expanded_conv_expanded_conv_10_depthwise/depthwise_bn_offset", "shape": [288], "dtype": "float32"}, {"name": "StatefulPartitionedCall/model_105/mn_expanded_conv_project/Conv2D_bn_offset", "shape": [16], "dtype": "float32"}, {"name": "StatefulPartitionedCall/model_105/geb_expanded_conv_project/Conv2D_weights", "shape": [1, 1, 16, 16], "dtype": "float32"}, {"name": "StatefulPartitionedCall/model_105/geb_expanded_conv_project/Conv2D_bn_offset", "shape": [16], "dtype": "float32"}, {"name": "StatefulPartitionedCall/model_105/mn_expanded_conv_expanded_conv_1_expand/Conv2D_weights", "shape": [1, 1, 16, 64], "dtype": "float32"}, {"name": "StatefulPartitionedCall/model_105/mn_expanded_conv_expanded_conv_1_expand/Conv2D_bn_offset", "shape": [64], "dtype": "float32"}, {"name": "StatefulPartitionedCall/model_105/geb_expanded_conv_expanded_conv_10_depthwise/depthwise_weights", "shape": [3, 3, 288, 1], "dtype": "float32"}, {"name": "StatefulPartitionedCall/model_105/geb_expanded_conv_expanded_conv_1_expand/Conv2D_weights", "shape": [1, 1, 16, 64], "dtype": "float32"}, {"name": "StatefulPartitionedCall/model_105/geb_expanded_conv_expanded_conv_1_expand/Conv2D_bn_offset", "shape": [64], "dtype": "float32"}, {"name": "StatefulPartitionedCall/model_105/geb_expanded_conv_expanded_conv_10_depthwise/depthwise_bn_offset", "shape": [288], "dtype": "float32"}, {"name": "StatefulPartitionedCall/model_105/mn_expanded_conv_expanded_conv_1_depthwise/depthwise_weights", "shape": [3, 3, 64, 1], "dtype": "float32"}, {"name": "StatefulPartitionedCall/model_105/mn_expanded_conv_expanded_conv_1_depthwise/depthwise_bn_offset", "shape": [64], "dtype": "float32"}, {"name": "StatefulPartitionedCall/model_105/geb_expanded_conv_expanded_conv_1_depthwise/depthwise_weights", "shape": [3, 3, 64, 1], "dtype": "float32"}, {"name": "StatefulPartitionedCall/model_105/geb_expanded_conv_expanded_conv_1_depthwise/depthwise_bn_offset", "shape": [64], "dtype": "float32"}, {"name": "StatefulPartitionedCall/model_105/mn_expanded_conv_expanded_conv_1_project/Conv2D_weights", "shape": [1, 1, 64, 16], "dtype": "float32"}, {"name": "StatefulPartitionedCall/model_105/mn_expanded_conv_expanded_conv_1_project/Conv2D_bn_offset", "shape": [16], "dtype": "float32"}, {"name": "StatefulPartitionedCall/model_105/geb_expanded_conv_expanded_conv_1_project/Conv2D_weights", "shape": [1, 1, 64, 16], "dtype": "float32"}, {"name": "StatefulPartitionedCall/model_105/geb_expanded_conv_expanded_conv_1_project/Conv2D_bn_offset", "shape": [16], "dtype": "float32"}, {"name": "StatefulPartitionedCall/model_105/mn_expanded_conv_expanded_conv_2_expand/Conv2D_weights", "shape": [1, 1, 16, 48], "dtype": "float32"}, {"name": "StatefulPartitionedCall/model_105/mn_expanded_conv_expanded_conv_10_project/Conv2D_weights", "shape": [1, 1, 288, 64], "dtype": "float32"}, {"name": "StatefulPartitionedCall/model_105/mn_expanded_conv_expanded_conv_2_expand/Conv2D_bn_offset", "shape": [48], "dtype": "float32"}, {"name": "StatefulPartitionedCall/model_105/geb_final_conv_1/Conv2D_weights", "shape": [1, 1, 64, 384], "dtype": "float32"}, {"name": "StatefulPartitionedCall/model_105/geb_expanded_conv_expanded_conv_2_expand/Conv2D_weights", "shape": [1, 1, 16, 48], "dtype": "float32"}, {"name": "StatefulPartitionedCall/model_105/mn_expanded_conv_expanded_conv_10_project/Conv2D_bn_offset", "shape": [64], "dtype": "float32"}, {"name": "StatefulPartitionedCall/model_105/geb_expanded_conv_expanded_conv_2_expand/Conv2D_bn_offset", "shape": [48], "dtype": "float32"}, {"name": "StatefulPartitionedCall/model_105/mn_expanded_conv_expanded_conv_2_depthwise/depthwise_weights", "shape": [3, 3, 48, 1], "dtype": "float32"}, {"name": "StatefulPartitionedCall/model_105/mn_expanded_conv_expanded_conv_2_depthwise/depthwise_bn_offset", "shape": [48], "dtype": "float32"}, {"name": "StatefulPartitionedCall/model_105/geb_expanded_conv_expanded_conv_2_depthwise/depthwise_weights", "shape": [3, 3, 48, 1], "dtype": "float32"}, {"name": "StatefulPartitionedCall/model_105/geb_expanded_conv_expanded_conv_2_depthwise/depthwise_bn_offset", "shape": [48], "dtype": "float32"}, {"name": "StatefulPartitionedCall/model_105/mn_expanded_conv_expanded_conv_2_project/Conv2D_weights", "shape": [1, 1, 48, 16], "dtype": "float32"}, {"name": "StatefulPartitionedCall/model_105/geb_expanded_conv_expanded_conv_10_project/Conv2D_weights", "shape": [1, 1, 288, 64], "dtype": "float32"}, {"name": "StatefulPartitionedCall/model_105/mn_expanded_conv_expanded_conv_2_project/Conv2D_bn_offset", "shape": [16], "dtype": "float32"}, {"name": "StatefulPartitionedCall/model_105/geb_expanded_conv_expanded_conv_2_project/Conv2D_weights", "shape": [1, 1, 48, 16], "dtype": "float32"}, {"name": "StatefulPartitionedCall/model_105/geb_expanded_conv_expanded_conv_2_project/Conv2D_bn_offset", "shape": [16], "dtype": "float32"}, {"name": "StatefulPartitionedCall/model_105/mn_expanded_conv_expanded_conv_3_expand/Conv2D_weights", "shape": [1, 1, 16, 48], "dtype": "float32"}, {"name": "StatefulPartitionedCall/model_105/geb_expanded_conv_expanded_conv_10_project/Conv2D_bn_offset", "shape": [64], "dtype": "float32"}, {"name": "StatefulPartitionedCall/model_105/mn_expanded_conv_expanded_conv_3_expand/Conv2D_bn_offset", "shape": [48], "dtype": "float32"}, {"name": "StatefulPartitionedCall/model_105/geb_expanded_conv_expanded_conv_3_expand/Conv2D_weights", "shape": [1, 1, 16, 48], "dtype": "float32"}, {"name": "StatefulPartitionedCall/model_105/mn_expanded_conv_expanded_conv_11_expand/Conv2D_weights", "shape": [1, 1, 64, 384], "dtype": "float32"}, {"name": "StatefulPartitionedCall/model_105/geb_expanded_conv_expanded_conv_3_expand/Conv2D_bn_offset", "shape": [48], "dtype": "float32"}, {"name": "StatefulPartitionedCall/model_105/geb_final_conv_1/Conv2D_bn_offset", "shape": [384], "dtype": "float32"}, {"name": "StatefulPartitionedCall/model_105/mn_expanded_conv_expanded_conv_3_depthwise/depthwise_weights", "shape": [3, 3, 48, 1], "dtype": "float32"}, {"name": "StatefulPartitionedCall/model_105/mn_expanded_conv_expanded_conv_3_depthwise/depthwise_bn_offset", "shape": [48], "dtype": "float32"}, {"name": "StatefulPartitionedCall/model_105/geb_expanded_conv_expanded_conv_3_depthwise/depthwise_weights", "shape": [3, 3, 48, 1], "dtype": "float32"}, {"name": "StatefulPartitionedCall/model_105/geb_expanded_conv_expanded_conv_3_depthwise/depthwise_bn_offset", "shape": [48], "dtype": "float32"}, {"name": "StatefulPartitionedCall/model_105/mn_expanded_conv_expanded_conv_3_project/Conv2D_weights", "shape": [1, 1, 48, 24], "dtype": "float32"}, {"name": "StatefulPartitionedCall/model_105/mn_expanded_conv_expanded_conv_11_expand/Conv2D_bn_offset", "shape": [384], "dtype": "float32"}, {"name": "StatefulPartitionedCall/model_105/mn_expanded_conv_expanded_conv_3_project/Conv2D_bn_offset", "shape": [24], "dtype": "float32"}, {"name": "StatefulPartitionedCall/model_105/geb_expanded_conv_expanded_conv_3_project/Conv2D_weights", "shape": [1, 1, 48, 24], "dtype": "float32"}, {"name": "StatefulPartitionedCall/model_105/geb_expanded_conv_expanded_conv_3_project/Conv2D_bn_offset", "shape": [24], "dtype": "float32"}, {"name": "StatefulPartitionedCall/model_105/mn_expanded_conv_expanded_conv_4_expand/Conv2D_weights", "shape": [1, 1, 24, 72], "dtype": "float32"}, {"name": "StatefulPartitionedCall/model_105/mn_expanded_conv_expanded_conv_4_expand/Conv2D_bn_offset", "shape": [72], "dtype": "float32"}, {"name": "StatefulPartitionedCall/model_105/geb_expanded_conv_expanded_conv_11_expand/Conv2D_weights", "shape": [1, 1, 64, 384], "dtype": "float32"}, {"name": "StatefulPartitionedCall/model_105/geb_expanded_conv_expanded_conv_4_expand/Conv2D_weights", "shape": [1, 1, 24, 72], "dtype": "float32"}, {"name": "StatefulPartitionedCall/model_105/geb_expanded_conv_expanded_conv_4_expand/Conv2D_bn_offset", "shape": [72], "dtype": "float32"}, {"name": "StatefulPartitionedCall/model_105/geb_expanded_conv_expanded_conv_11_expand/Conv2D_bn_offset", "shape": [384], "dtype": "float32"}, {"name": "StatefulPartitionedCall/model_105/mn_expanded_conv_expanded_conv_4_depthwise/depthwise_weights", "shape": [3, 3, 72, 1], "dtype": "float32"}, {"name": "StatefulPartitionedCall/model_105/mn_expanded_conv_expanded_conv_4_depthwise/depthwise_bn_offset", "shape": [72], "dtype": "float32"}, {"name": "StatefulPartitionedCall/model_105/geb_expanded_conv_expanded_conv_4_depthwise/depthwise_weights", "shape": [3, 3, 72, 1], "dtype": "float32"}, {"name": "StatefulPartitionedCall/model_105/geb_expanded_conv_expanded_conv_4_depthwise/depthwise_bn_offset", "shape": [72], "dtype": "float32"}, {"name": "StatefulPartitionedCall/model_105/mn_expanded_conv_expanded_conv_4_project/Conv2D_weights", "shape": [1, 1, 72, 24], "dtype": "float32"}, {"name": "StatefulPartitionedCall/model_105/mn_expanded_conv_expanded_conv_4_project/Conv2D_bn_offset", "shape": [24], "dtype": "float32"}, {"name": "StatefulPartitionedCall/model_105/geb_expanded_conv_expanded_conv_4_project/Conv2D_weights", "shape": [1, 1, 72, 24], "dtype": "float32"}, {"name": "StatefulPartitionedCall/model_105/geb_expanded_conv_expanded_conv_4_project/Conv2D_bn_offset", "shape": [24], "dtype": "float32"}, {"name": "StatefulPartitionedCall/model_105/mn_expanded_conv_expanded_conv_5_expand/Conv2D_weights", "shape": [1, 1, 24, 72], "dtype": "float32"}, {"name": "StatefulPartitionedCall/model_105/mn_expanded_conv_expanded_conv_11_depthwise/depthwise_weights", "shape": [3, 3, 384, 1], "dtype": "float32"}, {"name": "StatefulPartitionedCall/model_105/mn_expanded_conv_expanded_conv_5_expand/Conv2D_bn_offset", "shape": [72], "dtype": "float32"}, {"name": "StatefulPartitionedCall/model_105/geb_expanded_conv_expanded_conv_5_expand/Conv2D_weights", "shape": [1, 1, 24, 72], "dtype": "float32"}, {"name": "StatefulPartitionedCall/model_105/mn_expanded_conv_expanded_conv_11_depthwise/depthwise_bn_offset", "shape": [384], "dtype": "float32"}, {"name": "StatefulPartitionedCall/model_105/geb_expanded_conv_expanded_conv_5_expand/Conv2D_bn_offset", "shape": [72], "dtype": "float32"}, {"name": "StatefulPartitionedCall/model_105/mn_expanded_conv_expanded_conv_5_depthwise/depthwise_weights", "shape": [3, 3, 72, 1], "dtype": "float32"}, {"name": "StatefulPartitionedCall/model_105/mn_expanded_conv_expanded_conv_5_depthwise/depthwise_bn_offset", "shape": [72], "dtype": "float32"}, {"name": "StatefulPartitionedCall/model_105/geb_expanded_conv_expanded_conv_5_depthwise/depthwise_weights", "shape": [3, 3, 72, 1], "dtype": "float32"}, {"name": "StatefulPartitionedCall/model_105/geb_expanded_conv_expanded_conv_5_depthwise/depthwise_bn_offset", "shape": [72], "dtype": "float32"}, {"name": "StatefulPartitionedCall/model_105/mn_expanded_conv_expanded_conv_5_project/Conv2D_weights", "shape": [1, 1, 72, 24], "dtype": "float32"}, {"name": "StatefulPartitionedCall/model_105/mn_expanded_conv_expanded_conv_5_project/Conv2D_bn_offset", "shape": [24], "dtype": "float32"}, {"name": "StatefulPartitionedCall/model_105/geb_expanded_conv_expanded_conv_5_project/Conv2D_weights", "shape": [1, 1, 72, 24], "dtype": "float32"}, {"name": "StatefulPartitionedCall/model_105/geb_expanded_conv_expanded_conv_11_depthwise/depthwise_weights", "shape": [3, 3, 384, 1], "dtype": "float32"}, {"name": "StatefulPartitionedCall/model_105/geb_expanded_conv_expanded_conv_5_project/Conv2D_bn_offset", "shape": [24], "dtype": "float32"}, {"name": "StatefulPartitionedCall/model_105/mn_expanded_conv_expanded_conv_6_expand/Conv2D_weights", "shape": [1, 1, 24, 144], "dtype": "float32"}, {"name": "StatefulPartitionedCall/model_105/mn_expanded_conv_expanded_conv_6_expand/Conv2D_bn_offset", "shape": [144], "dtype": "float32"}, {"name": "StatefulPartitionedCall/model_105/geb_expanded_conv_expanded_conv_11_depthwise/depthwise_bn_offset", "shape": [384], "dtype": "float32"}, {"name": "StatefulPartitionedCall/model_105/geb_expanded_conv_expanded_conv_6_expand/Conv2D_weights", "shape": [1, 1, 24, 144], "dtype": "float32"}, {"name": "StatefulPartitionedCall/model_105/geb_expanded_conv_expanded_conv_6_expand/Conv2D_bn_offset", "shape": [144], "dtype": "float32"}, {"name": "StatefulPartitionedCall/model_105/mn_expanded_conv_expanded_conv_6_depthwise/depthwise_weights", "shape": [3, 3, 144, 1], "dtype": "float32"}, {"name": "StatefulPartitionedCall/model_105/mn_expanded_conv_expanded_conv_6_depthwise/depthwise_bn_offset", "shape": [144], "dtype": "float32"}, {"name": "StatefulPartitionedCall/model_105/geb_expanded_conv_expanded_conv_6_depthwise/depthwise_weights", "shape": [3, 3, 144, 1], "dtype": "float32"}, {"name": "StatefulPartitionedCall/model_105/geb_expanded_conv_expanded_conv_6_depthwise/depthwise_bn_offset", "shape": [144], "dtype": "float32"}, {"name": "StatefulPartitionedCall/model_105/mn_expanded_conv_expanded_conv_6_project/Conv2D_weights", "shape": [1, 1, 144, 48], "dtype": "float32"}, {"name": "StatefulPartitionedCall/model_105/mn_expanded_conv_expanded_conv_11_project/Conv2D_weights", "shape": [1, 1, 384, 64], "dtype": "float32"}, {"name": "StatefulPartitionedCall/model_105/mn_expanded_conv_expanded_conv_6_project/Conv2D_bn_offset", "shape": [48], "dtype": "float32"}, {"name": "StatefulPartitionedCall/model_105/geb_expanded_conv_expanded_conv_6_project/Conv2D_weights", "shape": [1, 1, 144, 48], "dtype": "float32"}, {"name": "StatefulPartitionedCall/model_105/geb_expanded_conv_expanded_conv_6_project/Conv2D_bn_offset", "shape": [48], "dtype": "float32"}, {"name": "StatefulPartitionedCall/model_105/mn_expanded_conv_expanded_conv_7_expand/Conv2D_weights", "shape": [1, 1, 48, 120], "dtype": "float32"}, {"name": "StatefulPartitionedCall/model_105/mn_expanded_conv_expanded_conv_11_project/Conv2D_bn_offset", "shape": [64], "dtype": "float32"}, {"name": "StatefulPartitionedCall/model_105/mn_expanded_conv_expanded_conv_7_expand/Conv2D_bn_offset", "shape": [120], "dtype": "float32"}, {"name": "StatefulPartitionedCall/model_105/geb_expanded_conv_expanded_conv_7_expand/Conv2D_weights", "shape": [1, 1, 48, 120], "dtype": "float32"}, {"name": "StatefulPartitionedCall/model_105/geb_expanded_conv_expanded_conv_7_expand/Conv2D_bn_offset", "shape": [120], "dtype": "float32"}, {"name": "StatefulPartitionedCall/model_105/geb_expanded_conv_expanded_conv_11_project/Conv2D_weights", "shape": [1, 1, 384, 64], "dtype": "float32"}, {"name": "StatefulPartitionedCall/model_105/mn_expanded_conv_expanded_conv_7_depthwise/depthwise_weights", "shape": [3, 3, 120, 1], "dtype": "float32"}, {"name": "StatefulPartitionedCall/model_105/mn_expanded_conv_expanded_conv_7_depthwise/depthwise_bn_offset", "shape": [120], "dtype": "float32"}, {"name": "StatefulPartitionedCall/model_105/geb_expanded_conv_expanded_conv_7_depthwise/depthwise_weights", "shape": [3, 3, 120, 1], "dtype": "float32"}, {"name": "StatefulPartitionedCall/model_105/geb_expanded_conv_expanded_conv_7_depthwise/depthwise_bn_offset", "shape": [120], "dtype": "float32"}, {"name": "StatefulPartitionedCall/model_105/mn_expanded_conv_expanded_conv_7_project/Conv2D_weights", "shape": [1, 1, 120, 48], "dtype": "float32"}, {"name": "StatefulPartitionedCall/model_105/mn_expanded_conv_expanded_conv_7_project/Conv2D_bn_offset", "shape": [48], "dtype": "float32"}, {"name": "StatefulPartitionedCall/model_105/geb_expanded_conv_expanded_conv_7_project/Conv2D_weights", "shape": [1, 1, 120, 48], "dtype": "float32"}, {"name": "StatefulPartitionedCall/model_105/geb_expanded_conv_expanded_conv_11_project/Conv2D_bn_offset", "shape": [64], "dtype": "float32"}, {"name": "StatefulPartitionedCall/model_105/geb_expanded_conv_expanded_conv_7_project/Conv2D_bn_offset", "shape": [48], "dtype": "float32"}, {"name": "StatefulPartitionedCall/model_105/mn_expanded_conv_expanded_conv_8_expand/Conv2D_weights", "shape": [1, 1, 48, 112], "dtype": "float32"}, {"name": "StatefulPartitionedCall/model_105/mn_expanded_conv_expanded_conv_8_expand/Conv2D_bn_offset", "shape": [112], "dtype": "float32"}, {"name": "StatefulPartitionedCall/model_105/geb_expanded_conv_expanded_conv_8_expand/Conv2D_weights", "shape": [1, 1, 48, 112], "dtype": "float32"}, {"name": "StatefulPartitionedCall/model_105/mn_final_conv_1/Conv2D_weights", "shape": [1, 1, 64, 384], "dtype": "float32"}, {"name": "StatefulPartitionedCall/model_105/geb_expanded_conv_expanded_conv_8_expand/Conv2D_bn_offset", "shape": [112], "dtype": "float32"}, {"name": "StatefulPartitionedCall/model_105/mn_expanded_conv_expanded_conv_8_depthwise/depthwise_weights", "shape": [3, 3, 112, 1], "dtype": "float32"}, {"name": "StatefulPartitionedCall/model_105/mn_expanded_conv_expanded_conv_8_depthwise/depthwise_bn_offset", "shape": [112], "dtype": "float32"}, {"name": "StatefulPartitionedCall/model_105/geb_expanded_conv_expanded_conv_8_depthwise/depthwise_weights", "shape": [3, 3, 112, 1], "dtype": "float32"}, {"name": "StatefulPartitionedCall/model_105/geb_expanded_conv_expanded_conv_8_depthwise/depthwise_bn_offset", "shape": [112], "dtype": "float32"}, {"name": "StatefulPartitionedCall/model_105/mn_expanded_conv_expanded_conv_8_project/Conv2D_weights", "shape": [1, 1, 112, 48], "dtype": "float32"}, {"name": "StatefulPartitionedCall/model_105/mn_final_conv_1/Conv2D_bn_offset", "shape": [384], "dtype": "float32"}, {"name": "StatefulPartitionedCall/model_105/mn_expanded_conv_expanded_conv_8_project/Conv2D_bn_offset", "shape": [48], "dtype": "float32"}, {"name": "StatefulPartitionedCall/model_105/geb_expanded_conv_expanded_conv_8_project/Conv2D_weights", "shape": [1, 1, 112, 48], "dtype": "float32"}, {"name": "StatefulPartitionedCall/model_105/geb_expanded_conv_expanded_conv_8_project/Conv2D_bn_offset", "shape": [48], "dtype": "float32"}, {"name": "StatefulPartitionedCall/model_105/mn_expanded_conv_expanded_conv_9_expand/Conv2D_weights", "shape": [1, 1, 48, 112], "dtype": "float32"}, {"name": "StatefulPartitionedCall/model_105/mn_expanded_conv_expanded_conv_9_expand/Conv2D_bn_offset", "shape": [112], "dtype": "float32"}]}]}